best_model_V2.pth (torch, 5251 bytes, 4 tensors)

fc1.weight f4 [32, 25]
-0.115769714 0.016283529 -0.16918029 -0.09359837 -0.14757262 -0.19460131 0.1076036 0.085770555
0.12382813 0.13268198 0.037859946 -0.07939164 0.19347571 0.16282709 0.16953568 0.1365089
-0.040848322 0.12099689 0.081572875 -0.02393707 -0.16859895 -0.060113356 0.072678305 -0.13441107
0.16619167 -0.18196982 0.07016164 -0.05929445 0.08681716 0.18415554 0.17882633 0.10776843
-0.003479387 -0.12610932 0.06692399 -0.16713636 -0.17940725 -0.12590563 0.16445796 -0.11083315
0.08912057 -0.08847018 0.094638914 -0.098152034 -0.09774351 0.16817531 -0.09608534 0.08075128
0.16049962 -0.058822364 -0.13366362 -0.06198521 -0.08243766 0.14702724 -0.14877746 -0.16498116
-0.13603362 0.06036271 -0.078576684 0.06359492 0.057581052 -0.08024037 0.16775171 0.12894247
0.0947303 0.043042496 -0.09765837 -0.068459004 -0.02861926 -0.18012081 -0.051944166 -0.04827504
0.019648284 0.1719891 0.13010965 0.07931878 0.026263624 -0.009731263 0.089001015 0.15672566
-0.06495771 -0.07931049 -0.108781956 -0.18357699 -0.14427236 -0.053058416 -0.030569077 -0.16162792
0.0042850524 -0.055619046 -0.05215685 0.1003554 -0.19822393 -0.178053 -1.1056662e-05 -0.19016221
0.095664576 0.010008365 0.1290778 0.07831584 0.18635353 -0.11258299 -0.17348516 -0.07081823
0.08055168 0.008560093 -0.15634187 -0.094212756 -0.015952729 -0.13607168 0.11394866 0.06327802
0.14343369 -0.090467915 0.014120986 -0.13673316 0.14100423 0.19227517 0.11150667 0.16659293
-0.031925905 -0.10240073 0.10697875 -0.15120088 0.104203604 -0.16023064 -0.20945588 0.037816904
0.16447383 0.013709112 0.17067301 -0.18983059 0.07518553 0.13625753 -0.19901416 -0.01440925
0.19726218 0.16636698 0.13965482 -0.07728352 0.029084548 -0.07231002 -0.06609328 0.14987668
-0.069727235 0.097718425 0.1517818 0.14482275 -0.123561956 0.17905289 -0.070166044 0.042090125
-0.17237774 0.17024697 0.10056428 -0.035794254 -0.18123473 0.1751165 0.11484396 0.1118689
0.17758715 0.16695209 0.011831083 -0.083505504 -0.12808394 0.1512307 -0.08943281 -0.18456517
0.112521425 -0.13882245 -0.049192097 -0.075198434 -0.19614682 -0.023254871 0.09113434 -0.049921036
0.09592943 -0.14347962 0.055327013 -0.047588736 -0.015850544 -0.105519705 -0.13452354 -0.14750353
0.11525746 -0.0926105 -0.056298807 -0.14009777 0.09590219 0.12758566 -0.18275015 0.042767838
-0.054329604 -0.18317933 0.18194102 -0.07518623 0.07942967 -0.011623859 -0.12908295 -0.10975297
-0.12036176 0.023670003 -0.11157975 -0.11937606 0.15056877 0.046405315 0.114390954 0.08489303
0.11247356 0.19586135 -0.015681028 -0.07870412 0.13763861 0.13635285 -0.1439941 -0.17461936
-0.12470465 -0.162395 0.010591671 0.13513793 -0.035674766 -0.12419193 0.085798755 -0.17171632
-0.09989333 0.17081042 -0.110637285 -0.02413091 0.2092029 -0.16256954 -0.068245456 0.04765063
0.018483642 0.057585087 -0.121935666 0.17015174 0.067161605 -0.19640559 0.045715712 0.029867135
0.040841054 -0.16596846 -0.13150077 0.06298852 0.064643174 -0.1372188 0.15523489 0.022017563
-0.05127493 0.07978903 -0.031259224 -0.17524481 -0.14537883 -0.031798318 0.16018231 0.14414568
00000000: ac18 edbd 0965 853c 993d 2dbe 81b0 bfbd
00000010: 471d 17be 9145 47be 475f dc3d 79a8 af3d
00000020: 9a99 fd3d c9dd 073e 0813 1b3d 1698 a2bd
00000030: 7f1e 463e 25bc 263e c39a 2d3e fdc8 0b3e
00000040: 9250 27bd 38cd f73d ae0f a73d ad17 c4bc
00000050: 34a5 2cbe 6c39 76bd 5dd8 943d 0ea3 09be
00000060: 262e 2a3e 4c56 3abe e8b0 8f3d bdde 72bd
00000070: 32cd b13d 4593 3c3e 401e 373e b2b5 dc3d
00000080: 6d06 64bb cd22 01be 720f 893d cb25 2bbe
00000090: 89b6 37be 68ed 00be ab67 283e 7efc e2bd
000000a0: d884 b63d db2f b5bd 0cd2 c13d ef03 c9bd
000000b0: c02d c8bd 2636 2c3e 64c8 c4bd ed60 a53d
000000c0: 035a 243e b8ef 70bd 1edf 08be 34e4 7dbd
000000d0: 13d5 a8bd 4f8e 163e 1e59 18be d2f0 28be
000000e0: 664c 0bbe e43e 773d d0ec a0bd 0e3e 823d
000000f0: 1cda 6b3d 1055 a4bd 1bc7 2b3e 7f09 043e
00000100: f601 c23d 544d 303d 1d01 c8bd 3c34 8cbd
00000110: f072 eabc 9771 38be 68c3 54bd 0cbc 45bd
00000120: 70f5 a03c e91d 303e 773b 053e e271 a23d
00000130: d026 d73c e06f 1fbc 2a46 b63d b17c 203e
00000140: 8c08 85bd 8a6d a2bd 13c9 debd 9bfb 3bbe
00000150: 22bc 13be c853 59bd 006c fabc ca81 25be
00000160: a069 8c3b ccd0 63bd 6ca2 55bd 2287 cd3d
00000170: 37fb 4abe 8753 36be 0080 39b7 e2b9 42be
00000180: caeb c33d 20fa 233c f92c 043e 0e64 a03d
00000190: 76d3 3e3e e991 e6bd 18a6 31be 2609 91bd
000001a0: 47f8 a43d a23f 0c3c 1518 20be 9ef2 c0bd
000001b0: 4caf 82bc 6056 0bbe ea5d e93d e897 813d
000001c0: 48e0 123e 3e47 b9bd b55b 673c c703 0cbe
000001d0: 6a63 103e c8e3 443e 9c5d e43d 5697 2a3e
000001e0: bdc4 02bd 79b7 d1bd ad17 db3d 67d4 1abe
000001f0: b368 d53d 8013 24be 9a7b 56be e6e5 1a3d
00000200: d46b 283e 2f9c 603c e8c4 2e3e f362 42be
00000210: dffa 993d 1887 0b3e 5eca 4bbe c614 6cbc
00000220: 19ff 493e 1b5c 2a3e ac01 0f3e d246 9ebd
00000230: b842 ee3c 4717 94bd ea5b 87bd 4679 193e
00000240: 27cd 8ebd 9920 c83d b06c 1b3e 6a4c 143e
00000250: 0d0e fdbd a459 373e 37b3 8fbd b266 2c3d
00000260: ca83 30be 3955 2e3e a5f4 cd3d ff9c 12bd
00000270: 9995 39be bd51 333e 4f33 eb3d 861b e53d
00000280: 68d9 353e 7df5 2a3e 29d7 413c ef04 abbd
00000290: 7028 03be 38dc 1a3e 8d28 b7bd a7fe 3cbe
000002a0: a271 e63d 7927 0ebe a77d 49bd a301 9abd
000002b0: b6da 48be 0081 bebc a4a4 ba3d 007a 4cbd
000002c0: a676 c43d 52ec 12be 949e 623d 68ec 42bd
000002d0: 00d9 81bc b71a d8bd 8ac0 09be 2a0b 17be
000002e0: 1a0c ec3d 93aa bdbd 9499 66bd ca75 0fbe
000002f0: 5e68 c43d d1a5 023e db22 3bbe 542d 2f3d
00000300: b888 5ebd 5d93 3bbe bf4e 3a3e 3dfb 99bd
00000310: 06ac a23d 0072 3ebc 522e 04be 2ac6 e0bd
00000320: 3a80 f6bd 98e7 c13c ed83 e4bd 707b f4bd
00000330: b32e 1a3e 8013 3e3d ce45 ea3d 66dc ad3d
00000340: 8a58 e63d e18f 483e 8075 80bc a02f a1bd
00000350: 23f1 0c3e 15a0 0b3e 3073 13be 6bcf 32be
00000360: 2765 ffbd e04a 26be b088 2d3c 9961 0a3e
00000370: b41f 12bd 5758 febd 42b7 af3d 67d6 2fbe
00000380: e094 ccbd ede8 2e3e cd95 e2bd 30ae c5bc
00000390: 4939 563e a178 26be 46c4 8bbd 4f2d 433d
000003a0: 026b 973c 57de 6b3d 68b9 f9bd 423c 2e3e
000003b0: 068c 893d 8c1e 49be 6640 3b3d ecab f43c
000003c0: f348 273d a3f3 29be 23a8 06be 2000 813d
000003d0: a463 843d 1683 0cbe e5f5 1e3e 2d5e b43c
000003e0: a905 52bd 6e68 a33d ac09 00bd 6073 33be
000003f0: 30de 14be f43e 02bd d506 243e ed9a 133e

fc1.bias f4 [32]
0.16797313 0.055137753 -0.030206248 -0.019524097 -0.13234921 0.1141877 -0.033211704 0.051866814
-0.052605465 0.12033814 0.17309256 0.14404999 -0.12161058 -0.07268603 0.06153136 -0.15949205
-0.10928311 0.08487694 -0.0025767528 -0.03732738 -0.10156817 0.0010661185 -0.18431182 -0.06476267
-0.055410028 -0.17687313 -0.16550079 -0.20927268 -0.071962 0.027354121 -0.07075529 0.012376918
00000000: 2601 2c3e 20d8 613d 1873 f7bc 00f1 9fbc
00000010: 8d86 07be 3edb e93d ff08 08bd 4c72 543d
00000020: d478 57bd d873 f63d 2d3f 313e d781 133e
00000030: f80e f9bd 6adc 94bd 4f08 7c3d e251 23be
00000040: d3cf dfbd f6d3 ad3d bdde 28bb 98e4 18bd
00000050: f902 d0bd 00bd 8b3a 3dbc 3cbe 4aa2 84bd
00000060: a0f5 62bd 3b1e 35be 0a79 29be 944b 56be
00000070: d060 93bd c015 e03c 26e8 90bd 8fc8 4a3c

fc2.weight f4 [2, 32]
-0.13510974 0.13236193 -0.045942172 0.08679958 -0.045157127 -0.07524744 0.009989627 0.09776159
-0.14044575 0.075335555 0.13815205 0.07890465 -0.019296044 -0.10615868 -0.13325834 0.079729095
-0.026274577 0.081972025 0.17288886 -0.14233819 -0.051657237 -0.011910811 0.016034827 0.16202278
0.17258899 0.028542563 -0.14307687 -0.038766097 -0.052271534 0.11033212 0.0341478 0.036981776
0.055470146 0.039871704 0.09252562 0.05313322 -0.16416398 -0.008704057 0.08904018 0.022653043
0.13829575 -0.16549042 -0.12900391 -0.022594854 0.03646837 -0.16967307 0.114258155 -0.107140385
-0.13457836 0.044098776 -0.11259366 -0.027826026 -0.032917324 -0.15782318 -0.06777805 0.17146708
0.14889811 0.14851315 0.100252785 -0.019368209 -0.06361391 -0.15264262 0.011076346 -0.15379302
00000000: 355a 0abe e389 073e dc2d 3cbd fac3 b13d
00000010: aef6 38bd 541b 9abd 88ab 233c 3a37 c83d
00000020: 03d1 0fbe 8749 9a3d bb77 0d3e c398 a13d
00000030: bd12 9ebc b969 d9bd e074 08be 0249 a33d
00000040: c83d d7bc f3e0 a73d c709 313e 1ac1 11be
00000050: 8a96 53bd 9025 43bc 785b 833c 4de9 253e
00000060: 2bbb 303e 18d2 e93c be82 12be 33c9 1ebd
00000070: ad1a 56bd cef5 e13d 90de 0b3d 347a 173d
00000080: aa34 633d 8350 233d 127e bd3d 38a2 593d
00000090: 9a1a 28be 769b 0ebc b35a b63d e092 b93c
000000a0: 679d 0d3e 5276 29be 9a19 04be d818 b9bc
000000b0: dc5f 153d c7be 2dbe 2e00 ea3d 6b6c dbbd
000000c0: e9ce 09be eba0 343d 8197 e6bd 68f3 e3bc
000000d0: 51d4 06bd 669c 21be 38cf 8abd 1195 2f3e
000000e0: bf78 183e d513 183e 5551 cd3d 14aa 9ebc
000000f0: 0248 82bd 594e 1cbe 9079 353c eb7b 1dbe

fc2.bias f4 [2]
-0.12773953 0.06660429
00000000: 27ce 02be d467 883d
