golden_WandB.pth (torch, 143743 bytes, 6 tensors)

encoder.dense.W f4 [4, 25, 256]
00000000: 9ba9 8c3d 6530 6e3d b46d 683d 48ec 313c
00000010: 0d2d fb3c ce3d d2bc 317d b73d 9ef4 b0bd
00000020: ae6b aa3d a1c6 313d ef20 91bc 3b8b 86bb
00000030: de20 23bd 8abd 03bd a337 493d 27e1 383d
00000040: 9f93 c8ba f0db ad3d 44a8 8c3d 40c0 213d
00000050: 6b1f a8bb 7d4b 19bd 98f9 e93d 3d54 3b3c
00000060: 1bf0 9abc 5a71 593d b3d1 4b3d a6f2 303d
00000070: 56bd cd3c f3ce 37bd 3426 7bbe b1a6 f8bc
00000080: b270 65bc 500b 773d 5a90 a6bc 320c f73c
00000090: 4ef1 443d bd5f 043c 3cc7 31bb 7e79 3e3d
000000a0: df90 d0bc 9851 8d3d b807 b43c 5961 c63c
000000b0: c631 23bd 2617 2b3d 04b4 7abc 0133 a73d
000000c0: 8017 edbc f3bd 8e3d 88d3 ba3b f263 dfbc
000000d0: d1d9 d6bb 5da4 983b 4047 a73d 42c4 103b
000000e0: c536 e6bb 453d 74bb 4647 b5bc 2bf1 fb3b
000000f0: 2adf f5bc 0b17 27bc 274d 04bc 4433 533b
00000100: aecb 02bb dcac 45bb 8d1f 103d cfbf 53bb
00000110: 2bc0 3f3d f56f 0b3d 1125 983a 0c73 6ebc
00000120: 0c0a f13c 77ff 1a3c 6d9e aa3d e219 12bb
00000130: 655b 403d fbf8 163d 8d89 8fbb 4fd1 fb3d
00000140: 68ba 0e3e 0a49 dfbb 0426 30be 409e dc3c
00000150: 5ec1 1c3c a6de cd3b ffbf 4a3d 9704 bfbc
00000160: 818a 253d 7478 bb3d 9549 0c3d f4c3 683a
00000170: c763 053d 31f1 273a 2b1d ae3b 3801 a93d
00000180: b43a b13c ef3f cf3a a377 24bc 8beb 13be
00000190: b854 593d bae8 4c3d 741e cdbd 39de 5fbc
000001a0: 34e0 77bc 58c7 0dbd a05d b93d 738f 483c
000001b0: 5cfd 15be c854 5a3d 5e3f 903c 28ed 0a3c
000001c0: fc2d 17bd 9b45 453d c46a 75bb 2bb2 92ba
000001d0: 374a 8a3c 558a 693c 4ecb 3d3d d552 5abd
000001e0: a506 623d 8692 983d e62f 0b3e 606a 07be
000001f0: 6968 fbbb 7c2e 3c3d b28d 813d ee0c ef3d
00000200: 7f64 903d 4edc 063d 512f f33d a6a6 0b3d
00000210: 88b0 f2bc f2db 593d 2264 d13d 4d92 833c
00000220: 3d34 763c d611 813c 9dbd b5bc 3a0a 693c
00000230: 4437 483a 15d6 553d 9624 273e 3975 5ebd
00000240: c79c b6bd 7a8d 5dbc 46c1 a93d 6964 37bd
00000250: 266a cc3d 2875 01bd fb70 f83c 9122 9c3d
00000260: 1a90 d5bd 391c c83a 0259 c93c 2193 123d
00000270: 41e4 38bd 5848 a0bc d6b8 12be ecd4 cfbb
00000280: 1c48 d83d 9f96 e23c ec40 ae3b 8b99 e7bd
00000290: 1102 533d b1ea 36bd 32c1 05bd 21aa 993b
000002a0: 8554 3abb d65e 003e f730 15be fd59 f03b
000002b0: 08c8 f03d 25c4 893d 3ac8 7dbd 3887 76bd
000002c0: c306 d3bc e37c 46bd 920b b3be 60f1 29bc
000002d0: feb4 5aba 3cba e73c da7f 4b3d 64d7 ac3d
000002e0: d27d 20bd 45a7 463d 1a42 a23c e4e7 f73d
000002f0: fdac 0b3e 05ec 463c e476 c93d 92e4 d33c
00000300: 4019 b13d 80f1 87bd e372 8b3d f317 8bbc
00000310: f912 043d acb4 053d a3c9 8c3d 083c 04bd
00000320: a21e b43b 2d50 de3c f88e a2bd d445 a23d
00000330: ba88 2fbe c1a2 2c3d a57f babc 4df1 473c
00000340: 28b2 6e3d 3a58 64bd d6ae ff3d 0d09 ef3c
00000350: 91d3 c43d 4da1 ed3c 39d7 023d 57f8 9abc
00000360: 925e d23b 85e0 363b 35e4 edbc cd84 58bd
00000370: 328e 96bd 2ab9 8dbb 73b5 fe3c 3de3 f7bd
00000380: 9cfe 57bc d567 98bb 31ae f83c 7c71 fe3d
00000390: f226 a23c 0932 2f3b 556b 00bd 3c37 743d
000003a0: 12bd dc3c 2e27 773c 1d18 07bd 78cd cf3b
000003b0: 8682 6f3d e227 b13c 06c2 ab3c e1b7 043e
000003c0: 4458 1a3e e7e4 513c b4ea 59bc e928 7abb
000003d0: 0908 26bc a56b 58bc 6b69 953d 50d6 863d
000003e0: 9953 fd3b 4d0d fc3d 9240 273d 7c8d 403c
000003f0: 39cd 863c 3fc7 92bc 38c6 203c 31fc 283c
0.06868287 0.05815162 0.056745246 0.0108595565 0.03066113 -0.025664236 0.08959425 -0.08640407
0.083213195 0.043402318 -0.0177159 -0.004105953 -0.039826266 -0.03216318 0.049125325 0.045136597
-0.0015302784 0.084892154 0.068680316 0.039489985 -0.0051306984 -0.037425507 0.11424559 0.011433658
-0.01891332 0.053086616 0.04976053 0.043200158 0.025114696 -0.044875097 -0.24526292 -0.030352922
-0.014003919 0.060313523 -0.020332504 0.030157182 0.04808169 0.008079466 -0.002712681 0.046502583
-0.025459705 0.069003284 0.021976337 0.02421634 -0.03984239 0.041770123 -0.015301708 0.08164025
-0.02894187 0.06969824 0.005701486 -0.027269337 -0.0065567275 0.0046582655 0.08167887 0.0022089635
-0.007025572 -0.0037267965 -0.022128712 0.0076886616 -0.03001364 -0.010198365 -0.008075035 0.0032226602
-0.0019957828 -0.0030162847 0.03518634 -0.0032310372 0.046814125 0.034042317 0.0011607726 -0.0145537965
0.029423736 0.009460322 0.083309986 -0.002229326 0.04696216 0.03685854 -0.004380411 0.12295782
0.13938296 -0.006814127 -0.17202002 0.026930928 0.009567587 0.0062826453 0.049499508 -0.023317618
0.04041529 0.09153834 0.03424986 0.0008879297 0.03256586 0.0006406485 0.0053135357 0.082521856
0.021634437 0.00158119 -0.010038289 -0.14445321 0.05305931 0.050026633 -0.10015574 -0.013663822
-0.015129138 -0.034613937 0.09051061 0.012241232 -0.1464743 0.05330351 0.01760834 0.008479394
-0.03690909 0.048162084 -0.003744767 -0.0011192014 0.016881092 0.014254172 0.046336465 -0.05330165
0.055182118 0.07449822 0.1359249 -0.13224173 -0.007672359 0.04594277 0.06325854 0.11672388
0.07050418 0.032924943 0.11874259 0.034094475 -0.029625192 0.05318827 0.10224177 0.016060973
0.015027103 0.015755575 -0.022185141 0.01422363 0.000763763 0.052206118 0.1632255 -0.05431101
-0.08916622 -0.0135225 0.08288817 -0.044773493 0.09981184 -0.03160587 0.03032731 0.076237805
-0.10427876 0.00152672 0.024578575 0.035784844 -0.045139555 -0.019565746 -0.14328322 -0.006342521
0.10560629 0.027659712 0.005317798 -0.11308583 0.051515643 -0.044657413 -0.03265495 0.0046894704
-0.0028431725 0.12536177 -0.1456946 0.007334946 0.11756903 0.06726865 -0.06195853 -0.06018755
-0.02576006 -0.048458945 -0.34969765 -0.01037249 -0.000834301 0.028287046 0.049682476 0.0843952
-0.03918249 0.048499364 0.01980691 0.121047765 0.13640209 0.012141232 0.0983713 0.025865827
0.08647394 -0.06637859 0.06809022 -0.016979193 0.032244656 0.032643005 0.06874397 -0.032283813
0.005496816 0.02713784 -0.079374254 0.07923475 -0.17142001 0.0421474 -0.022765944 0.012203527
0.05827537 -0.055748202 0.12484519 0.02917912 0.096106656 0.029007578 0.031943534 -0.018917246
0.006419965 0.002790482 -0.029039482 -0.052861024 -0.0735134 -0.004325052 0.031092381 -0.12103889
-0.013183262 -0.0046510496 0.030356498 0.12423989 0.019793961 0.0026732704 -0.03135236 0.059622988
0.026945625 0.015085025 -0.03298198 0.0063416325 0.058474086 0.021625463 0.020966541 0.12960769
0.15072733 0.012810922 -0.0133005865 -0.0038171357 -0.010133752 -0.013209258 0.072954975 0.065838456
0.007730913 0.123072244 0.040833063 0.0117524825 0.01645528 -0.017917274 0.009812884 0.010314033

encoder.dense.b f4 [4, 256]
00000000: 7a46 60be 04b5 423e 3b22 11be 68f7 a0be
00000010: 1a67 0d3e 55a0 1cbe 91db 49be 2ebb 3dbe
00000020: 89af 4bbe be66 4bbe c996 fdbd 0e5e b33e
00000030: 32d4 203e 6f93 283e b020 983e 2563 733e
00000040: f705 17be c922 3a3e 0f0b 0cbe 4be4 3fbe
00000050: 3874 553e b69d 3f3e a0b4 67be 9e83 26be
00000060: 6bcb 093e 5fed 6dbe 2930 9d3e 49bd 41be
00000070: 1bb3 293e d494 f3bd 6436 42be 4e0a 20be
00000080: 7488 0c3e c8ee 75be a7f3 813e 9f6a 6d3e
00000090: f7b0 34be 4589 103e 6a78 e73d ade6 3cbe
000000a0: 3a76 983e 48da 73be 36bd 7f3e 26d2 a83e
000000b0: 4f05 3fbe 7a27 493e 2d0f d4bd e789 673e
000000c0: e1d7 233e 24df 51be 1749 183e d136 373e
000000d0: 6e21 36be 0a38 443e af39 12be 4aa3 cd3d
000000e0: 941c 303e b651 70be 3024 28be 23ab 333e
000000f0: e027 d83d 635f 603e 95ed 51bd d51e 993e
00000100: 9042 933e 18d8 1d3e d42d 67be 337e ec3e
00000110: b131 3fbe b26e 58be cea8 593e 640b 1ebe
00000120: cdef 3cbe 3b07 16be 2c34 76be e87b fa3d
00000130: a458 d53d ad56 3e3e b2dc 4a3e e8f9 bdbe
00000140: 3ded 2bbe 455e 003e 3dab 4ebe fa78 5bbe
00000150: 4f70 183e 672a 193e 7a1b 573e da23 753e
00000160: 7d97 933e ecda 85be e880 ffbd 3305 da3d
00000170: e329 003e 67de a43e e6de 383e ba51 3ebe
00000180: 08a8 b63e 3a84 293e 2f29 c63e 80ba f8bd
00000190: 4a4a 26be 0eaf 743e c9e3 83be 6b24 77be
000001a0: 5c08 2d3e dab6 32be 6fc6 81be 6ba2 2a3e
000001b0: 0230 26be 5a10 0d3e d996 123e c308 8c3e
000001c0: fab1 5a3e 3be0 9b3e ddda 053e 4d19 543e
000001d0: a836 11be 8ba1 393e 07b8 613e 4a29 5a3e
000001e0: 2665 6a3e 71fd 423e cd90 bb3e 9e33 b8bd
000001f0: f8ca 503e c7d6 b63e 2e50 2f3e 8e8c 5fbe
00000200: ceec 1dbe fd3c 4bbe e3fd 65be 5216 433e
00000210: 4908 ebbb 847a 14be 7baf 953e 6062 73be
00000220: 996c 2e3e 0e67 d13d 0acf 753e 249a 4cbe
00000230: 79ca 29be 8398 6dbe f400 7bbe dd88 043e
00000240: 70f8 4e3e 93d2 493e 42c5 60be cdcf 7d3e
00000250: 6b81 6dbe 3640 3b3e e53e 47be 7c87 1d3e
00000260: f188 5dbd d1bc 2bbe 0727 1c3e 7044 2dbe
00000270: 9980 20be 6df8 0c3e e7a1 5d3e 6933 1e3e
00000280: 229e 5bbe 0cf3 c93e eed8 5a3e 1ffd e0bd
00000290: eb63 45be cfff 4cbe 0828 1d3e d69f 243e
000002a0: 45e1 903e b01b 41be c87f 0dbe 925a 043e
000002b0: 5b27 4cbd 926b c93e 4563 443e 9a02 093e
000002c0: c313 173e fc68 0abe 48ec 793e 9d85 24be
000002d0: 4698 1ebe 5403 8f3e e04d 14be 3da0 b2be
000002e0: 0393 883e ef67 22be b8b3 e1bd 5db5 4bbe
000002f0: a378 80be 4d4f fa3d 9136 3fbe 4dd2 113e
00000300: b35b 99be 48f8 9bbc 9e97 49be 21c9 473e
00000310: 20f9 14be fb88 673e 4e2f 1fbe e3a6 16be
00000320: 5d31 4abe 930e fc3d 2663 0abe eb4a 3dbe
00000330: c590 b4bd 60de 7fbe 47fb 44be 3d0d 683e
00000340: a6fc 13be bb43 8c3e ffbc 5cbe 2a40 283e
00000350: d7f7 0fbe 9a33 153e 6082 943e 4b73 393e
00000360: b721 a53e 432e e13d 270e 083e 2ca2 1cbe
00000370: 8265 113e 921c 8b3e 8f22 39be 44e3 6fbe
00000380: b879 2dbe 9e47 b43e d014 30be eb33 91bd
00000390: 316e 573e 1520 8f3e fc21 433e 2800 2c3e
000003a0: 344e 133e b9b2 8b3e 08ff 9d3e a938 5a3e
000003b0: 6c52 653e 7261 3fbe c5bd a53e 9c4e 1bbe
000003c0: ad0c 30be df1b 39be 584d 173e ae4c 1abe
000003d0: 8df1 5d3e 0e06 b53e 3662 42be 08c9 1c3e
000003e0: d114 3d3e 89a3 9abe 5893 533e befe 25be
000003f0: fc0c 4b3e a81a 283e 9491 793e c99d 2c3e
-0.21901885 0.19014364 -0.14173214 -0.31438756 0.13808861 -0.15295537 -0.19712664 -0.18528435
-0.1989118 -0.19863412 -0.123822756 0.35032696 0.15705946 0.16462491 0.2971244 0.2376829
-0.14748369 0.18177332 -0.13676094 -0.1873943 0.20845115 0.18712506 -0.22627497 -0.16261145
0.13456504 -0.23235081 0.30700806 -0.18919863 0.1657223 -0.11893621 -0.18966061 -0.15628931
0.13723928 -0.24016869 0.25381204 0.23185204 -0.17645632 0.14114864 0.11302264 -0.18447371
0.297777 -0.23813736 0.24974522 0.3297283 -0.18654369 0.19643965 -0.10354457 0.226112
0.1600032 -0.20495278 0.14871632 0.17892005 -0.1778619 0.19162002 -0.14279817 0.100409105
0.17198402 -0.2346867 -0.16420054 0.17545752 0.105544806 0.21911387 -0.051251967 0.29906335
0.2876172 0.15414464 -0.22576076 0.46190032 -0.186713 -0.21135977 0.212558 -0.15434033
-0.18450852 -0.14651196 -0.2404334 0.122306645 0.104172975 0.18587752 0.19810751 -0.37104726
-0.16789718 0.12535961 -0.2018251 -0.21432868 0.14886592 0.14957581 0.21006575 0.23939458
0.28826514 -0.26143587 -0.12475759 0.10645523 0.12515979 0.3220093 0.18053779 -0.18585864
0.35675073 0.16554347 0.38703296 -0.12144947 -0.16239277 0.23894903 -0.25759724 -0.24134986
0.1689772 -0.17452565 -0.25346705 0.1666352 -0.16229251 0.13775769 0.14315356 0.27350435
0.21356955 0.30444512 0.13071771 0.20712776 -0.14181006 0.1812803 0.22042857 0.21304813
0.22890148 0.19041993 0.36633912 -0.0899422 0.20389926 0.35710737 0.1712043 -0.21830961
-0.15422365 -0.19847484 -0.22460131 0.19051483 -0.0071726185 -0.14499861 0.29235443 -0.23767996
0.17033614 0.10224734 0.2400476 -0.19980675 -0.16581143 -0.2320271 -0.24512082 0.12942834
0.20211959 0.19709234 -0.21950248 0.24786301 -0.231939 0.18286213 -0.19457586 0.15383714
-0.054085676 -0.16771246 0.15249263 -0.16920638 -0.15674056 0.13766642 0.21643792 0.15449299
-0.21447042 0.39443243 0.21371815 -0.10985779 -0.19276397 -0.20019458 0.15347302 0.16076598
0.28296867 -0.18858218 -0.13818276 0.12925175 -0.04984222 0.39339882 0.19178493 0.13379899
0.14753632 -0.13516611 0.2440654 -0.16066594 -0.15487775 0.27932227 -0.14482832 -0.34887877
0.2667466 -0.1585996 -0.11020607 -0.19893403 -0.2509204 0.12222157 -0.18673159 0.1424038
-0.29952773 -0.019039288 -0.19686744 0.19510318 -0.14548159 0.22610848 -0.15545389 -0.147121
-0.19745393 0.12307467 -0.13514385 -0.1848561 -0.08816675 -0.24987173 -0.1923648 0.226613
-0.14451846 0.27395424 -0.21556471 0.16430727 -0.14059387 0.14570466 0.29005718 0.18110387
0.32252285 0.10995152 0.13286649 -0.15296239 0.14198878 0.27170235 -0.1807959 -0.23426539
-0.16940963 0.3521089 -0.1719544 -0.07089981 0.21038128 0.27954164 0.19055933 0.16796935
0.14385301 0.27284792 0.30858636 0.21310677 0.22394723 -0.18689516 0.32371345 -0.15166706
-0.17192335 -0.18077038 0.14775598 -0.15068313 0.21674176 0.35356182 -0.18982777 0.15311062
0.18464972 -0.30202892 0.20661676 -0.16210458 0.19829172 0.16416419 0.2437194 0.16857065

shared_encoder.dense.weight f4 [256, 25]
00000000: ba6f 013e 2287 fbbd e1cb 06be 8793 84bd
00000010: 1710 3e3e 011e 20be e211 32bd b1b6 16bd
00000020: e96f 13be 0fb2 ae3d c6ea 423d 21ac 443e
00000030: a0f5 cdbd 5893 1abd 3cb8 2cbe dfcd 403d
00000040: 45c1 21bc 2471 d7bb 9f7c 073e 5582 ffbc
00000050: 7362 07bd 63e4 26bd 3948 513e 5a3c 673d
00000060: 8d53 b13c af90 693d ddfa 4dbd fbe1 f23d
00000070: c5ab 793d 2042 1dbe 9df7 263d 974f d93d
00000080: 2154 3c3d 2679 e33d a566 39bd ea2f 51bd
00000090: 6332 16be 3bee cebd d57f 02be 0cf6 bcbd
000000a0: 8bd9 033e 2b5f a7bd 15b1 ddbd 4149 b9bd
000000b0: 64a2 16be 445e 0dbe fb55 323e 9e5a 20bc
000000c0: 82cb 29be a163 373e 312f 023e e0c8 0e3e
000000d0: c8b2 4fbe 14e1 16bd 3cac 3bbe a397 8b3d
000000e0: 0d34 e6bc a07c 14be d0e7 313d effd af3c
000000f0: 5dec 09be eb8f dfbc edcc 1f3e 3752 123e
00000100: c1b1 0d3d 6ddf 3a3d d3ea 033e 262a dcbd
00000110: 7f2b e0bd 759c 73bc 8654 453e 4c1a 1bbd
00000120: e7d2 be3d 8ebc 41be db65 f63c 7cfa d83d
00000130: e225 323e e37c 1d3c 5996 ca3d d02e 2bbe
00000140: 7022 aa3d bf57 093e 5ad9 c8bc e083 cd3d
00000150: d720 233e 578c 443e 3204 2e3d cb11 80bd
00000160: 32af 1b3e b60f f3bd 8d4e a4bd bda3 443e
00000170: 3fcc d13d 5176 aebc 6ebd 113e 65b7 013e
00000180: 919c 01bd 21e0 1fbe 5587 0dbb 1914 3e3e
00000190: 4d8a fabd 9daf f13d d4c9 f4bc 853c 993d
000001a0: be17 e4bc 8187 4bbe 1362 703d 2256 b5bb
000001b0: b73e 36be 87d0 213e 5f2d 46be ff32 0b3e
000001c0: dbe8 c9bc c46a 63bd cb25 09be 0068 a73d
000001d0: e42b f83d 6417 ebbd b078 d4bd 5630 493e
000001e0: cde5 1b3e b163 ef3c 6b30 0cbe 94b9 f2bd
000001f0: c9b2 ed3d aea9 1f3e 6824 953c 97e3 a8bd
00000200: ed3d 21be df0e 84bd 1b6c 4cbe c5e1 86bd
00000210: 37e5 08be ae9c 2e3e 3b90 e13c 79e5 26be
00000220: 8dc4 fdbd ea2d 163d 0faf 0f3e f40a cd3d
00000230: afc4 813d 0250 2b3a 2b8c 1cbe eb8f b8bd
00000240: e844 a6bd 3108 aebd f032 143d 6ef6 81bd
00000250: 2ea9 8e3c 9ef3 69bd 3d4a c7bd 0bfe 11be
00000260: 0021 6ebd 8086 54bd 02fa c4bc 73e2 c6bd
00000270: d5ba 29be 2842 89bd e7ff 6dbd 3862 ea3d
00000280: c6f2 073e c65a 1abe 8ca0 bfbd 813f 13be
00000290: 2617 0c3e 6344 09bd eb4f a7bd 6359 15be
000002a0: 3265 2cbd e235 283e 79c1 9f3d 7c1f 43be
000002b0: a773 20be 9640 353e 07fb 243e 34d7 0bbd
000002c0: 8caf 363d c7de 80bd 6694 233d c1e5 9ebc
000002d0: fb60 72bd 296e b13c d4ce cb3d e069 27bb
000002e0: 8d6b 0b3e 39dd a13d ebe9 9cbd ab99 0dbd
000002f0: 0169 b1bd 7f0f 073e c036 e4bd 3455 52ba
00000300: 6c97 b3bd 91b3 323e 94ce 063e 9390 22be
00000310: a547 d7bc 4ea9 373e 8809 9abd 3364 1a3e
00000320: 8d0c dabd 5602 3c3e 3e81 b63c ba47 b9bd
00000330: 636e e73d e715 1fbe 8771 2b3e db4e e03d
00000340: 9298 303c 5425 1c3e fede 49be 5206 c43d
00000350: e546 633d 063d 143e 34de 1b3d 7eeb 053b
00000360: f74e 3b3d 7d67 4dbe 2880 9dbd dd1e 5ebd
00000370: d24d be3d f6df 0dbe 8371 c33d 9cac 30be
00000380: bd12 8e3d 45c6 2c3e a175 61bd f46d 873d
00000390: d823 9a3d eada 45be b08c c7bd 8ce7 2d3d
000003a0: cccc f5bd b40e 383e d09b b6bd 6bc0 e8bd
000003b0: 0a0b e8bd 6fe3 0e3e 45eb 093d 6d47 ee3c
000003c0: 7117 47bd f569 673d 4199 fe3c 0021 2b3e
000003d0: 5f34 4e3c c418 9fbd ddbe 083e 2bb9 833c
000003e0: 2f5b eabd 69b9 cabc 1b32 ec3c 8bf2 e9bd
000003f0: 90cd fbbd efc1 023e 0356 0abe 65af 6fba
0.12640277 -0.12281634 -0.13163711 -0.06473451 0.18560825 -0.15636446 -0.043474086 -0.03679532
-0.14398159 0.08530056 0.04758718 0.19206287 -0.10056615 -0.037738174 -0.16867155 0.047071334
-0.009872739 -0.0065747667 0.13231133 -0.031190077 -0.033052873 -0.04074515 0.20437707 0.05645404
0.021646285 0.057022747 -0.05028807 0.118595086 0.060954828 -0.15357256 0.040763486 0.10610884
0.04597867 0.111070916 -0.045263905 -0.051071085 -0.14667659 -0.101040326 -0.12744077 -0.09226617
0.12875955 -0.08172449 -0.10824791 -0.09047175 -0.14710385 -0.1380549 0.17415611 -0.00978723
-0.16581538 0.17909099 0.12713315 0.13943815 -0.20283043 -0.036835745 -0.18327421 0.06816032
-0.028100992 -0.14500666 0.043433964 0.02148339 -0.13469072 -0.027290305 0.15605517 0.14289175
0.034593347 0.04562323 0.12882547 -0.10750227 -0.10945796 -0.014868845 0.19270524 -0.037866876
0.0931757 -0.18919584 0.030077865 0.10594651 0.17397264 0.009612295 0.09891958 -0.16717076
0.0830735 0.13412379 -0.024517704 0.10034919 0.15930496 0.1919416 0.04248447 -0.06253394
0.1520355 -0.11868231 -0.08022795 0.19203086 0.10244035 -0.021296652 0.14232418 0.12667616
-0.031643454 -0.15612842 -0.0021595557 0.18562354 -0.1223341 0.11801074 -0.029881395 0.07482246
-0.027843352 -0.1987591 0.05868728 -0.0055339495 -0.17797361 0.15802203 -0.19353245 0.13593672
-0.024647167 -0.05552174 -0.13393323 0.08174133 0.121177465 -0.11479071 -0.10374582 0.19647345
0.15224381 0.029222341 -0.13690345 -0.118518025 0.11606366 0.15592071 0.018205836 -0.08246534
-0.15746279 -0.06448149 -0.19963114 -0.06586031 -0.13368689 0.17051956 0.027534595 -0.16298474
-0.12391005 0.03666488 0.14031623 0.10011855 0.063363425 0.00065350544 -0.15287845 -0.09011825
-0.081186116 -0.08497656 0.03618139 -0.06345831 0.017414656 -0.057117097 -0.09730957 -0.14257066
-0.05813694 -0.05188608 -0.024044994 -0.097111605 -0.16575177 -0.067020714 -0.058105376 0.11444515
0.13276204 -0.1507369 -0.09356794 -0.14379694 0.13680705 -0.033512484 -0.0816954 -0.1458488
-0.042088695 0.16426805 0.07800574 -0.19054979 -0.15669118 0.17700419 0.16111384 -0.03414078
0.04460101 -0.062924914 0.039936446 -0.019396665 -0.05917452 0.021658974 0.09951559 -0.0025545284
0.13615246 0.07903523 -0.07661804 -0.034570377 -0.08662606 0.13189505 -0.11143255 -0.00080235605
-0.08769116 0.17451312 0.13164741 -0.15875463 -0.02627928 0.17935678 -0.07521349 0.15077285
-0.10646925 0.18360266 0.022278424 -0.09046884 0.113003515 -0.15535699 0.16742526 0.109525405
0.010778563 0.15248615 -0.19713971 0.09571518 0.055487532 0.14476404 0.038053706 0.0020434554
0.045729604 -0.20059009 -0.076904595 -0.054228652 0.09292187 -0.13854966 0.09543135 -0.17253345
0.06937168 0.16872509 -0.05504382 0.06612769 0.07526368 -0.1932179 -0.09743631 0.04245715
-0.120019525 0.17974359 -0.089164376 -0.11364826 -0.113302305 0.13953947 0.033671636 0.029086793
-0.04860634 0.056497533 0.031078937 0.16711807 0.012585728 -0.077683955 0.13354059 0.016079506
-0.11443173 -0.024746614 0.028832486 -0.114232145 -0.12295067 0.12769292 -0.13509373 -0.0009143262

shared_encoder.dense.bias f4 [256]
00000000: 60ac e63d e206 b93e 2905 21be 456d c33d
00000010: 4923 703e 115d 6f3e 3b6e 2f3d 0479 f13d
00000020: 8434 f3bc 719b 713d cd0b 383e e736 323e
00000030: dcda 4bbe 931c d8bd fc9f 91be 3101 be3e
00000040: 1113 62be 51c0 8cbe 3978 5abe fedb a0bd
00000050: b28f 663e fb33 2cbd 0cb4 22be 3a44 c8bd
00000060: b796 67be d607 c63e 8c7a 613e a50f 03be
00000070: 6842 28bd 13ac 3ebd f7a4 ff3d 6ada 883e
00000080: 7ef4 41be 45d9 c63d 2451 9abd 412d 56be
00000090: 6c88 afbe 1178 af3e efdb eabd b72e 363e
000000a0: d132 753d 967c 3abe 4e88 ecbd 64fb 03bd
000000b0: 0921 c13e 00d1 cebe c406 3abe e7a3 413e
000000c0: e85e a7bd c084 c1bd 38ea cf3e 0175 b93e
000000d0: 62af 8abe e69f a0be e986 863e a539 5fbd
000000e0: d8bb 503e c7ba a33e 2a06 b83e d5d5 b33d
000000f0: f7ec 82be 1f50 64bd e692 80be c272 9b3e
00000100: d129 203d 6d0f 25be 3e2d 21be 4204 bebe
00000110: f6e6 bb3d 0eb8 013e db46 153d 5c42 0d3e
00000120: 784f 0f3e 0377 7b3d 9ccd 2e3e 07f0 43be
00000130: 2e73 743e caab a93d 01eb 823e 4a31 77be
00000140: b0c3 1cbe 0cea 9e3e d9d7 193c a3f1 23be
00000150: 0205 0f3d 93b7 0d3e 9791 d33e 8c2b 85bd
00000160: 7944 e9bd fe45 8abd 11c3 923e da84 30be
00000170: 2823 7ebe 624d 5abc 0c7d 153d ccdb 623d
00000180: 4ff8 b53c d0b2 cb3d 3c2f e73d 8b32 fabc
00000190: bceb a0be 8c07 31bd 6927 bcbe c628 543e
000001a0: 8e54 433e a7cd 9c3e d2fb 0c3d afe7 c8bb
000001b0: ff1d 11be da6e e73c 41a5 96be 7643 d7be
000001c0: cf6b b93e a9c8 18be 06fd 23bd 7e86 38bd
000001d0: b73d c73e bb64 d73c 1dc7 33bc 7c87 cf3c
000001e0: cfd8 18bd 6fb5 903d 444c 27be add2 a93e
000001f0: bade 8f3e ba53 22be ace2 9ebe 0a8d b2be
00000200: e9a8 ac39 c321 613c 65fd 1dbe 78df 3ebd
00000210: 3b93 e23d 3288 fd3d 66b6 aa3e 3299 733e
00000220: 39fb 14be b125 543d 92ce 95be 8366 4abd
00000230: 84f4 f23c bc13 4c3d 46b7 3dbe e242 d4bd
00000240: ed59 c1bd f54c 283d 26e3 983e 0569 7e3e
00000250: 6c6f d13c 4a59 693e e038 debc 8ae3 79bd
00000260: 4457 90bd ee4d ac3d b127 b73d 1674 a53e
00000270: 9a01 1b3d 0d14 8cbe 1b0d 9cbd fe77 843d
00000280: 57c0 ecbd 2c43 83bd e568 703e 5c36 aebe
00000290: b88b 8a3e 299d ecbc 8017 a2be cefc a7be
000002a0: abf0 86bd b3a1 b4be 711f 0ebe f6db 17be
000002b0: 5bd9 a8be 2694 e63d f8c7 0fbe 8811 32bc
000002c0: 7a27 31be b4a8 2f3e ccbc 0abe f086 313e
000002d0: 9940 b7be 0adc adbd b01e cabe 5771 55be
000002e0: 3782 463d cc8b 7a3d 19a7 85be e318 4cbe
000002f0: b958 e2bd 04f1 e7bd 8847 8dbe c701 5dbe
00000300: ea59 25be 003d 14bc f0f0 a53c 5cd8 ca3e
00000310: 9ff5 473e 8565 bbbe 92b0 833c 66a8 3a3e
00000320: 206f bcbe 6d40 c4be 1079 6b3e 668f 233e
00000330: 1d38 3b3d c4c8 ad3d 9a5c 9bbe 1e1a 26be
00000340: 231a b73e 4a50 53bd c4e6 1e3d b9d0 a33e
00000350: 9513 28be 9eb7 39be a618 a4be 76dc 23bd
00000360: c648 6f3c e7f0 92bd fa4a 81be 6cbb 9bbe
00000370: c10a fd3d a09e 043c cde8 08be b080 a2bd
00000380: dc11 863e 6a32 d83e e917 303d d816 a2be
00000390: 41e8 c83e 0eb6 53bd 52f4 0d3e 6536 523c
000003a0: e106 b63e c9a6 27bc f4b9 42be 3207 92be
000003b0: 3eb6 bf3d 3334 8b3e 036e 673c e9b7 4bbd
000003c0: 66e2 8ebe da7d b13e 77fd a73d 0951 efbe
000003d0: 7f09 693b 8ebe efbe f976 0bbe d5fd 1abe
000003e0: 309c b33d c5ec aebd d8f5 203e fb17 52be
000003f0: 0384 70be 3822 bd3d 3518 45bd 9702 22be
0.11263347 0.36138064 -0.15724625 0.09542326 0.2345096 0.23375346 0.042829733 0.1179066
-0.029688127 0.05898613 0.17973252 0.17403756 -0.19907707 -0.10552325 -0.2844237 0.37110284
-0.22077586 -0.27490476 -0.21334924 -0.0785446 0.22515753 -0.04204176 -0.15888995 -0.09778638
-0.22616087 0.38677853 0.22019404 -0.12798937 -0.041078955 -0.04655082 0.124826364 0.26729137
-0.18940923 0.097094096 -0.075350076 -0.209157 -0.3428377 0.3427129 -0.1146773 0.17791258
0.059862915 -0.18211588 -0.115494356 -0.032222167 0.37720516 -0.4039383 -0.18166643 0.1891018
-0.08172399 -0.09449148 0.40608382 0.3622208 -0.2708693 -0.31371993 0.26274803 -0.054498333
0.20384157 0.31978437 0.35942203 0.087810196 -0.25571415 -0.055740472 -0.25112075 0.3036099
0.03910238 -0.16119166 -0.15739915 -0.37112623 0.09174912 0.12667868 0.036444526 0.13794845
0.13995159 0.061392795 0.17070621 -0.19134532 0.23872063 0.08284719 0.2556992 -0.24139896
-0.15309024 0.3103794 0.009389841 -0.16010146 0.034916885 0.1383956 0.41322014 -0.065024465
-0.11390013 -0.06751631 0.2866445 -0.17238179 -0.24818099 -0.013324114 0.036496207 0.055385396
0.02221313 0.09946215 0.11288306 -0.030541679 -0.3142985 -0.043220088 -0.36748818 0.20718679
0.19075224 0.3062565 0.034419842 -0.0061311345 -0.14171599 0.0282511 -0.29422954 -0.42043656
0.36215064 -0.14920296 -0.040036224 -0.045050137 0.38914272 0.02629315 -0.010972765 0.025333159
-0.03731614 0.07065856 -0.16337687 0.33168545 0.28099614 -0.15852252 -0.31032312 -0.3487323
0.00032932244 0.01374096 -0.15428694 -0.046599835 0.11063238 0.12379493 0.33342284 0.23788908
-0.14548959 0.051793758 -0.29259163 -0.04941417 0.02965761 0.049823508 -0.18526945 -0.103643194
-0.0944098 0.041089017 0.298608 0.2484475 0.025565825 0.22787967 -0.02712673 -0.061008014
-0.070478946 0.084133014 0.089431174 0.3231513 0.037843324 -0.27359048 -0.07619687 0.06468199
-0.115601234 -0.064092964 0.23477514 -0.34025848 0.27059722 -0.028883534 -0.31658554 -0.32810062
-0.065888725 -0.35279617 -0.13879181 -0.14830002 -0.3297833 0.11258726 -0.14041126 -0.010868438
-0.17300215 0.17154199 -0.13548583 0.17336631 -0.35791472 -0.08489235 -0.39476538 -0.20844017
0.048464026 0.061168477 -0.26104048 -0.19931369 -0.11052079 -0.11325267 -0.27593637 -0.21582709
-0.1614758 -0.009047747 0.02025649 0.39618194 0.19527291 -0.3660089 0.016075406 0.18228301
-0.36803532 -0.38330403 0.229954 0.15972671 0.04570781 0.08485559 -0.30344087 -0.162209
0.35762128 -0.05159024 0.038794294 0.3199518 -0.1641372 -0.1813645 -0.32050055 -0.04000517
0.014604753 -0.07174855 -0.25252515 -0.3041643 0.12355567 0.00809446 -0.13370056 -0.079347014
0.261855 0.42225963 0.042991553 -0.31658053 0.39239696 -0.051687293 0.13862732 0.0128303515
0.35552123 -0.010232636 -0.19016248 -0.28521115 0.09360932 0.27188262 0.01412535 -0.049735937
-0.27907103 0.3466633 0.082026415 -0.46741512 0.0035558639 -0.4682507 -0.13619603 -0.15135892
0.08770025 -0.08541254 0.15718782 -0.2051696 -0.23487858 0.09235042 -0.04811879 -0.158213

classifier.dense.W f4 [4, 512, 1]
00000000: 2a2e c23e e0dc 45be 5221 163e 7c0d be3d
00000010: cf45 4fbe 7d69 283e d620 973e 1314 553e
00000020: 5806 cd3e a097 123e c40e 8c3e 17c0 53be
00000030: 1e85 17be 40ae d4bd ba60 49be 4ab4 5cbe
00000040: b01d ba3e 5816 f9bd 3622 603e e369 713e
00000050: 5205 c4bd 0af3 0bbe 8fbe 9e3e 24af 613e
00000060: b9c3 4dbe 613a 483e dc09 7dbe 6f7a a23e
00000070: cbe3 17be 417f cb3e 105b ba3e 077e b03e
00000080: 5d14 06be 64d5 923e 3f71 34be 96cb 86be
00000090: 3d87 173e 0e93 26be d877 1cbe 3554 673e
000000a0: b7bc 43be d3ac 7b3e 6bb0 0cbe 4539 33be
000000b0: 5edd 6a3e 00c1 85be eeb4 9d3e dcd1 3abe
000000c0: aedc 06be f5bc 4b3e 9c73 64be 4e9a 27be
000000d0: ecd1 ce3d 9b32 37be 7eab 483e de45 cebd
000000e0: 8763 c1be 5a26 9a3e 2116 1b3e cd49 5dbe
000000f0: bc54 f0bd 9039 4cbe 97fe 273e bf66 43be
00000100: d70e 40be 39c5 bbbd 575c 5c3e 34ed 6dbe
00000110: 4b3d 713e 2653 2b3e 6642 05be 06a9 383e
00000120: a5ed 623e 95e5 413e c23c bf3e ff24 53be
00000130: 83b4 a5be 24c8 5bbe e2d0 54be d48b 3f3e
00000140: 2ce3 a23e e999 64be 973a ce3e d48c 4d3e
00000150: 7a4e f5bd 701f 41be 8ba3 82be ab77 bcbd
00000160: f346 2fbe ef22 403e 4c3c 2d3e e2b1 fbbd
00000170: 0187 dfbd eb48 65be 5fe4 29be a331 413e
00000180: 7769 20be 55ea d0bd d345 40be 35ed 8c3e
00000190: 0e4a 833e 4ff4 40be ae84 bf3e 1db8 a93e
000001a0: b390 10be cb53 3f3e 2a38 003e 1660 95bd
000001b0: 3d3e 883e 957a 1abe 9119 aebe 838c eabd
000001c0: 7f24 76be 92ff 1bbe b42a 16be e849 56be
000001d0: f87d 153e 1ef6 cabd ed32 6fbe b400 3fbe
000001e0: bd96 51be 7a69 50be 0e1f 3dbe ecad d23e
000001f0: 9dae 3fbe 2b5c 12be b6b6 53be e0b2 bb3e
00000200: 3a71 5d3e 0bb9 e23d 6592 ab3e 8578 52be
00000210: e549 debd 00ed 443e dee5 4abe b87e 1f3e
00000220: 63a3 13be 2c39 2dbe 70b2 21be 8cd3 303e
00000230: 1059 8b3e cb68 033e ca03 d43e b0e7 30be
00000240: b5e0 0ebe a4b6 14be 8857 8c3e 4201 2fbe
00000250: 6ba1 983e 15e2 2cbe 2d4b 393e 6c40 27be
00000260: 84ba c03e 88a5 173e 0354 56be 4ddc 233e
00000270: 5ab1 b53e 734f 14be 2b47 72be dfb3 11be
00000280: 188a b03e 6847 24be 6ca9 a6bd e0f4 de3e
00000290: 79e8 7c3e 4d35 8d3e 4b6c 42be dea1 2cbe
000002a0: d436 6dbe c57c c83e a3ef b33e 4e14 60be
000002b0: dedd bb3e ede3 39be a6a8 9bbe 00f1 01be
000002c0: 8209 43be bda5 433e efbb 84be d8f1 523e
000002d0: 747a ab3e 96cf 82be a039 023e e6fc c43e
000002e0: 401a 31be 72ab 303e 3426 f43e e594 ad3e
000002f0: 4095 9b3e 09db 69be b73e 473e a84a fbbd
00000300: 3bb7 b43e 74d1 ac3e 5737 8a3e 819b 4abe
00000310: 1489 133e 2de5 15be 016b b43e 1c1d 413e
00000320: 1717 393e e3cc f2bd 3ba4 9c3e 233e 1e3e
00000330: 1818 bd3e d73e d23e 4445 a73e b739 10be
00000340: c8f6 383e d83a b8bd 1f77 c33e 84f9 40be
00000350: 2c4e 883e 35a5 89be 4af3 eebd 361f 09be
00000360: 27bf b2bd cdcf 13be 6127 1cbe e0cd c63e
00000370: f9f8 61be 7ac1 3bbe 55e5 c73d 378f 883e
00000380: c121 d03e 2776 2fbe 0aef 0c3e 86a8 ad3e
00000390: a5ea 40be 7517 41be 7c29 35be bfa2 52be
000003a0: 871d f1bd fdf4 28be f53b 16be 15d6 5ebe
000003b0: f9bd 4ebe 2f40 213e 9b59 30be d121 a03e
000003c0: a720 a03e 979a 8f3e ed12 f4bd 79b2 013e
000003d0: b927 5bbe c4a2 56be fed4 0d3e 152e 7abe
000003e0: 52c0 e7bd 7aa1 b83e 1ef9 3ebe 1e81 0d3e
000003f0: ec39 2abe aa12 21be 19fc 52be 764b f7bd
0.37925845 -0.19322538 0.14661148 0.09279916 -0.20241474 0.1644649 0.2951724 0.20808439
0.40043902 0.14315653 0.27355015 -0.20678745 -0.14796874 -0.10384798 -0.19665805 -0.2155315
0.36350775 -0.12162465 0.2188805 0.23575549 -0.09571327 -0.13666931 0.3100476 0.22039467
-0.20094194 0.1955352 -0.24710792 0.31734034 -0.1483299 0.39745525 0.363976 0.3447115
-0.13093705 0.2867843 -0.17621325 -0.263272 0.14797683 -0.16267034 -0.15280092 0.22590716
-0.19114958 0.24577646 -0.13739173 -0.17502315 0.22936007 -0.2612381 0.308021 -0.18244117
-0.1317012 0.198963 -0.22309726 -0.16367456 0.10098633 -0.17890398 0.19596669 -0.1007192
-0.37771246 0.30107385 0.1514516 -0.21610184 -0.11734912 -0.19943833 0.16405712 -0.19082163
-0.18755661 -0.091684766 0.215196 -0.23235017 0.23558538 0.16730937 -0.1301361 0.18033227
0.22160967 0.18935235 0.37351042 -0.20619582 -0.32364282 -0.21463066 -0.20782807 0.18705684
0.31813943 -0.22324337 0.40279076 0.20073253 -0.11977859 -0.18859649 -0.25515398 -0.09202512
-0.17116909 0.18763326 0.16917533 -0.12289788 -0.10914422 -0.22391097 -0.16591023 0.18866591
-0.15665232 -0.10200945 -0.18776636 0.27524725 0.25642437 -0.18843196 0.37405914 0.3314828
-0.14117698 0.18684308 0.12521425 -0.072937176 0.26609984 -0.15085824 -0.3400388 -0.11452582
-0.2403736 -0.15234211 -0.14664727 -0.2092663 0.14598835 -0.099102244 -0.2335927 -0.18652612
-0.20467658 -0.20352736 -0.18468878 0.41148317 -0.18718953 -0.14292972 -0.20675167 0.36659908
0.21625224 0.110704504 0.33510128 -0.20553787 -0.10853938 0.19231033 -0.1981425 0.15575683
-0.14417796 -0.1691634 -0.15790725 0.17268199 0.27216387 0.12832944 0.4140914 -0.17275882
-0.13952906 -0.14522797 0.2741053 -0.17090324 0.29810652 -0.16883118 0.18095084 -0.16333169
0.376423 0.14809239 -0.20930485 0.16002007 0.3548687 -0.14483432 -0.23659961 -0.14228772
0.34480357 -0.16042864 -0.081377834 0.435462 0.24698056 0.27579728 -0.18986623 -0.16858622
-0.23165447 0.39157692 0.35143766 -0.21882746 0.3669271 -0.18153353 -0.30402106 -0.1268959
-0.19046596 0.19106193 -0.25924632 0.20600069 0.33491862 -0.25549 0.12717295 0.38474196
-0.1729517 0.17252901 0.47685397 0.3390266 0.30387306 -0.22837462 0.19457518 -0.12270099
0.35296044 0.3375355 0.26995346 -0.19785883 0.1440776 -0.14638205 0.35237888 0.1885876
0.18075214 -0.11855485 0.30594048 0.15453391 0.36932445 0.41063568 0.32670033 -0.14084516
0.1806289 -0.089955986 0.3817682 -0.18845183 0.2662214 -0.26883855 -0.116674975 -0.13390812
-0.08727866 -0.14434738 -0.15249397 0.38828945 -0.22067632 -0.18335524 0.097605385 0.26671764
0.40650752 -0.17134915 0.13763061 0.33917636 -0.1883951 -0.18856604 -0.17691606 -0.20569895
-0.1177321 -0.16499706 -0.1467131 -0.21761353 -0.20189656 0.1574714 -0.17221682 0.312758
0.31274912 0.2804763 -0.11917672 0.12665738 -0.21401872 -0.20960528 0.13850781 -0.24431641
-0.11315979 0.36060697 -0.18649718 0.13818786 -0.16623658 -0.15729776 -0.2060398 -0.1207494

classifier.dense.b f4 [4, 1]
00000000: 5842 fcbd 7b5e 08be f4b2 07be a938 0bbe
-0.123173416 -0.13317291 -0.13251859 -0.13595833
