golden_WandB_n.pth (torch, 143759 bytes, 6 tensors)

encoder.dense.W f4 [4, 25, 256]
00000000: 5591 803d 5121 07bd a744 893d ed31 213d
00000010: a72d efbc 2631 bebb b7c4 81bc d422 2bbd
00000020: aeb6 a6bc 4119 22bd b69d 73bc 572f 8b3c
00000030: 9fd7 563d 5bb4 0fb9 44bd f93c 6eb0 38bd
00000040: 34d4 f13c 6805 463d 89f3 763d 29cc cebd
00000050: e0ca 513d 2ede 5c3d d75c c5bc 4598 4b3d
00000060: 65af 013d 32ad 1d3d 7a40 fbbc 0f52 81bc
00000070: 1f56 073e 9fe7 2e3d d496 9fbb 0886 23ba
00000080: 3066 77bd 0df1 94bc 5bbc 70bd 8d30 09be
00000090: ef08 633c 0e3e e3bc 78d4 13be 27d5 01be
000000a0: 36cd 09bd 422b db3c 8c47 91bb b6ba 153e
000000b0: a3d2 35be ac55 bc3c 019c 9a3d 1640 15bd
000000c0: 73d6 a73d b020 df3c 2762 cf3d 2c36 debd
000000d0: fe22 e7bc 9200 f03d fe85 283d e133 c83c
000000e0: 2caf 05bd a164 9fbc 5276 183d c6e2 633d
000000f0: 0851 babb f25f 533d 4220 e6bc 200e 8e3d
00000100: 7402 23bd c097 16be 46eb 01be f542 7a3c
00000110: 99bf a53b 000d 9f3c 8481 04be 5f96 cdbd
00000120: b1a3 2bbd 5c17 82bc 0c34 3a3d 8696 f6bc
00000130: 87cc 153d ab86 c23c 7875 9a3c 228c a53d
00000140: f7af 113e c20d 23bb 303c 413d f84f e43d
00000150: 43ce 4d3e 9993 f7bc 6eef b23b a044 a53b
00000160: b5a2 47bd 7f04 2a3b 130a 1b3d daec 09bd
00000170: 55cc cbbd 3ff6 48bd 2974 b23d 2191 8fbc
00000180: d2f5 8d3c 17e2 0f3d 620d 233d 9875 9dbb
00000190: 43b4 b8bd 5c2a 573e 8653 33bd 4266 333d
000001a0: d1d9 dd3c c091 3b3c 201f 5bbc bc77 6f3d
000001b0: 9d78 d93b 7c81 4dbc f77b 403d 7faa cb3d
000001c0: 3e2a c13d d40f 44be c805 7abb 0c16 983c
000001d0: 1e00 3739 612c 70bc 2f46 2a3c 708e 5f3b
000001e0: e0d6 8bbd e9ce 51bd 5e51 e73c 38b8 123c
000001f0: 4b70 493d b528 493e e91d d63d 1ee0 043e
00000200: 5e25 8a3d 07e0 863d 02fc 1ebc 4c9f aebd
00000210: 6c94 e1bc 52e5 08be 16b2 b73c 63d9 123e
00000220: a29c 56bc ca71 48bc 67f6 16bb 2c07 a83d
00000230: 8a92 66bd 4628 acbd 2a8b 2dbc b526 963d
00000240: c817 ac3d a58d 0f3c 2c8e c3bc 0fcc 3d3c
00000250: f9aa 483d 452d 5bbd 49b4 f6bc 5cb7 f93c
00000260: a8e5 c7bc 2580 113c c4e4 543c 324c b13c
00000270: 1247 ae3b 987a 33bc 044c d13c af60 9c3b
00000280: 6f00 43bc 73c9 41bd 2427 a3bd 89a9 983c
00000290: adf0 adbd a9e0 9f3d 618a c6bd 3edc 99bd
000002a0: 2c46 beb9 639a ae3c 2751 3d3c 3509 753b
000002b0: 5007 b83d e73f ef3d 3517 8c3a ef7c 11bd
000002c0: 4408 febc 552d 313d 5f50 4dbd 3bd1 613d
000002d0: c83c 503d f487 493c 162c d5bd c30e 8f3d
000002e0: 86e5 c1be d617 0a3e fb76 10be 7113 a43d
000002f0: 843a f4bc 5e01 d3bc 3c51 92bd d261 b0bd
00000300: 9a1c d83c 7757 9b3d c5c4 3bbd c553 fdbc
00000310: 962e 23be 91f0 18bd 0f6e 2ebd 4b90 8f3d
00000320: f2f7 c9bd 5747 71bc 22ec 583a 8d13 a13d
00000330: f019 603d 632d f6bc 61e7 04bc 0dd6 dfbd
00000340: 2fa3 58bd 87da cb3d 3675 a9bb 34a5 b0bb
00000350: 5c17 c6bd c80f bc3a 5991 133d 2482 bcbc
00000360: ea84 2c3d 20bb d03c 12a9 d63a 6aaa 173d
00000370: 859d f23d 4785 da3c a4ef 08bd 7471 103d
00000380: 3751 3ebc 77aa d8bd ac44 1c3d 2868 5a3c
00000390: a8ab 4bbc 9a25 0f3d ef11 a13c f61d d83c
000003a0: 3754 523b 9a6e 8abd bb1c ee3c 5bf3 b3bc
000003b0: 2aa1 4dbd c40b 853c 0f5a 1d3d 5f5a 9abb
000003c0: 996e cc3c 4358 2c3d f2c4 623b ece1 39be
000003d0: 1f9f 8ebc 446e f7ba fea5 a2bc 9ebc 1a3d
000003e0: a025 ce3d 0a15 d4bc 9ba5 5b3d 84d0 93bc
000003f0: 48f8 823c fb4c cbbc c85b 863d 07a9 053d
0.0627772 -0.032990757 0.067025475 0.039354254 -0.029196573 -0.005804199 -0.015840871 -0.04178126
-0.02035078 -0.039574865 -0.014869144 0.016990347 0.052451726 -0.0001370473 0.030485757 -0.04509013
0.029520132 0.048345 0.060290847 -0.10097534 0.051218867 0.053922825 -0.024092121 0.049705762
0.03166141 0.03849525 -0.030670393 -0.015786199 0.13216446 0.04270136 -0.004870275 -0.0006237929
-0.060400188 -0.018181348 -0.05877338 -0.13397427 0.01385711 -0.02773955 -0.14436519 -0.12678967
-0.03364297 0.026754025 -0.004433578 0.14622006 -0.17756133 0.02299007 0.07549287 -0.03643807
0.081952 0.027237266 0.10126143 -0.10850176 -0.028214928 0.11718859 0.04114341 0.0244388
-0.03263776 -0.019457163 0.037222214 0.05563619 -0.005685929 0.051605172 -0.028091554 0.06936288
-0.03979726 -0.14706326 -0.12687406 0.015274753 0.0050582406 0.019415379 -0.12940031 -0.10038447
-0.041904155 -0.01588028 0.045459792 -0.030101072 0.036572006 0.023745855 0.018854842 0.08083369
0.14227282 -0.0024880026 0.04717654 0.11148065 0.20098214 -0.030221747 0.005460671 0.005043581
-0.048739154 0.0025942621 0.037851404 -0.033673145 -0.099510826 -0.049062964 0.08713562 -0.017525258
0.01732913 0.035127725 0.039807685 -0.004805278 -0.09018757 0.21012253 -0.043780826 0.043798693
0.027081402 0.011448324 -0.01337412 0.058463797 0.0066366927 -0.0125430785 0.046993222 0.09944629
0.09431885 -0.19146663 -0.0038150419 0.0185652 0.00017452284 -0.014659018 0.01039271 0.0034112
-0.068280935 -0.051222716 0.028237041 0.008955054 0.049179357 0.19644435 0.10454924 0.12976119
0.067454085 0.065856986 -0.009703638 -0.08526477 -0.027536593 -0.13368729 0.022423785 0.14340739
-0.013098868 -0.012234161 -0.002303505 0.08204493 -0.056292094 -0.08406119 -0.010592261 0.073316015
0.084029734 0.008761798 -0.023871504 0.011584296 0.048991177 -0.05350997 -0.030115264 0.03048294
-0.0244015 0.00888065 0.012993995 0.021642778 0.005318531 -0.010954522 0.025548942 0.004772268
-0.011901959 -0.047311258 -0.0796645 0.018635528 -0.08493171 0.078065224 -0.096943624 -0.07512711
-0.00036291906 0.021313852 0.011554993 0.003738952 0.0898577 0.1168211 0.0010688069 -0.035519537
-0.0310098 0.043256123 -0.050125476 0.05513118 0.050839216 0.01230048 -0.10408799 0.069852374
-0.37870425 0.13485655 -0.14107887 0.08011521 -0.029813059 -0.025757488 -0.071444005 -0.08612408
0.026380826 0.07585042 -0.04584195 -0.030923733 -0.1593574 -0.037338797 -0.04258543 0.070099436
-0.09861745 -0.014726481 0.00082749326 0.07865057 0.054712236 -0.030050939 -0.008111806 -0.10929499
-0.05289 0.0995379 -0.0051714433 -0.0053907875 -0.09672424 0.0014347965 0.036027286 -0.023011275
0.042118944 0.025479853 0.0016377291 0.037027754 0.11846451 0.02667488 -0.033431664 0.035264447
-0.011616043 -0.105793886 0.038151428 0.013330497 -0.012431063 0.03494797 0.019661872 0.026381474
0.0032093653 -0.06759377 0.029066434 -0.021966627 -0.050202526 0.016240962 0.038415965 -0.00471048
0.02495508 0.04207636 0.0034602252 -0.18152589 -0.01740986 -0.0018877466 -0.019854542 0.037777536
0.1006577 -0.025888938 0.05362473 -0.018043764 0.01598753 -0.02481698 0.06560475 0.0326319

encoder.dense.b f4 [4, 256]
00000000: dc5a 67be a30b 07be c897 7bbe 3acf f23d
00000010: f72e 2e3e b10d 1a3e 0e06 7b3e 89ee 8d3e
00000020: e105 733e 0796 ffbd ec42 bf3d d4ef 023e
00000030: 8fca 26be 7d2d 2c3e 9526 e1bd cb8e 793e
00000040: 59ed 81be a02b 6c3e 5f71 4bbe 4644 58be
00000050: bc4c 9bbe fbc9 34be 9ae1 2bbb a9b2 303e
00000060: 5aab 103e 0449 66be 5df3 353e 170e 40be
00000070: 17d4 83be a417 19be dd39 f53d 3c7f 553e
00000080: 8c9c 14be 9a4f 743e a6a4 92bd 8458 f9bd
00000090: f926 ff3d 8dec 8b3e 0479 0bbe 0415 32be
000000a0: 72b6 6f3e c1ac 703e ca4a 2b3e cbef 43be
000000b0: 4563 2bbe 44e2 713e f7bf 123e 267f 493e
000000c0: 598f 4bbe 7717 543e cf14 55be 8955 08be
000000d0: 3494 41be 95ff 8bbe 20c1 38be 98dd ee3d
000000e0: dc00 a53e 25c4 f63d cce0 84be afc3 ff3d
000000f0: 0153 1f3e 4d75 3e3e aac3 f3bd 35af 3a3e
00000100: 2fda 353e f10a 3bbe 5365 ddbd 63e5 183e
00000110: 4620 4e3e 3c53 47be 7f87 01be bccb 1fbe
00000120: 858d 8bbd bf34 783e 534e a63e 2d2e 09be
00000130: 497d 84be bedd 243e 65fe 243e ff11 50be
00000140: 596e f7bd da51 cf3d e39d 61be 0c8f 83be
00000150: 854b 69be 19c6 9ebd ea8f 7a3e 2eaf 913e
00000160: 4060 8fbd bb8f 2cbe d405 333e 836b 5f3e
00000170: c677 42be eeb2 2bbe 21e8 ffbd 7c59 403e
00000180: b446 613e 2486 5b3e e201 55be 6c1d 1dbe
00000190: 2934 53bc 302f 63be 003c 30be a05f 423e
000001a0: c251 e5bd d1e8 853e ebc6 063e 9426 56be
000001b0: 1758 a53e db6b 5a3e f970 cf3d 40a2 72be
000001c0: acad 52be 0ad0 00be 5aa0 ea3d d334 743e
000001d0: 77bc 3fbe c678 723e 2b40 843e 032e 2d3e
000001e0: affa 36be 1672 f3bd 9681 d83d 68d4 873e
000001f0: 3fd4 32be 2314 5cbe 8dc4 673e eedd a1be
00000200: adce 7a3e 112b b6bd 0c51 313e 3645 dfbd
00000210: 40f4 8c3e 401a 89bd 6531 823e 3ee2 3fbe
00000220: ee89 573e 7cde 9a3e 4297 213e 744e a0be
00000230: c698 a9bd 331d 783e 9127 563e 82b4 033e
00000240: d19a 2dbe 99b4 5bbe 4541 9cbd 5f03 163e
00000250: 8b1e 1a3e e6df 3ebc 5625 1fbe d2f7 563e
00000260: 7caa 333e 7314 833e 495e 2d3e fa22 5cbe
00000270: 4dea 643e ae10 3d3e f9ac 063e a569 7c3e
00000280: 93f5 753e 890c 3b3e 55a9 3dbe b692 5b3e
00000290: 0518 25bd aee8 0abe f41c 51be 5c19 7fbd
000002a0: ef59 96be b444 103e afd7 e13d 1acc 313e
000002b0: 894c 083e 3abb 683e 60a2 263e 1766 4d3e
000002c0: b9f6 55be c952 4fbe a14c 2d3e 6860 50be
000002d0: 938e 0a3e b2dd 42be 09d2 1fbe 2d06 da3d
000002e0: a4d1 d73d aa5e 01be e115 41be ac31 693e
000002f0: 9468 713e 3f0d 1ebe ca60 02be f6d9 23be
00000300: 83e8 433e 1ac3 3abe 3350 3e3e 79a9 a53e
00000310: 10e3 86be 11cb 8b3e 9244 edbc 27b1 573e
00000320: 91c0 31be 5695 763e e268 663e dcf1 ca3d
00000330: 591a 393e b9af 343e bf14 3f3e 9381 45be
00000340: 6ff4 00be cc49 4ebe 351c 2e3e 4195 39be
00000350: 6a22 13be d1de 8f3e bfb9 1c3e e8d1 5a3e
00000360: 99d5 4c3e 9313 593e cd90 823e 4fac 1d3e
00000370: 35b2 47be d88b 5e3e 28ba 2fbe 96ee 7a3e
00000380: 4e7c 5c3e 07bf 1abd 8469 42be 83f1 423e
00000390: 9d72 2fbe 249d 1dbe bb9b 903e 0efb 153e
000003a0: 564d 783e 5b5c a93e dbe3 dd3d e7e1 853e
000003b0: eb42 423c ff93 a93e 161c 9e3e 11f3 853e
000003c0: 033a 75be 263f 523e 6983 79be 96ec fabd
000003d0: 4b4c 9e3e a97c 76be c56a a93e 2f18 9d3e
000003e0: 7d88 60be 6e5e 7a3e 1dd5 6abe 92a8 1e3e
000003f0: 7310 4a3e 6c1b 893e 6e1e 593e 19d7 e63d
-0.22593254 -0.13188033 -0.24569619 0.118559316 0.17010103 0.15044285 0.24514028 0.2772105
0.23732711 -0.12479787 0.09338936 0.127868 -0.16288207 0.16814227 -0.10993687 0.24370877
-0.25376394 0.23063517 -0.19867466 -0.21119794 -0.3033198 -0.17655174 -0.0026226998 0.17255653
0.14127865 -0.22488791 0.17768617 -0.18755375 -0.2574775 -0.14950424 0.11973927 0.20849317
-0.14512843 0.2385849 -0.071603104 -0.12175086 0.12458605 0.2732891 -0.13620383 -0.1739083
0.23409441 0.235034 0.16727749 -0.19134443 -0.16737087 0.2362147 0.14331041 0.1967741
-0.19878902 0.20712076 -0.20808719 -0.13313879 -0.18904191 -0.2734343 -0.18042421 0.116633594
0.32227218 0.1204913 -0.25952756 0.124884956 0.15559007 0.18599434 -0.11902554 0.18230899
0.17759012 -0.18265893 -0.10810342 0.14931254 0.20129499 -0.19465345 -0.12649344 -0.15605062
-0.06814102 0.24238871 0.32481632 -0.13396521 -0.25876835 0.16100213 0.16112669 -0.20319365
-0.12081594 0.10123034 -0.22032885 -0.25695074 -0.22782715 -0.07752628 0.24468961 0.28453964
-0.0700078 -0.16851704 0.17482692 0.21818356 -0.18991002 -0.16767475 -0.12495447 0.18784136
0.21999627 0.2143789 -0.208015 -0.15343255 -0.012890854 -0.2218597 -0.17210388 0.1898179
-0.11197235 0.26154187 0.13161819 -0.20913154 0.3229377 0.21330206 0.1012897 -0.23694706
-0.20574063 -0.1257936 0.11456366 0.23848276 -0.18724237 0.23678884 0.25830206 0.16912083
-0.17869066 -0.118869945 0.105715916 0.2652924 -0.17463778 -0.21492057 0.22633572 -0.3161463
0.24492903 -0.08894933 0.17316073 -0.10901873 0.27530098 -0.0669446 0.2542831 -0.18738648
0.2104871 0.30247867 0.15780357 -0.31309855 -0.08281092 0.24229889 0.20913531 0.12861827
-0.16953589 -0.21455611 -0.07629637 0.14649723 0.15050714 -0.011650061 -0.15541586 0.20992973
0.17545503 0.2560154 0.16930498 -0.21497717 0.22355004 0.18463394 0.13151921 0.24649675
0.2401946 0.182665 -0.18521626 0.21442685 -0.04030611 -0.13565323 -0.20421201 -0.062280044
-0.2936549 0.14088708 0.110274665 0.17363015 0.13310446 0.22727671 0.16272879 0.20058475
-0.20894898 -0.20246424 0.16923763 -0.20349276 0.1353095 -0.19029883 -0.15607466 0.10645709
0.10538033 -0.12633768 -0.18856002 0.22772855 0.2357505 -0.1543474 -0.12732235 -0.16001114
0.19131665 -0.18238488 0.18585281 0.3235586 -0.2634511 0.27303365 -0.028963361 0.21063672
-0.17358615 0.24080405 0.22500947 0.09909412 0.18076457 0.17645158 0.18660258 -0.1928771
-0.12593244 -0.20145339 0.17002948 -0.18123342 -0.14368597 0.28099683 0.15305232 0.21369135
0.20003356 0.21198873 0.255011 0.15397762 -0.19501574 0.21733034 -0.17160857 0.24505076
0.21531793 -0.037779834 -0.18985564 0.19037442 -0.17133565 -0.15391976 0.28243813 0.14646551
0.24248251 0.33078274 0.108344756 0.26148912 0.011856775 0.33120725 0.30880803 0.26162007
-0.23947911 0.20531902 -0.24366535 -0.122521564 0.30917582 -0.24070992 0.3308927 0.30682513
-0.21927066 0.24450085 -0.22932859 0.15493992 0.19732837 0.26778734 0.21203014 0.11271495

shared_encoder.dense.weight f4 [256, 25]
00000000: 6ce5 103e 4abc 483e 8627 283d dd02 2c3e
00000010: 57f7 df3d 2c14 35be 7cbf e9bd 8297 fa3c
00000020: 22ba d8bd 0471 fb3d 1357 7abd fc7b 3dbe
00000030: ff4c 393e 72ed 193e 1e00 373d 59ca 31be
00000040: 60a9 d6bd e1f3 ca3c 5295 82bd 7692 3d3e
00000050: 54ec 2e3d ea87 013e 66e6 f93d 1f76 66bd
00000060: 8ffb b63d 6c05 693d 2eb3 48be f312 dd3d
00000070: 18c2 ebbd 2970 1abe b951 32be 4a6c 05be
00000080: d431 4cbc f0a8 38be 2d17 d0bb e51a 4bbe
00000090: e231 fcbd e4bc 3fbc 6592 14be a86a 0bbe
000000a0: 20a1 61bd 8dbd 0dbe 6f0b cebd b06a 483e
000000b0: d49a a3bd b1e9 043d 4fb4 093e 2e36 7ebc
000000c0: 1bb2 fdbc dbf2 a43b 302b e93d cc26 a5bd
000000d0: 977c 04be 9ead 10be 1f7e f43d e8e2 823d
000000e0: aa3c f3bd 3b8a 16be 720f 0f3d ae7b 2cbe
000000f0: ef2c 463d 00c1 42be a41d 4a3d 08b3 313e
00000100: cf41 2e3e f8f4 03bd 279a 33bc 7852 30bd
00000110: 71cd 453c f488 9ebc 3d6f 7f3d 963f 103d
00000120: c436 17be 1d3a f9bd c552 ac3d 0a0a 82bd
00000130: 3cc0 15be e746 223e 3846 663d 5ff5 0e3e
00000140: f713 0fbd 45e6 383e ec12 ca3d a01d bc3d
00000150: a19a 90bd cae7 de3d c4d6 d53d cc38 063e
00000160: 3005 f1bd f9db 16bc bb74 0bbe 529a a23d
00000170: 105d fd3d 0fb9 1f3e e420 a63c a11a 123e
00000180: 48d4 2dbe fad7 3a3d 99ed 8e3d 4eb0 89bd
00000190: 0734 48bd 4010 3f3e a924 043e 5ae9 d1bd
000001a0: f622 e53c 4c75 e6bd 94a1 97bd 3e77 1b3e
000001b0: d0af 923d 39cf 87bd 99f8 31be 8122 ca3c
000001c0: 2930 d2bb 8e9c ab3d 9750 07be 79b1 783c
000001d0: 04ce 59bd 9307 0bbe 6de9 3e3e 2e74 413e
000001e0: fabc 813d b91b 0c3e e870 04be 97c2 eebd
000001f0: 39d9 1b3e 1911 ce3d e03d 373e b3f3 293e
00000200: 70ef 2fbe 9f6d 33be be9b fcbd 277f 1e3e
00000210: e6ba 5fbd cf4b 29be b6ad 0e3e 350d c63c
00000220: 570b 18be 84ce 2cbe dce8 1a3e 618a 1cbe
00000230: 46b9 d13c f484 08be 8e07 21be e445 d6bd
00000240: 5f98 0dbe 4f68 ba3d 1416 d7bd a1a4 503e
00000250: a075 64bc dcb9 2f3e 7748 393d 55b7 703c
00000260: 244c 40be c6f2 303e 3417 f43d 2723 443e
00000270: 3319 3a3e cd35 833d fa8a c53d ef04 123d
00000280: db84 6bbd 6f5c 303e e428 b83d 3d16 2c3e
00000290: cbeb 22be 6825 82bc 1fdd aebc 1b1f f33c
000002a0: 580e 233d 3fca 9abc 0823 bc3b 85f9 42be
000002b0: 82e2 43bc b818 ef3c 5f1a 46be 0ec8 d0bc
000002c0: f388 3abe 4797 1f3e 7cd3 d5bd 8fd0 e23c
000002d0: 882d 0e3e fd19 263d 7b94 143d ab35 1cbd
000002e0: 89cf 37be 53cf 91bc 4dc9 1a3d 08c5 f53d
000002f0: 2800 f9bc 84c6 bc3c 4c6d 63bd 1c63 5abd
00000300: 6008 0c3e 3870 81bd 45ce 043e d0de e7bd
00000310: 488d cb3d 63f9 013d 3112 353e 57f6 123e
00000320: cfd4 f63c e881 29be 0258 da39 7dcb 923d
00000330: 99eb 24bc d9c7 4ebe 992e 833c f453 cb3b
00000340: 502f 4ebe 4fb4 f53d 7cd9 8fbd 6687 d8bd
00000350: 4fae 2c3e cc23 ab3d dd3c 113e 3848 32be
00000360: 4a37 f2bd 90d1 8ebc a199 45be 5f5a a73d
00000370: 461c 37bd 7e31 3ebe c224 953c 0b50 2abd
00000380: 4557 36bc 98d7 303e cee6 d93d 55d8 44be
00000390: 884d 023d 5cea b2bd 1bf1 413a 5a0b e2bc
000003a0: 67d3 dfbd 0648 323e 5e50 babd 8e99 d73d
000003b0: d9f2 2ebc 1809 4c3e f090 17be e0c4 b53d
000003c0: e9de 363e 20a4 5dbd ce94 39bd 8f70 e43d
000003d0: 015b 3f3e 3de3 febd 52f6 f13d fe32 3abc
000003e0: e3ad 53be 7e77 0a3e 7bc9 2c3d b4d4 073e
000003f0: 76c9 b3bc be7d 06be 0b6d 953d 3b2d c83c
0.14150017 0.19603077 0.041053317 0.16797967 0.10935848 -0.17683476 -0.11413476 0.030589823
-0.10582377 0.122774154 -0.061118197 -0.18504328 0.18095778 0.15031984 0.044677846 -0.17362346
-0.104815245 0.024774494 -0.06376137 0.18512902 0.04270585 0.12649503 0.12202148 -0.056264993
0.089347 0.056889936 -0.19599602 0.1079463 -0.1151163 -0.15081848 -0.17413987 -0.1302959
-0.012463052 -0.18033195 -0.006350419 -0.19834478 -0.12314202 -0.01170275 -0.1450897 -0.13614905
-0.0550853 -0.13841839 -0.100607745 0.19571948 -0.079885155 0.032449428 0.13447689 -0.015515847
-0.030968716 0.0050338334 0.113851905 -0.080640405 -0.12938152 -0.1412873 0.11938118 0.06390935
-0.11876805 -0.14701168 0.03492684 -0.16844055 0.048382696 -0.19018936 0.049344674 0.17353451
0.17017291 -0.032216042 -0.010962046 -0.0430474 0.012072907 -0.019352414 0.062361944 0.03521689
-0.14766985 -0.12169287 0.084142245 -0.06349571 -0.14624113 0.1584736 0.05621931 0.13960789
-0.03493115 0.18056591 0.0986689 0.09185338 -0.07060743 0.10884054 0.10441354 0.13107604
-0.117685676 -0.009207719 -0.13618748 0.079395905 0.12371266 0.15597938 0.020279355 0.1426797
-0.1697551 0.045616128 0.06978912 -0.067230806 -0.048877742 0.18658543 0.1290461 -0.102495864
0.027970772 -0.11252841 -0.074038655 0.15182206 0.0716244 -0.066313215 -0.17379989 0.024674656
-0.0064144325 0.0837947 -0.13214336 0.0151790315 -0.053174987 -0.13577108 0.18643732 0.18891975
0.063348725 0.1368245 -0.12933695 -0.11658209 0.15219583 0.10061855 0.17894697 0.1659687
-0.17181182 -0.17522286 -0.12334393 0.15478192 -0.0546216 -0.16532825 0.13933453 0.02417622
-0.14848076 -0.16875654 0.15127891 -0.15287162 0.02560104 -0.13331968 -0.15725538 -0.10462549
-0.13827656 0.091019265 -0.10502258 0.20375301 -0.01394406 0.17160743 0.045235123 0.014692147
-0.18779045 0.1728011 0.11918488 0.19154035 0.18173675 0.06406746 0.09645648 0.035649236
-0.057499748 0.1722276 0.08992174 0.16805358 -0.1591026 -0.015886977 -0.021345673 0.029677918
0.0398086 -0.018895267 0.0057414807 -0.19040497 -0.011955859 0.029186592 -0.19345997 -0.025486019
-0.18216304 0.15585051 -0.10440728 0.02768734 0.13884556 0.040552128 0.036274415 -0.03813712
-0.17950262 -0.017799055 0.03778963 0.12000471 -0.030395582 0.023043878 -0.055524155 -0.053317174
0.1367507 -0.06320232 0.1296931 -0.11321795 0.09939057 0.031731974 0.1768272 0.14351784
0.030130772 -0.16553462 0.0004164577 0.071677186 -0.0100659365 -0.20193423 0.01601343 0.0062050764
-0.20135236 0.11997282 -0.07023904 -0.105727 0.16863368 0.08356437 0.14183374 -0.17410362
-0.11826952 -0.017433912 -0.19296886 0.08171534 -0.044704698 -0.18573567 0.018206004 -0.04158024
-0.011129205 0.17269742 0.106397256 -0.19223149 0.03181222 -0.08736107 0.0007398293 -0.027593303
-0.10928994 0.17410287 -0.0909736 0.10527335 -0.010678017 0.19925344 -0.14801383 0.088754416
0.17858471 -0.0541116 -0.045307927 0.11154281 0.18687059 -0.12445686 0.1181456 -0.011364697
-0.20671801 0.13522145 0.042184334 0.13264734 -0.02194665 -0.13133904 0.07296189 0.02443563

shared_encoder.dense.bias f4 [256]
00000000: 33c7 09bd 111b d9bc 995e c2bc 60fe 6dbe
00000010: 4392 0fbe 9720 9b3d 75e8 29be 261b 173e
00000020: a00e 1e3d 03f8 8dbe 1151 60bd 96ad 3dbe
00000030: 5370 bebe 4c86 103e 40c7 f8bd bdac 303d
00000040: bbce 60bd 30f7 533e ae5e 983e 14cf 5dbd
00000050: ed7d a23e 37b8 6cbe c100 b8bd a52e a1be
00000060: 3ed7 9fbe 1809 443d a18b a4be e4b6 26be
00000070: 75fa 773d 0100 35be ed8c 613e d4b7 d63e
00000080: e350 fcbd c097 8fbd 6e7e 623b cf5f 33bd
00000090: 5ec1 203e 54d6 b63e 994e 233e a6fa a0be
000000a0: 2b06 9abc 7f2e 3cbe 70ca 483d 195d 9abe
000000b0: fa9b 8cbe 4c20 69be 6f79 8e3d 035f c7be
000000c0: 88c4 773e f3e9 7b3c b0f9 c9be 57f7 f3bd
000000d0: 91e4 69be 8813 37be d5c7 43be 3538 b13c
000000e0: 2518 e1be 3baa 86bd 8e23 10bd 4967 9b3e
000000f0: 1daf 54be f724 843d 8f3b 0bbe cf82 a03e
00000100: 2f45 f9be 9f2c 67bd 759e 24be 13f2 033e
00000110: 0207 5dbd 7e9b 413e b9de 1c3e 2f53 2a3e
00000120: a589 0e3d 1f54 96be 9ebb b7bd b9b4 a4be
00000130: db0e 87be cee0 74bd 616f 28be 00d2 b1be
00000140: 6eb2 bebe a43a 10be 95d0 233c b7e5 abbe
00000150: c138 7cbd e3b8 44be 8fd8 503e ae9e e0bd
00000160: 7b6b 94be 962d 85bd d195 a7be e90a b53e
00000170: 0715 983e 8966 35be a2e0 28bd 1366 213e
00000180: 15fd 99be ffe9 b7bc 63f2 373d 12b0 283e
00000190: 32a5 0f3e 5ef9 983d 590c b7be 0e44 59bd
000001a0: c7ef cc3e f9f1 7ebe 2d0e 823e 0066 003e
000001b0: 829d 9ebe 89e8 ac3c 0c29 043e f74b a2be
000001c0: 7b31 753e dc08 bb3e 6ae8 7fbd 6ccc 573e
000001d0: 4f29 93be 91e0 28be 1d9d 00be 28a2 6f3c
000001e0: 8087 1bbc 69b1 7bbe d20b e63d 5b22 7e3e
000001f0: f416 073e e906 55be 2ce3 583e 3618 313e
00000200: a083 3fbc efea bd3e 4ddd 9f3e f8be a6be
00000210: c6e5 873c 0d0c 213d aa56 893e aa0d 8d3d
00000220: 9e67 35be c1c3 8b3d a6b6 64bd b0b3 b9be
00000230: f784 3b3e 7259 92bd f207 2f3d c489 7bbe
00000240: 4ccd 86bd 8310 39bc 79eb b03e aea7 333c
00000250: 5889 61bd 8be5 053e 5397 b93e 5d75 84be
00000260: 180c a03e 1411 c73e e76e 1abe 5c97 cdbd
00000270: f0d2 26bc cadd e0bd 7589 a6be 421e d53d
00000280: 6128 823d 5e0e 803d 3200 7e3e e9cb 11be
00000290: dc1c abbe cc49 77be ca34 313c b7d0 2ebe
000002a0: a129 8a3e 2c28 ebbd 97ce bebe 0818 02be
000002b0: 5720 af3e 25b9 47bd 6eaf 82b9 0a52 cd3e
000002c0: f00c 793e 20c5 7fbc af58 ca3d 9449 24be
000002d0: d72e 683e 4163 163e 8cf6 403e 5591 2cbe
000002e0: 0e73 043e a4f4 b33e 3f8b d6bd ed8b 263d
000002f0: a406 433e c4d2 313d 0da6 e83d f20a 3c3e
00000300: 56c1 423c 3d55 d83e f7c2 46be 58f3 7f3c
00000310: 9cca 793c 52bc b23e 30dd 28bd 903b 7cbe
00000320: 13fa a63e 0a05 0b3e c3d5 af3d fa27 2b3c
00000330: 2c3b b6bc ed0f cebe cb97 bebe dac6 c73d
00000340: 492b 813d cfa3 a0be 3fea 49be 7a6c 23be
00000350: aa49 42be 5dc8 16bd ec3f 9dbe 9111 88be
00000360: 75ea 03be 6aa1 8dbe 1062 b53d d780 1ebc
00000370: 65bc aebe 93f7 223e 4249 c53e c9e2 39be
00000380: cd29 7a3d e71f 6fbc 6de9 a0be 5067 7abd
00000390: 71ab 7dbe 9d8b b23d 8988 25be 3002 18be
000003a0: dd51 9b3d 2bc2 11be 62a1 953e bc5b 2b3d
000003b0: f163 973e 8b78 9538 e9d1 243e 4099 55be
000003c0: ada0 7fbd 2b73 a7be 3633 913d 6dbc 09be
000003d0: 1ec7 85be 3fba 8fbe b9d6 f43c 0aff 9cbd
000003e0: 9447 a33e aa37 51bd 22ac 983d f075 0b3e
000003f0: b27f 743e 19d6 a53e 49f9 05bd d2ad 74be
-0.033637237 -0.026502164 -0.023726748 -0.23241568 -0.14020638 0.075745754 -0.16592582 0.1475645
0.038588166 -0.2772828 -0.05476481 -0.18523249 -0.37195072 0.1411373 -0.12147379 0.043133486
-0.054884654 0.20699763 0.29759735 -0.054152563 0.317367 -0.23117147 -0.08984519 -0.314809
-0.31218904 0.047860235 -0.32137778 -0.16280705 0.06054159 -0.17675783 0.22026415 0.41937125
-0.123201154 -0.07011366 0.0034560221 -0.043792542 0.15698764 0.35710394 0.15947951 -0.3144123
-0.01880177 -0.18377112 0.049021184 -0.30149153 -0.2746275 -0.22766227 0.06956755 -0.38939676
0.24196064 0.015375602 -0.3944831 -0.11912411 -0.22841097 -0.17878544 -0.19119199 0.021633247
-0.43963733 -0.06575438 -0.035190158 0.30352238 -0.20769925 0.06452363 -0.13596939 0.313498
-0.48685595 -0.05643904 -0.16076072 0.12885313 -0.05396176 0.18906972 0.15319337 0.16633295
0.034799237 -0.29361054 -0.08971332 -0.3216913 -0.2637852 -0.059784703 -0.16448738 -0.3473053
-0.37245506 -0.1408487 0.00999846 -0.33573696 -0.061577562 -0.19211154 0.2039511 -0.10967766
-0.2898825 -0.065028355 -0.32731488 0.35359886 0.29703543 -0.17714895 -0.04122985 0.15761594
-0.300759 -0.022450445 0.044908892 0.16473415 0.14027861 0.07469438 -0.35751608 -0.053043418
0.40026686 -0.24896993 0.2540144 0.1253891 -0.30979544 0.021106975 0.12906283 -0.31698582
0.23944657 0.36530197 -0.062477507 0.21074075 -0.28742453 -0.16491915 -0.12559934 0.014626063
-0.009492755 -0.24579395 0.11232723 0.24817793 0.1319235 -0.20803417 0.21180409 0.17294392
-0.011689097 0.37093303 0.31223527 -0.32567573 0.016589057 0.039318133 0.26823932 0.06887372
-0.17715308 0.068244465 -0.05583825 -0.36269903 0.18312441 -0.071459666 0.042732187 -0.24564272
-0.06582126 -0.011295441 0.3455465 0.010965271 -0.05506262 0.13075845 0.36248264 -0.2587079
0.31259227 0.38880217 -0.15081368 -0.10038635 -0.010182127 -0.10979803 -0.32526746 0.10406162
0.06355358 0.0625274 0.24804762 -0.14237942 -0.33420455 -0.24149245 0.010815809 -0.17071806
0.26984885 -0.114822716 -0.3726699 -0.1270448 0.3420436 -0.048760552 -0.00024926238 0.40101653
0.24321342 -0.015610963 0.09880196 -0.16043693 0.22674118 0.146863 0.1884405 -0.16852315
0.12934515 0.35147583 -0.10475778 0.040660787 0.19045502 0.043413892 0.11359797 0.1836355
0.011886915 0.42252532 -0.1941031 0.0156219825 0.01524606 0.34909302 -0.041226566 -0.24632096
0.32612666 0.13576141 0.08585694 0.010446543 -0.022245012 -0.40246525 -0.37225184 0.09754725
0.06307084 -0.31374976 -0.19718264 -0.1595935 -0.18973413 -0.036812175 -0.3071283 -0.26575902
-0.12882407 -0.27662212 0.088565946 -0.0096742725 -0.3412811 0.15914755 0.38532454 -0.18152918
0.06107502 -0.014595008 -0.3142809 -0.061133683 -0.24772431 0.08718035 -0.16165365 -0.14844584
0.075839736 -0.14234225 0.29224688 0.04183553 0.29568437 7.1273265e-05 0.160957 -0.20859241
-0.06240909 -0.32705054 0.07089846 -0.13450785 -0.26128477 -0.28071782 0.029887544 -0.07665832
0.31890547 -0.051078476 0.07454707 0.13619208 0.23876837 0.32389906 -0.03270844 -0.23894432

classifier.dense.W f4 [4, 512, 1]
00000000: 8a55 3f3e 372d b03e 0cec 003e 9308 5bbe
00000010: c7ef 4abe 566c 52be f265 5ebe 9339 23be
00000020: 4c51 35be 2f18 dd3e 9bdf 37be eb65 f0bd
00000030: 9892 813e 576e 4cbe eaa9 c43e 1dcc 57be
00000040: 06c7 583e d33e 1cbe 9dce a93e 8f3f 963e
00000050: 8274 233e 55f5 763e d597 863d 8b52 71be
00000060: 3141 3bbe c560 943e bf8a 67be bbb7 313e
00000070: 215b 7b3e 7ae7 9b3e 8dde 39be 6ad1 0ebe
00000080: d99d a53e 5f2e 21be 0632 e03e 3c92 763e
00000090: caeb 80be 27af 17be 35f1 c53e 5e54 b63e
000000a0: f5ef 4cbe 1072 4cbe cef5 29be ba1c 9c3e
000000b0: be64 753e e7da 83be f63d 5fbe c348 efbd
000000c0: e729 3a3e e22d 5dbe 4b36 b33e ebd0 b63e
000000d0: ee6c 983e 6093 303e 1ffa 2d3e 6f47 35be
000000e0: 1897 41be d6a6 13be fb5b 5e3e 7606 b0be
000000f0: d392 25be bed5 2bbe 411a b83e b89e 6abe
00000100: a8e2 60be f9f3 9c3e 284f a13e d0de 4bbe
00000110: 5ce0 2abe 1ae1 353e dc29 be3e 68c4 9e3e
00000120: 1ff3 ca3e fb16 38be 08c1 4bbe 9c58 883e
00000130: c9bc 9f3e 62bd 58be b8a8 41be 903f 513e
00000140: 0965 c03e 61a0 1abe a9ad 0c3e d54c 763e
00000150: d90b c53e 2778 933e b40f 49be d31b 1dbe
00000160: 95e5 ea3e ca0a 963e 073a 87be 0b38 2ebe
00000170: 6c8a 973e d5e6 933e bb83 953e 165e 42be
00000180: 1d37 0fbe a484 60be 10b8 8e3e 9ed7 fa3e
00000190: 1561 973e bcff 9e3e be83 8d3e d4b9 ecbd
000001a0: ee60 c93e 8f23 3bbe 1d46 3ebe d023 883e
000001b0: 3faf 29be e89c 6ebe ca08 2cbe 0c25 c63e
000001c0: 38ba 873e 1ba0 d23e e1af adbe 5f64 4abe
000001d0: d7f4 6b3e 3c40 3fbe 8189 39be f1b8 53be
000001e0: 2947 b53e b57d bb3e 3142 edbd 36fd 1cbe
000001f0: dc75 843e 7b1d dc3e 660c 21be 3515 3f3e
00000200: 0e7e 28be b71d 9b3e 2e46 40be 0717 a23e
00000210: 7a04 c1bd 9a30 ea3e 1f0e 2abe 827e 903e
00000220: 0c9a 44be a437 1bbe 3549 52be 2abd 993e
00000230: 804b 703e 9470 72be a97f 4ebe ae54 41be
00000240: 4f2f 8c3e 3f60 093e 2025 903e b317 5bbe
00000250: 7c74 47be 6156 dd3e 0062 033f 972f 2dbe
00000260: b80f 3bbe 6294 1abe 029c 10be e33d 433e
00000270: 22a5 3cbe 59fe e8bd 3cdf 1dbe c2ea 58be
00000280: 9e06 55be 0d63 36be fc39 8e3e 4611 d3bd
00000290: a37a df3e c843 553e 9d43 c63e fcd1 df3e
000002a0: 49c9 273e 2f9c 0fbe d51c 31be d5c5 7ebe
000002b0: bb8c 44be d81a d1bd f19c 75be 6993 8abe
000002c0: 1019 083e 4a19 743e f18d 4dbe ae04 643e
000002d0: 4d44 20be 2774 5e3e ab53 e33e 6b7b 5dbe
000002e0: 2b4c 07bf 64c5 a33e 912c 353e e940 64be
000002f0: 7eba 74be 36d0 6b3e b95f 943e c0a9 7e3e
00000300: f788 77be d685 7a3e 94c6 40be 4f12 3fbe
00000310: 3681 373e 0938 3cbe 96d1 80be fb8a e0bd
00000320: 3ce5 8e3e e366 10be 352c 38be df75 2abe
00000330: 926e 22be 5f3d 51be 85a2 4cbe f094 0e3e
00000340: 161a bf3e 9331 523e 48d2 4dbe e5cf a03e
00000350: 477f 893e 9178 77be 7709 06be 6d3c 77be
00000360: e207 71be 546d 64be 5653 3dbe b66a 7bbe
00000370: 8cad 8a3e 0999 43be c7b2 b23e c448 29be
00000380: 04e2 75be 358e c4be dae6 223e 370a 13be
00000390: ab4e 8b3e 9b18 493e 3013 3bbe 046f b2bd
000003a0: e7d1 5bbe 8001 47be 5002 f6be 8470 e5bd
000003b0: be5c bb3e 1c30 17be aa57 2dbe ac6a 5dbe
000003c0: 4d10 483e 4946 42be acb8 4e3e f178 db3e
000003d0: a314 24be f343 1d3e 4c8f 28be 1091 f1bd
000003e0: 5779 973e d908 32be c194 553e de25 54be
000003f0: bf0d 41be 7648 50be f2f4 70be 598a 46be
0.18684974 0.34409496 0.12590045 -0.2138999 -0.1981803 -0.2054914 -0.21718577 -0.15939932
-0.17706794 0.43182513 -0.17956392 -0.11738189 0.25307155 -0.19963966 0.38410884 -0.21073957
0.21169671 -0.1525834 0.33165446 0.29345366 0.15962413 0.24117024 0.065719284 -0.23566644
-0.18286587 0.2898008 -0.22611521 0.17355244 0.24546482 0.3045004 -0.18151303 -0.13947073
0.3234699 -0.15740345 0.43788165 0.24079221 -0.25179893 -0.14812909 0.3866059 0.35611242
-0.20013411 -0.19965386 -0.16597673 0.30490667 0.23964211 -0.25752947 -0.2180098 -0.116838
0.18180047 -0.21599534 0.3500236 0.35706267 0.29770607 0.17243719 0.16989945 -0.17703031
-0.18905294 -0.14419112 0.21714775 -0.3437993 -0.1616929 -0.16780755 0.3595753 -0.22912109
-0.21961462 0.30654886 0.31505704 -0.19909215 -0.16687149 0.1776165 0.3714131 0.3100922
0.39638612 -0.17977516 -0.19897854 0.26630104 0.3119872 -0.21165994 -0.18912017 0.20434403
0.37577084 -0.15100242 0.13738121 0.24052747 0.38485602 0.28802606 -0.19634897 -0.15342645
0.45878282 0.29305106 -0.2641146 -0.17013566 0.29597795 0.28887048 0.29202065 -0.18981203
-0.13985868 -0.21925598 0.27874804 0.48992628 0.29566255 0.31054485 0.27639574 -0.115588814
0.39331764 -0.18275283 -0.18581434 0.26589823 -0.16570757 -0.23302042 -0.16800228 0.3870014
0.2650926 0.41137776 -0.33923247 -0.19764851 0.23042618 -0.18676847 -0.1811886 -0.20676018
0.35405853 0.36619344 -0.11584891 -0.15330967 0.2587117 0.42991242 -0.15727386 0.18660434
-0.16454336 0.30296108 -0.18776771 0.31658193 -0.09424682 0.45740205 -0.1660695 0.28221518
-0.19199389 -0.15157944 -0.20535739 0.30027133 0.23466301 -0.23675758 -0.20165886 -0.18879959
0.27379844 0.13415621 0.28153324 -0.2139576 -0.19478029 0.43229964 0.5132141 -0.16912685
-0.18267715 -0.15095666 -0.14122012 0.19066577 -0.18422368 -0.11376638 -0.15417188 -0.21183303
-0.20803306 -0.17811222 0.27778614 -0.10306029 0.43648252 0.20826638 0.3872346 0.43714893
0.16385378 -0.14024423 -0.17296155 -0.24880154 -0.1919431 -0.10210198 -0.2398565 -0.2706559
0.1329081 0.23837772 -0.20073678 0.2226741 -0.15651055 0.21723996 0.4439977 -0.21629111
-0.528506 0.31986535 0.17692782 -0.22290386 -0.23899266 0.23028645 0.2897928 0.24869442
-0.24173342 0.24465117 -0.18825752 -0.18659328 0.17920384 -0.1838075 -0.251599 -0.109640084
0.27909267 -0.14101748 -0.17985614 -0.16646527 -0.15862492 -0.20433567 -0.19983871 0.13924003
0.3732459 0.20526724 -0.20099747 0.3140861 0.26854917 -0.24167086 -0.13089548 -0.24144144
-0.23538163 -0.2230733 -0.18488821 -0.24552426 0.2708553 -0.19101347 0.3490202 -0.16531664
-0.24012 -0.38389745 0.15908375 -0.14359365 0.27208456 0.19638292 -0.18269038 -0.08712581
-0.2146679 -0.19434166 -0.4804864 -0.11203101 0.36594194 -0.14764446 -0.16927972 -0.21622723
0.19537468 -0.18972124 0.20187634 0.42865708 -0.16023497 0.15357952 -0.16460913 -0.117952466
0.29584762 -0.17386188 0.20857526 -0.2071757 -0.188529 -0.20340142 -0.23530939 -0.19388713

classifier.dense.b f4 [4, 1]
00000000: d0a7 02be 6662 0dbe b7a7 22be 1994 05be
-0.12759328 -0.13807067 -0.1588429 -0.13044776
