ion_detection_ffnn.pth (torch, 5736 bytes, 4 tensors)

fc1.weight f4 [32, 25]
0.19562335 0.19876023 -0.017940834 -0.16029568 0.1882178 -0.17410679 -0.15901701 0.04701464
-0.09968157 -0.13524702 0.16653956 0.060627595 0.014222667 -0.17495735 -0.02078624 -0.050194427
-0.034763843 -0.18094651 0.087672874 -0.13058181 -0.15399592 0.0806158 -0.12290788 0.11813356
-0.10838952 -0.15072405 0.042662352 0.09997817 -0.18684195 0.15156515 0.17563319 -0.14522472
0.20185815 0.10256107 0.15661895 -0.11282929 0.03737132 0.11231465 0.089249685 0.089974195
-0.16065307 -0.031836167 0.13068804 0.07362014 0.018332109 -0.13467187 -0.030768659 -0.14141776
0.09574001 0.108564556 0.18994953 0.15786506 -0.107489206 -0.006643012 -0.113924764 0.035350844
-0.08449223 0.102647975 -0.02352032 -0.03327763 -0.169666 -0.05092624 0.085702464 0.0040702373
0.009714797 0.093594864 -0.10644803 0.00035747886 -0.00462763 0.032164365 0.16419454 0.06536211
-0.1965063 -0.18954198 0.06315185 -0.16668656 0.17267574 0.07478233 -0.18877807 -0.18241334
0.09183906 -0.04880604 -0.14108232 -0.12541337 -0.012405485 -0.1809347 -0.07603114 0.17808975
0.030831724 0.09855582 0.09757094 0.124526635 -0.05245623 -0.05125746 -0.123905115 0.051699027
0.11925347 -0.08749197 0.048279256 -0.062228635 0.09257425 0.18280731 -0.08237932 -0.12739655
-0.17262033 -0.0040788352 -0.19207337 0.17836885 -0.005768031 -0.010210186 0.05417882 -0.14571361
0.054600134 0.09946804 -0.0061624497 0.076546684 -0.1586971 -0.06934202 -0.08269496 0.08970387
0.12613152 -0.16662553 -0.06713422 -0.00086668134 0.13656141 0.11391724 -0.121440545 -0.0647483
-0.13284683 0.067475155 0.075376414 0.14853491 0.16100766 0.10354894 0.098600835 0.11606858
-0.15086316 0.016999422 0.2170489 0.15229751 -0.1991941 -0.05929442 -0.07860953 0.11851622
-0.12314352 0.1045179 0.09915509 0.030847842 0.054937452 0.07240797 0.05354674 -0.05158432
-0.14318772 0.08149423 0.08945756 0.1866209 -0.08931477 -0.056332156 -0.19499531 -0.10529461
0.0074707717 0.10353784 0.11763467 0.020979792 0.11655979 -0.18509893 0.077849165 -0.12685388
0.06929673 0.08097376 -0.085338734 0.13857417 -0.03759095 -0.17356566 -0.048870966 0.008862952
0.19001509 0.10046454 0.074841045 0.18251166 0.029231872 -0.07871235 -0.036487665 -0.06894561
-0.17752127 0.19863145 0.14345185 -0.02329083 0.09608849 -0.12765037 -0.007851177 0.11986928
-0.09027699 -0.07848739 0.16998069 0.048523374 0.13146646 -0.047393065 -0.10499559 0.0918435
-0.19900031 0.19271304 -0.13015898 0.012061626 -0.125047 0.13342182 0.0300214 0.02425754
-0.032202005 -0.0127657205 -0.13275358 0.060593292 -0.18726034 0.118675485 -0.08194857 0.051192597
-0.07541485 0.10661419 0.019135669 -0.020144135 -0.12013817 -0.10796764 0.17919035 0.09575243
0.033878803 0.0625325 0.096596345 -0.17241672 0.14672019 0.06982444 -0.07007229 -0.18198144
-0.017798617 0.024020702 -0.12322996 -0.15149048 0.03600514 0.027466416 -0.054295868 -0.058395073
-0.12827566 -0.13685524 -0.09256273 -0.06663005 0.1995926 0.13936915 -0.16080053 -0.1954604
0.05725436 0.07735129 0.07606086 0.03321478 0.1080189 0.010768289 -0.05603303 0.054624777
00000000: 7d51 483e cd87 4b3e a8f8 92bc 8d24 24be
00000010: 2bbc 403e 0d49 32be 5bd5 22be 6c92 403d
00000020: da25 ccbd 327e 0abe 5989 2a3e a454 783d
00000030: 3006 693c 0528 33be e847 aabc ac98 4dbd
00000040: 8864 0ebd 0b4a 39be d68d b33d 3db7 05be
00000050: 1bb1 1dbe e619 a53d 20b7 fbbd 02f0 f13d
00000060: 53fb ddbd 6857 1abe b8be 2e3d 5bc1 cc3d
00000070: 7f53 3fbe e533 1b3e 30d9 333e cab5 14be
00000080: e7b3 4e3e 8a0b d23d b860 203e 0b13 e7bd
00000090: ab12 193d 3905 e63d 8ac8 b63d 6444 b83d
000000a0: 3d82 24be a466 02bd 16d3 053e 28c6 963d
000000b0: 382d 963c 6ce7 09be 8e0e fcbc d1cf 10be
000000c0: 5713 c43d 1857 de3d 2182 423e 61a7 213e
000000d0: 4d23 dcbd a0ad d9bb 6351 e9bd 0ccc 103d
000000e0: 430a adbd 1a39 d23d b0ad c0bc 204e 08bd
000000f0: edbc 2dbe 0898 50bd c684 af3d a05f 853b
00000100: d02a 1f3c aaae bf3d 6d01 dabd 006c bb39
00000110: 60a3 97bb c8be 033d 9d22 283e 92dc 853d
00000120: f338 49be 4b17 42be c255 813d e2af 2abe
00000130: e9d1 303e 7a27 993d 0a4f 41be 90ca 3abe
00000140: 1e16 bc3d d8e8 47bd e277 10be 5d6c 00be
00000150: 6040 4bbc f246 39be 37b6 9bbd 295d 363e
00000160: d092 fc3c a2d7 c93d 46d3 c73d d207 ff3d
00000170: 58dc 56bd 58f3 51bd f7c1 fdbd 5cc2 533d
00000180: 2a3b f43d fd2e b3bd 78c0 453d 74e3 7ebd
00000190: 9297 bd3d d731 3b3e 7db6 a8bd 3e74 02be
000001a0: 62c3 30be c0a7 85bb e2ae 44be 53a6 363e
000001b0: c001 bdbb a048 27bc 9cea 5d3d f335 15be
000001c0: 64a4 5f3d e6b5 cb3d 60ee c9bb 82c4 9c3d
000001d0: 7e81 22be 3003 8ebd fa5b a9bd aab6 b73d
000001e0: 9f28 013e e29f 2abe aa7d 89bd 0032 63ba
000001f0: c1d6 0b3e 714d e93d d2b5 f8bd c29a 84bd
00000200: 0009 08be 6a30 8a3d f35e 9a3d 8919 183e
00000210: 31df 243e 7711 d43d 3cef c93d 5db5 ed3d
00000220: df7b 1abe 5f42 8b3c 1142 5e3e e1f3 1b3e
00000230: 8af9 4bbe b5de 72bd 09fe a0bd a2b8 f23d
00000240: ab32 fcbd 7b0d d63d d311 cb3d 9db4 fc3c
00000250: 1806 613d a14a 943d d453 5b3d 144a 53bd
00000260: cd9f 12be 72e6 a63d 8635 b73d 8d19 3f3e
00000270: aaea b6bd 8cbc 66bd daac 47be b3a4 d7bd
00000280: 60cd f43b a60b d43d 72ea f03d d0dd ab3c
00000290: e6b6 ee3d 938a 3dbe 626f 9f3d fce5 01be
000002a0: 72eb 8d3d 92d5 a53d 13c6 aebd 63e6 0d3e
000002b0: f8f8 19bd 32bb 31be ec2c 48bd ea35 113c
000002c0: 5193 423e 5ac0 cd3d 4346 993d 56e4 3a3e
000002d0: ae77 ef3c f133 a1bd 1774 15bd 5b33 8dbd
000002e0: 23c8 35be 0b66 4b3e 0be5 123e 69cc bebc
000002f0: 0bca c43d c7b6 02be 39a2 00bc 067e f53d
00000300: 24e3 b8bd ffbd a0bd 6b0f 2e3e 72c0 463d
00000310: 259f 063e 3b1f 42bd ee07 d7bd 7218 bc3d
00000320: bdc6 4bbe 9156 453e 6548 05be 209e 453c
00000330: 520c 00be bb9f 083e 70ef f53c c0b7 c63c
00000340: 40e6 03bd 5027 51bc 8ef0 07be ac30 783d
00000350: 2dc1 3fbe 220c f33d a7d4 a7bd 54af 513d
00000360: 1a73 9abd 8a58 da3d 68c2 9c3c 5005 a5bc
00000370: 000b f6bd 231e ddbd ad7d 373e da19 c43d
00000380: 80c4 0a3d 0a11 803d 4ed4 c53d 028e 30be
00000390: d13d 163e 1e00 8f3d 1082 8fbd 5859 3abe
000003a0: 68ce 91bc 10c7 c43c fd5f fcbd 5220 1bbe
000003b0: 207a 133d 4001 e13c 5865 5ebd ac2f 6fbd
000003c0: b25a 03be c823 0cbe 8791 bdbd 5675 88bd
000003d0: 0162 4c3e c9b6 0e3e e5a8 24be c526 48be
000003e0: 8c83 6a3d 5a6a 9e3d ccc5 9b3d 390c 083d
000003f0: 0339 dd3d 7a6d 303c e482 65bd 3bbe 5f3d

fc1.bias f4 [32]
0.14540528 -0.13008967 0.16995539 0.18826051 -0.09266436 -0.06995613 0.09379171 -0.16008484
-0.09994812 -0.010786921 -0.10499155 0.07786308 0.030246507 0.13396649 0.101309195 -0.03920266
-0.19507898 -0.081734136 -0.14776318 -0.22126901 -0.016111908 0.17387368 -0.026941864 0.16453625
-0.046909746 -0.14422937 0.06233932 0.06771717 0.07602217 0.048934404 -0.05437514 -0.061231453
00000000: 1fe5 143e 3a36 05be c908 2e3e 5dc7 403e
00000010: d0c6 bdbd 2945 8fbd de15 c03d 48ed 23be
00000020: 9ab1 ccbd a0bb 30bc cf05 d7bd ae76 9f3d
00000030: 86c7 f73c 832e 093e 327b cf3d f892 20bd
00000040: c9c2 47be 3a64 a7bd 3b4f 17be 5894 62be
00000050: 1ffd 83bc f10b 323e 2fb5 dcbc 317c 283e
00000060: 6f24 40bd ddb0 13be 8457 7f3d 4daf 8a3d
00000070: 83b1 9b3d 716f 483d 78b8 5ebd d5cd 7abd

fc2.weight f4 [2, 32]
-0.02217552 -0.070586525 0.08069371 -0.060563885 -0.054797456 -0.1573966 0.1372598 0.00996547
0.002018541 -0.050639853 0.10064416 -0.13175909 -0.06070043 -0.11273448 0.12638943 -0.05517958
0.12373467 0.13791971 -0.108269095 -0.25150293 -0.19667698 0.053951293 0.09743278 0.14909674
0.016485773 -0.11115869 0.11199938 0.13021716 -0.043908656 0.09381215 -0.1153485 -0.12945868
-0.07238266 0.05643493 -0.17429209 0.054518312 -0.015302241 -0.14622891 -0.007887229 -0.07708069
0.17328714 -0.14346142 -0.015445413 -0.10400843 0.12232335 -0.003985769 0.17621614 0.05148667
0.13115071 0.019223034 0.076083526 0.06712005 -0.017034687 -0.09486935 0.007891144 -0.117958784
-0.07939149 -0.043070916 -0.13975465 -0.13919938 -0.011994742 0.0017152149 -0.15090021 0.06984726
00000000: 70a9 b5bc ab8f 90bd be42 a53d d611 78bd
00000010: 4c73 60bd 932c 21be d58d 0c3e 3646 233c
00000020: 8049 043b bc6b 4fbd 861e ce3d dbeb 06be
00000030: 04a1 78bd 56e1 e6bd 3b6c 013e fc03 62bd
00000040: 9a68 fd3d d33a 0d3e 30bc ddbd fec4 80be
00000050: b165 49be 08fc 5c3d d68a c73d d1ac 183e
00000060: 2c0d 873c 2ba7 e3bd ee5f e53d a657 053e
00000070: 90d9 33bd 9620 c03d d63b ecbd d190 04be
00000080: 5c3d 94bd 5028 673d a079 32be 984e 5f3d
00000090: 40b6 7abc 08bd 15be 7039 01bc 7bdc 9dbd
000000a0: 2f72 313e 8de7 12be c20e 7dbc 5f02 d5bd
000000b0: aa84 fa3d 0e9b 82bb 0172 343e b0e3 523d
000000c0: 5f4c 063e a079 9d3c aed1 9b3d 3d76 893d
000000d0: 548c 8bbc dd4a c2bd db49 013c 6094 f1bd
000000e0: 0198 a2bd 216b 30bd d81b 0fbe 488a 0ebe
000000f0: 9885 44bc 10d1 e03a 9685 1abe 150c 8f3d

fc2.bias f4 [2]
0.117165305 -0.18796134
00000000: 5df4 ef3d f078 40be
