ion_detection_ffnn.pth (torch, 5281 bytes, 4 tensors)

fc1.weight f4 [32, 25]
0.0127057135 -0.07720597 -0.039391592 -0.03985612 -0.019373149 0.12763752 0.143885 -0.015094593
0.0051006377 -0.10475054 -0.16540316 -0.096322656 -0.19625986 0.09595133 0.17741849 -0.016487032
-0.16676323 -0.022054821 -0.132702 0.08254002 0.048841596 -0.05615215 -0.18653472 0.14804481
-0.091713786 -0.14342543 0.037101224 0.046001956 0.055818364 0.047964454 0.10196523 0.1491362
0.1990123 -0.012108162 -0.06699076 -0.09101818 -0.16298011 -0.17010382 0.08556251 0.15087937
-0.054301426 0.06197612 -0.07750588 -0.042980343 -0.15952258 -0.09897101 -0.15594351 0.1480874
0.118978456 -0.16381332 0.031239383 -0.042482954 0.1474252 -0.12491582 0.06216613 0.15902963
-0.13990282 -0.19084597 0.15625687 -0.04072746 0.09605774 -0.04898423 0.02576604 -0.100687504
-0.13372442 0.11614162 0.071604535 0.15012172 -0.03578324 -0.023251003 -0.17897005 -0.20926873
0.15600245 0.17659299 -0.13606586 0.09323165 -0.014260072 -0.18046622 -0.067645684 0.10906344
-0.093624435 -0.097489595 0.013869338 0.17200379 0.06281397 0.06778663 -0.11857093 -0.12454565
0.047082037 -0.044780295 -0.02140419 -0.13775568 -0.11338481 -0.066863544 -0.018473072 0.12541677
0.13418195 0.02752463 -0.04563176 0.0482394 0.025033975 0.21264248 -0.17319523 0.20239817
-0.06188677 0.17946765 -0.04628942 -0.16561285 -0.13589513 -0.017481998 0.04650465 -0.075811505
-0.024881583 0.08622007 0.0786597 0.09869037 -0.1450858 0.054188095 0.17188637 -0.12233467
0.14468598 -0.11817168 -0.036410384 0.17677604 0.07182057 0.034115 0.14298056 0.08870281
0.016502425 0.09592198 -0.04600577 0.07580118 -0.17055929 -0.116395764 0.041709393 0.18165044
-0.120869495 0.034669206 -0.14472823 -0.13823271 0.13428031 0.07788803 -0.062949136 -0.09710789
-0.078690104 -0.10547347 -0.18317442 0.10366787 -0.1485086 -0.043419912 -0.14058638 -0.091375954
0.1275685 0.11902037 -0.118629575 0.09276573 -0.16342518 -0.16507585 -0.1486588 0.06300583
-0.07226187 0.09650251 0.10568665 -0.001888704 0.13888557 -0.16819052 -0.0149769075 -0.17424516
0.061419886 0.101845495 0.09762248 -0.11174329 0.121432945 0.066943504 0.12372397 0.074928835
-0.09160703 0.17206131 -0.04788141 -0.17902462 -0.17120671 0.06462969 0.06429182 0.045149133
0.10450573 -0.10099375 -0.009627268 -0.08583231 -0.0859436 0.04074809 -0.022402167 0.118556425
-0.0015345067 -0.10320516 -0.09675632 0.17473112 0.00650008 -0.13711126 0.10210718 0.06754933
-0.05959586 0.05476072 -0.052954514 -0.045657143 -0.15567397 -0.019722253 0.050785 0.02026192
0.12120691 0.13047428 -0.070642516 -0.119834885 -0.2294631 -0.18252985 -0.1527072 -0.011031223
0.18472144 0.12515125 0.09879281 0.036468852 0.060451765 0.03900275 0.12644704 0.026870944
-0.017216325 0.14094223 -0.09128666 -0.07814028 0.07938482 -0.073894784 -0.047964737 0.14847483
-0.16195798 0.0431412 -0.1163645 0.057516173 -0.17874639 0.09892498 0.10278644 0.12321477
-0.09593089 0.10715766 0.15075658 -0.12078817 -0.14517131 -0.0041972846 -0.049016684 -0.06717172
0.083044186 -0.12319877 -0.17428859 -0.01912616 0.17442279 -0.1752216 0.015068424 -0.17361309
00000000: a02b 503c 2a1e 9ebd 1459 21bd 2c40 23bd
00000010: 70b4 9ebc 69b3 023e 9756 133e 504f 77bc
00000020: 4023 a73b 7387 d6bd 725f 29be d044 c5bd
00000030: 58f8 48be 2282 c43d 31ad 353e d00f 87bc
00000040: fbc3 2abe 50ac b4bc 08e3 07be be0a a93d
00000050: 200e 483d ccff 65bd f502 3fbe 0f99 173e
00000060: 70d4 bbbd 1ede 12be 74f7 173d 8c6c 3c3d
00000070: cca1 643d 6076 443d 26d3 d03d 29b7 183e
00000080: e1c9 4b3e 5061 46bc 7432 89bd bd67 babd
00000090: 42e4 26be b22f 2ebe 663b af3d 1f80 1a3e
000000a0: 2c6b 5ebd acda 7d3d 67bb 9ebd 280c 30bd
000000b0: e359 23be 50b1 cabd a8af 1fbe 39a4 173e
000000c0: faaa f33d aebe 27be bce9 ff3c 9b02 2ebd
000000d0: a2f6 163e ded3 ffbd e9a1 7e3d aad8 223e
000000e0: af42 0fbe 206d 43be cd01 203e d6d1 26bd
000000f0: ecb9 c43d b0a3 48bd 4d13 d33c 4035 cebd
00000100: 0eef 08be a8db ed3d 66a5 923d 82b9 193e
00000110: 7291 12bd e378 bebc ed43 37be 8b4a 56be
00000120: 1bbf 1f3e cbd4 343e d954 0bbe 3cf0 be3d
00000130: 14a3 69bc 23cc 38be d289 8abd a75c df3d
00000140: 2bbe bfbd a0a8 c7bd 383c 633c c321 303e
00000150: 9ca4 803d b7d3 8a3d 51d5 f2bd ca11 ffbd
00000160: 18d9 403d 8b6b 37bd d757 afbc d30f 0dbe
00000170: 4c36 e8bd c1ef 88bd d754 97bc 416d 003e
00000180: fe66 093e 557b e13c 5ee8 3abd ad96 453d
00000190: 0d14 cd3c f3be 593e 175a 31be 7741 4f3e
000001a0: fb7c 7dbd 5ec6 373e fa99 3dbd 6a96 29be
000001b0: 1828 0bbe 6836 8fbc a97b 3e3d 1043 9bbd
000001c0: 76d4 cbbc 2694 b03d 5618 a13d 2d1e ca3d
000001d0: 5f91 14be 56f4 5d3d fb02 303e 998a fabd
000001e0: 9028 143e fe03 f2bd 0e23 15bd c704 353e
000001f0: aa16 933d 2cbc 0b3d 7f69 123e d2a9 b53d
00000200: 1830 873c be72 c43d 8c70 3cbd a63d 9b3d
00000210: 18a7 2ebe e760 eebd 78d7 2a3d 9302 3a3e
00000220: 6d8a f7bd 4c01 0e3d a333 14be e08c 0dbe
00000230: c780 093e c283 9f3d 7aeb 80bd 80e0 c6bd
00000240: 4728 a1bd 7a02 d8bd 1392 3bbe d24f d43d
00000250: a312 18be 14d9 31bd e0f5 0fbe 5123 bbbd
00000260: 51a1 023e f4c0 f33d 10f4 f2bd f6fb bd3d
00000270: ee58 27be a509 29be 033a 18be 3309 813d
00000280: 08fe 93bd 1ca3 c53d 3e72 d83d 648e f7ba
00000290: 0538 0e3e 233a 2cbe b461 75bc 536d 32be
000002a0: 6b93 7b3d 5f94 d03d 4bee c73d abd9 e4bd
000002b0: d6b1 f83d ad19 893d fe62 fd3d 4a74 993d
000002c0: 779c bbbd d730 303e 4c1f 44bd 3b52 37be
000002d0: d050 2fbe 925c 843d 6eab 833d 4cee 383d
000002e0: 1a07 d63d d0d5 cebd b0bb 1dbc dac8 afbd
000002f0: 3303 b0bd 78e7 263d c084 b7bc b6cd f23d
00000300: 8021 c9ba 3a5d d3bd 2d28 c6bd b7ec 323e
00000310: a0fe d43b e566 0cbe 921d d13d 4e57 8a3d
00000320: ca1a 74bd c74c 603d d5e6 58bd fc02 3bbd
00000330: ff68 1fbe 9090 a1bc ef03 503d 53fc a53c
00000340: 543b f83d 0d9b 053e 06ad 90bd fe6b f5bd
00000350: 60f8 6abe 1be9 3abe 475f 1cbe 4ebc 34bc
00000360: 9e27 3d3e a627 003e e353 ca3d 5d60 153d
00000370: 459c 773d 59c1 1f3d 557b 013e 7420 dc3c
00000380: 4009 8dbc 2953 103e 80f4 babd 0308 a0bd
00000390: 8294 a23d 2656 97bd ac76 44bd c909 183e
000003a0: 50d8 25be d4b4 303d 8350 eebd 1496 6b3d
000003b0: 4b09 37be 2e99 ca3d b281 d23d 0658 fc3d
000003c0: 6a77 c4bd 7a75 db3d ef5f 1a3e ca5f f7bd
000003d0: caa7 14be 6089 89bb b8c5 48bd 5491 89bd
000003e0: 1213 aa3d a34f fcbd b578 32be 77ae 9cbc
000003f0: e39b 323e 4b6d 33be 8de1 763c a1c7 31be

fc1.bias f4 [32]
0.16852336 -0.0138679445 0.12392209 -0.09490909 0.03201349 0.16255371 0.10301914 0.0061425716
0.20113467 0.14495493 -0.20532478 0.13937728 -0.15880069 -0.15841195 -0.09618218 0.075041644
-0.02022708 -0.058512326 -0.15119332 0.053626876 -0.05533889 -0.16997524 0.16830526 -0.19280234
-0.05044783 -0.020089597 0.03763601 0.19031022 -0.011346858 0.10611432 0.11961271 0.050289467
00000000: 6391 2c3e 6036 63bc ddca fd3d b25f c2bd
00000010: 9420 033d 7b74 263e b3fb d23d a047 c93b
00000020: 3ff6 4d3e 116f 143e a940 52be ebb8 0e3e
00000030: a69c 22be be36 22be 2afb c4bd 6faf 993d
00000040: 43b3 a5bc 9faa 6fbd 6cd2 1abe dba7 5b3d
00000050: 08ab 62bd fd0d 2ebe 3758 2c3e fa6d 45be
00000060: 62a2 4ebd f092 a4bc 3828 1a3d afe0 423e
00000070: 2ce8 39bc 7752 d93d 82f7 f43d 54fc 4d3d

fc2.weight f4 [2, 32]
0.08068974 -0.03373286 -0.1333544 -0.14905031 0.08670757 0.17276664 -0.059379496 0.020027742
0.107227735 0.09253077 -0.14020038 0.05881515 -0.03406376 -0.132072 0.16763845 -0.057322938
0.019743456 0.12116331 0.036547195 0.015315923 -0.15701848 -0.06659256 -0.04351665 -0.16871639
-0.07191569 0.04238327 -0.090422645 0.029829502 -0.12809837 0.08877122 -0.10317508 0.05594237
0.050661013 0.099121645 -0.122117855 0.051505674 -0.02461549 0.15791462 -0.047938198 0.0042898357
0.10552411 -0.07434369 0.03672653 0.07369164 0.012598885 0.1375009 0.0052234996 -0.10164857
0.10247066 0.1223754 0.08413424 -0.0101388665 0.008391887 0.099522546 0.061096475 0.10200386
-0.01684018 -0.07546235 0.09895082 0.07954161 -0.09821579 0.10903051 -0.08068898 0.14461242
00000000: aa40 a53d 782b 0abd 0e8e 08be a5a0 18be
00000010: bd93 b13d bde9 303e ea37 73bd 3811 a43c
00000020: 379a db3d c680 bd3d b090 0fbe 28e8 703d
00000030: 7186 0bbd e23d 07be 6aa9 2b3e 75cb 6abd
00000040: 07bd a13c 7824 f83d 83b2 153d a3ef 7a3c
00000050: 74c9 20be ae61 88bd 843e 32bd fdc3 2cbe
00000060: 8948 93bd 149a 2d3d 822f b9bd 005d f43c
00000070: 382c 03be afcd b53d 754d d3bd d423 653d
00000080: ec81 4f3d 4a00 cb3d ed18 fabd 9df7 523d
00000090: 6da6 c9bc 5fb4 213e d85a 44bd c091 8c3b
000000a0: 061d d83d 8141 98bd 8f6e 163d a4eb 963d
000000b0: 8e6b 4e3c 09cd 0c3e e429 ab3b 202d d0bd
000000c0: 23dc d13d f49f fa3d 934e ac3d 7d1d 26bc
000000d0: 207e 093c 7ad2 cb3d 4c40 7a3d 66e7 d03d
000000e0: 6bf4 89bc 018c 9abd baa6 ca3d b6e6 a23d
000000f0: 5c25 c9bd 634b df3d 4440 a5bd 4715 143e

fc2.bias f4 [2]
0.15896212 -0.15621689
00000000: f7c6 223e 52f7 1fbe
