ion_detection_ffnn_bestnewV1.pth (torch, 5880 bytes, 4 tensors)

fc1.weight f4 [32, 25]
00000000: 7d51 483e cd87 4b3e a8f8 92bc 8d24 24be
00000010: 2bbc 403e 0d49 32be 5bd5 22be 6c92 403d
00000020: da25 ccbd 327e 0abe 5989 2a3e a454 783d
00000030: 3006 693c 0528 33be e847 aabc ac98 4dbd
00000040: 8864 0ebd 0b4a 39be d68d b33d 3db7 05be
00000050: 1bb1 1dbe e619 a53d 20b7 fbbd 02f0 f13d
00000060: 53fb ddbd cf62 1abe aad4 2e3d 89b8 cc3d
00000070: 104d 3fbe a03c 1b3e 9ace 333e c5b2 14be
00000080: b8af 4e3e 21f8 d13d ae65 203e 4710 e7bd
00000090: 2808 193d bb07 e63d dab4 b63d 0b39 b83d
000000a0: ee85 24be 257b 02bd a1d6 053e a4dd 963d
000000b0: 1904 963c 97e8 09be 0ae8 fbbc 65d5 10be
000000c0: 9d07 c43d 076f de3d 2182 423e 61a7 213e
000000d0: 4d23 dcbd a0ad d9bb 6351 e9bd 0ccc 103d
000000e0: 430a adbd 1a39 d23d b0ad c0bc 204e 08bd
000000f0: edbc 2dbe 0898 50bd c684 af3d a05f 853b
00000100: d02a 1f3c aaae bf3d 6d01 dabd 006c bb39
00000110: 60a3 97bb c8be 033d 9d22 283e 92dc 853d
00000120: f338 49be 4b17 42be c255 813d e2af 2abe
00000130: e9d1 303e 7a27 993d 0a4f 41be 90ca 3abe
00000140: 1e16 bc3d d8e8 47bd e277 10be 5d6c 00be
00000150: 6040 4bbc f246 39be 37b6 9bbd 295d 363e
00000160: d092 fc3c a2d7 c93d 46d3 c73d d207 ff3d
00000170: 58dc 56bd 58f3 51bd f7c1 fdbd 5cc2 533d
00000180: 2a3b f43d fd2e b3bd 78c0 453d 74e3 7ebd
00000190: 9297 bd3d d731 3b3e 7db6 a8bd 3e74 02be
000001a0: 62c3 30be c0a7 85bb e2ae 44be 53a6 363e
000001b0: c001 bdbb a048 27bc 9cea 5d3d f335 15be
000001c0: 64a4 5f3d e6b5 cb3d 60ee c9bb 82c4 9c3d
000001d0: 7e81 22be 3003 8ebd fa5b a9bd aab6 b73d
000001e0: 9f28 013e e29f 2abe aa7d 89bd 0032 63ba
000001f0: c1d6 0b3e fa36 e93d 6faa f8bd f9a2 84bd
00000200: 3e02 08be fe42 8a3d 3c4a 9a3d dd1c 183e
00000210: 58db 243e acfe d33d d7f9 c93d bcb8 ed3d
00000220: 137e 1abe 4b4e 8b3c 7e38 5e3e b3ee 1b3e
00000230: e0fc 4bbe 01f2 72bd 02f6 a0bd b6d0 f23d
00000240: 733c fcbd 280c d63d 371c cb3d ff8b fc3c
00000250: 69f0 603d 2763 943d d453 5b3d 144a 53bd
00000260: cd9f 12be 72e6 a63d 8635 b73d 8d19 3f3e
00000270: aaea b6bd 8cbc 66bd daac 47be b3a4 d7bd
00000280: 60cd f43b a60b d43d 72ea f03d d0dd ab3c
00000290: e6b6 ee3d 938a 3dbe 626f 9f3d fce5 01be
000002a0: 72eb 8d3d 92d5 a53d 13c6 aebd 63e6 0d3e
000002b0: f8f8 19bd 32bb 31be ec2c 48bd 77f0 113c
000002c0: ee8d 423e 4bc9 cd3d 8739 993d b1db 3a3e
000002d0: 7bcd ef3c 133a a1bd 7f62 15bd d91f 8dbd
000002e0: 0dcd 35be a264 4b3e a2e7 123e 54d5 bebc
000002f0: e6dd c43d 2eb1 02be b563 00bc 6d88 f53d
00000300: 5bea b8bd 55d5 a0bd 8e14 2e3e dac4 463d
00000310: 569a 063e 9709 42bd 13fc d6bd c000 bc3d
00000320: bdc6 4bbe 9156 453e 6548 05be 209e 453c
00000330: 520c 00be bb9f 083e 70ef f53c c0b7 c63c
00000340: 40e6 03bd 5027 51bc 8ef0 07be ac30 783d
00000350: 2dc1 3fbe 220c f33d a7d4 a7bd 54af 513d
00000360: 1a73 9abd 8a58 da3d 68c2 9c3c 5005 a5bc
00000370: 000b f6bd 231e ddbd ad7d 373e da19 c43d
00000380: 80c4 0a3d 0a11 803d 4ed4 c53d 028e 30be
00000390: d13d 163e 1e00 8f3d 1082 8fbd 5859 3abe
000003a0: 68ce 91bc 10c7 c43c fd5f fcbd 5220 1bbe
000003b0: 207a 133d 4001 e13c 5865 5ebd ac2f 6fbd
000003c0: b25a 03be c823 0cbe 8791 bdbd 5675 88bd
000003d0: 0162 4c3e c9b6 0e3e e5a8 24be c526 48be
000003e0: 8c83 6a3d 5a6a 9e3d ebdc 9b3d 80f6 073d
000003f0: f141 dd3d 7707 303c 48a6 65bd 33e9 5f3d
0.19562335 0.19876023 -0.017940834 -0.16029568 0.1882178 -0.17410679 -0.15901701 0.04701464
-0.09968157 -0.13524702 0.16653956 0.060627595 0.014222667 -0.17495735 -0.02078624 -0.050194427
-0.034763843 -0.18094651 0.087672874 -0.13058181 -0.15399592 0.0806158 -0.12290788 0.11813356
-0.10838952 -0.15076755 0.04268328 0.09996135 -0.18681741 0.15159845 0.17559281 -0.1452132
0.20184219 0.10252405 0.15663788 -0.112824015 0.037361294 0.11231943 0.089212134 0.08995255
-0.16066715 -0.03185572 0.13070156 0.07366493 0.0183125 -0.13467632 -0.030750293 -0.14143904
0.095717646 0.108610205 0.18994953 0.15786506 -0.107489206 -0.006643012 -0.113924764 0.035350844
-0.08449223 0.102647975 -0.02352032 -0.03327763 -0.169666 -0.05092624 0.085702464 0.0040702373
0.009714797 0.093594864 -0.10644803 0.00035747886 -0.00462763 0.032164365 0.16419454 0.06536211
-0.1965063 -0.18954198 0.06315185 -0.16668656 0.17267574 0.07478233 -0.18877807 -0.18241334
0.09183906 -0.04880604 -0.14108232 -0.12541337 -0.012405485 -0.1809347 -0.07603114 0.17808975
0.030831724 0.09855582 0.09757094 0.124526635 -0.05245623 -0.05125746 -0.123905115 0.051699027
0.11925347 -0.08749197 0.048279256 -0.062228635 0.09257425 0.18280731 -0.08237932 -0.12739655
-0.17262033 -0.0040788352 -0.19207337 0.17836885 -0.005768031 -0.010210186 0.05417882 -0.14571361
0.054600134 0.09946804 -0.0061624497 0.076546684 -0.1586971 -0.06934202 -0.08269496 0.08970387
0.12613152 -0.16662553 -0.06713422 -0.00086668134 0.13656141 0.11387439 -0.12141883 -0.06476397
-0.13282105 0.06751059 0.0753369 0.1485476 0.16099298 0.10351309 0.09862106 0.11607501
-0.15087156 0.017005106 0.21701238 0.15227775 -0.19920683 -0.059312824 -0.07859422 0.11856215
-0.12316217 0.10451537 0.09917491 0.030828474 0.054916773 0.07245474 0.05354674 -0.05158432
-0.14318772 0.08149423 0.08945756 0.1866209 -0.08931477 -0.056332156 -0.19499531 -0.10529461
0.0074707717 0.10353784 0.11763467 0.020979792 0.11655979 -0.18509893 0.077849165 -0.12685388
0.06929673 0.08097376 -0.085338734 0.13857417 -0.03759095 -0.17356566 -0.048870966 0.008907429
0.18999454 0.10048159 0.074816756 0.18247868 0.029272785 -0.07872405 -0.036470886 -0.0689084
-0.17754002 0.19862607 0.14346173 -0.023295082 0.09612636 -0.12762901 -0.007836272 0.11988912
-0.09029075 -0.0785319 0.17000028 0.048527576 0.13144812 -0.047372427 -0.10497298 0.091798306
-0.19900031 0.19271304 -0.13015898 0.012061626 -0.125047 0.13342182 0.0300214 0.02425754
-0.032202005 -0.0127657205 -0.13275358 0.060593292 -0.18726034 0.118675485 -0.08194857 0.051192597
-0.07541485 0.10661419 0.019135669 -0.020144135 -0.12013817 -0.10796764 0.17919035 0.09575243
0.033878803 0.0625325 0.096596345 -0.17241672 0.14672019 0.06982444 -0.07007229 -0.18198144
-0.017798617 0.024020702 -0.12322996 -0.15149048 0.03600514 0.027466416 -0.054295868 -0.058395073
-0.12827566 -0.13685524 -0.09256273 -0.06663005 0.1995926 0.13936915 -0.16080053 -0.1954604
0.05725436 0.07735129 0.07610496 0.033194065 0.10803593 0.010743967 -0.05606678 0.054665755

fc1.bias f4 [32]
00000000: 1fe5 143e 0f1b 05be c908 2e3e 5dc7 403e
00000010: d0c6 bdbd 160e 8fbd de15 c03d 5f08 24be
00000020: 9ab1 ccbd a0bb 30bc 263c d7bd ae76 9f3d
00000030: 8460 f83c b049 093e 327b cf3d f892 20bd
00000040: c9c2 47be 3a64 a7bd 3b4f 17be 1183 62be
00000050: 7395 83bc f10b 323e ff91 ddbc 317c 283e
00000060: 3091 40bd a895 13be 8457 7f3d dfbf 8a3d
00000070: 22e8 9b3d 56ed 473d 78b8 5ebd e660 7abd
0.14540528 -0.12998603 0.16995539 0.18826051 -0.09266436 -0.069851086 0.09379171 -0.16018818
-0.09994812 -0.010786921 -0.10509519 0.07786308 0.03031946 0.13407016 0.101309195 -0.03920266
-0.19507898 -0.081734136 -0.14776318 -0.2212031 -0.016062474 0.17387368 -0.027047155 0.16453625
-0.04701346 -0.14412558 0.06233932 0.06774878 0.07612635 0.048810326 -0.05437514 -0.061127566

fc2.weight f4 [2, 32]
00000000: 70a9 b5bc 6190 90bd be42 a53d d611 78bd
00000010: 4c73 60bd a429 21be d58d 0c3e 9528 233c
00000020: 8049 043b bc6b 4fbd 7c1f ce3d dbeb 06be
00000030: 6347 78bd 50e3 e6bd 3b6c 013e fc03 62bd
00000040: 9a68 fd3d d33a 0d3e 30bc ddbd a1bf 80be
00000050: 9c39 49be 08fc 5c3d 5370 c73d d1ac 183e
00000060: e588 863c 0da6 e3bd ee5f e53d 2b45 053e
00000070: 54b8 33bd 7df7 bf3d d63b ecbd 7288 04be
00000080: 5c3d 94bd 062a 673d a079 32be 984e 5f3d
00000090: 40b6 7abc f7bf 15be 7039 01bc aad8 9dbd
000000a0: 2f72 313e 8de7 12be ed15 7dbc 5f02 d5bd
000000b0: d257 fa3d d979 82bb 0172 343e b0e3 523d
000000c0: 5f4c 063e a079 9d3c aed1 9b3d 4d61 893d
000000d0: afed 8cbc dd4a c2bd 7b1c 023c 6094 f1bd
000000e0: aa76 a2bd e46d 30bd d81b 0fbe cd77 0ebe
000000f0: 3d0a 45bc 7b25 eb3a 9685 1abe a4fb 8e3d
-0.02217552 -0.07058788 0.08069371 -0.060563885 -0.054797456 -0.15738541 0.1372598 0.009958406
0.002018541 -0.050639853 0.10064599 -0.13175909 -0.060614955 -0.11273825 0.12638943 -0.05517958
0.12373467 0.13791971 -0.108269095 -0.251462 -0.19650882 0.053951293 0.09738221 0.14909674
0.016422698 -0.11115656 0.11199938 0.13014667 -0.04387696 0.093733765 -0.1153485 -0.12942675
-0.07238266 0.05643656 -0.17429209 0.054518312 -0.015302241 -0.1462401 -0.007887229 -0.07707341
0.17328714 -0.14346142 -0.015447122 -0.10400843 0.12223782 -0.0039818105 0.17621614 0.05148667
0.13115071 0.019223034 0.076083526 0.06708012 -0.01720318 -0.09486935 0.007941361 -0.117958784
-0.079327896 -0.04307355 -0.13975465 -0.13912888 -0.012026367 0.0017940247 -0.15090021 0.069815904

fc2.bias f4 [2]
00000000: fabd ef3d cf5d 40be
0.11706157 -0.18785785
