ion_detection_ffnn.pth (torch, 5345 bytes, 4 tensors)

fc1.weight f4 [32, 25]
0	0xbe4f15db	-0.20223181
1	0xbdcabcf8	-0.09899324
2	0xbe44bf76	-0.19213662
3	0xbce8336d	-0.028344834
4	0xbe2fe6a1	-0.17177822
5	0xbd5043ad	-0.05084579
6	0xbe36f507	-0.17866908
7	0xbe175be6	-0.1478115
8	0x3e0f7502	0.14009479
9	0xbd4a37c6	-0.049369596
10	0x3e338e89	0.17534842
11	0xbd7a40df	-0.061097022
12	0x3e4a4194	0.19751579
13	0x3d78618b	0.0606399
14	0xbe4afab0	-0.19822192
15	0x3d803f76	0.06262104
16	0x3dd3a87e	0.10334872
17	0x3bcec516	0.0063101156
18	0x3dc1896c	0.09450039
19	0x3e170c72	0.14750841
20	0xbd85b4b7	-0.06528609
21	0x3cc16b54	0.023610748
22	0x3e1f1b7e	0.15537831
23	0x3def337c	0.11679742
24	0x3d8df1dd	0.069308974
25	0xbcc1be40	-0.023650289
26	0x3e07b48b	0.13252465
27	0x3d68f7d4	0.056876972
28	0xbe090216	-0.13379702
29	0xbe318fb2	-0.17339972
30	0xbdc5b187	-0.09653001
31	0xbd1af36c	-0.0378298
32	0xbd30724c	-0.043077752
33	0xbe267df6	-0.16258988
34	0xbdf6824a	-0.120365694
35	0xbe2aa056	-0.16662726
36	0xbdb73e30	-0.08947408
37	0x3d775b2c	0.060389683
38	0xbdbc62bd	-0.0919852
39	0x3bf5d940	0.007502705
40	0xbdc138a0	-0.094346285
41	0x3e05d835	0.13070758
42	0xbe140715	-0.14455827
43	0xbcae14c0	-0.021250129
44	0x3de182f2	0.11011304
45	0x3e111b9f	0.14170693
46	0x3e38d01b	0.18048136
47	0x3d6a630c	0.057223365
48	0x3c454b00	0.012041807
49	0xbd8c85f4	-0.06861487
50	0xbd9f134a	-0.07767351
51	0x3d994340	0.0748353
52	0x3e205dda	0.15660802
53	0xbe0646bc	-0.1311292
54	0x3d2fc787	0.042914893
55	0xbd6077e9	-0.054801855
56	0xbdaecfdf	-0.08535742
57	0x3dec5bed	0.11540971
58	0xbc404da0	-0.011737257
59	0x3e0d0483	0.13771252
60	0x3e197505	0.14986046
61	0x3cb3ac9f	0.021932898
62	0x3d9dd795	0.07707135
63	0x3cfd9fd6	0.030960005
64	0xbcb74acb	-0.022374531
65	0x3d9c99d5	0.07646529
66	0x3bcb0fd5	0.0061969557
67	0x3bea98b3	0.0071593164
68	0x3e1f4149	0.15552248
69	0xbd26c650	-0.04071647
70	0x3de656f0	0.11247051
71	0xbe150388	-0.14552128
72	0x3bf844f7	0.0075765806
73	0x3aebc3ca	0.0017987427
74	0x3d679651	0.056539837
75	0xbe02e22a	-0.12781587
76	0x3e07cae7	0.13260995
77	0x3e1f4b5f	0.15556096
78	0xbdbe5ba0	-0.0929482
79	0x3e35308d	0.17694302
80	0xbe20e8f2	-0.15713862
81	0x3d28bfe8	0.04119864
82	0x3e01d83b	0.12680142
83	0xbe214458	-0.15748727
84	0xbddf4fda	-0.10903902
85	0xbd188f18	-0.03724584
86	0xbdbca713	-0.092115544
87	0xbda91560	-0.0825603
88	0x3d2c1dec	0.042020723
89	0x3cee1680	0.029063463
90	0xbe3ede5d	-0.18639512
91	0xbd8795b4	-0.066203505
92	0x3e18398d	0.14865704
93	0xbd4fd5e0	-0.050741076
94	0xbe3a67ea	-0.18203703
95	0xbcde9e70	-0.027175158
96	0x3e3e1d51	0.18565871
97	0xbcf05830	-0.029338926
98	0x3d6a91d4	0.05726798
99	0xbdca70ad	-0.098847724
100	0x3b996860	0.004681632
101	0xbde867bd	-0.113479115
102	0xbddaef40	-0.106901646
103	0xbe45cbfd	-0.19316097
104	0x3aff4100	0.0019474328
105	0xbc8420d0	-0.016128927
106	0xbdf27abd	-0.11839817
107	0xbdc35867	-0.09538346
108	0x3d8fbb6e	0.07018171
109	0x3dff9632	0.12479819
110	0x3e34e81b	0.17666666
111	0xbdf9625a	-0.12176962
112	0x3dc0575a	0.09391661
113	0x3bdc8d60	0.0067307204
114	0xbde980b7	-0.114015035
115	0x3d484db8	0.048902243
116	0x3d16c158	0.03680548
117	0xbd3966cc	-0.04526405
118	0xbda77faa	-0.08178647
119	0x3e08e4b3	0.13368492
120	0xbcc992d8	-0.024606153
121	0x3daf22fe	0.08551596
122	0xbd8d0bda	-0.06887026
123	0x3e1b69b7	0.15177046
124	0xbd8e58fc	-0.06950566
125	0x3d89ef53	0.067351006
126	0x3da9b864	0.08287123
127	0xbd0a5b00	-0.03377819
128	0xbd6398cf	-0.05556565
129	0xbe09ef56	-0.13470206
130	0x3e24c45d	0.16090532
131	0x3e274262	0.16333917
132	0x3e3f33f7	0.18672167
133	0xbdc8a56e	-0.09797178
134	0xbd1d7099	-0.03843746
135	0xbe48b26b	-0.19599311
136	0xbdd9c089	-0.10632426
137	0x3d09aafe	0.033610336
138	0x3e308e04	0.17241675
139	0x3e072bb0	0.13200259
140	0xbd80e24f	-0.06293165
141	0x3d098ea0	0.033583283
142	0x3df499ba	0.119433835
143	0xbdf0433d	-0.11731575
144	0xbe4806d7	-0.19533859
145	0x3e0cda76	0.13755211
146	0xbd00f79c	-0.03148614
147	0xbcca2cbb	-0.024679532
148	0xbbac9da4	-0.0052678157
149	0x3e0c61a9	0.1370913
150	0xbe3d4f8a	-0.18487373
151	0x3e0bccd7	0.13652359
152	0x3e3897a8	0.18026602
153	0x3df34c19	0.11879749
154	0xbe08154e	-0.13289377
155	0xbe1750a6	-0.14776859
156	0x3e56a963	0.20963053
157	0x3d521690	0.05129105
158	0x3da6f251	0.08151687
159	0x3e1393d0	0.14411855
160	0xbde74c67	-0.112938695
161	0xbd91b8e5	-0.07115344
162	0x3da9b139	0.08285756
163	0xbc8780b4	-0.016540863
164	0x3d555a5c	0.052088127
165	0x3e3dc75d	0.18533082
166	0xbe008a69	-0.125528
167	0x3d4b6a51	0.049661938
168	0x3d78cd3f	0.060742613
169	0xbd90b440	-0.0706563
170	0x3d43e6d9	0.047827575
171	0xbdc618e3	-0.096727155
172	0xbc329206	-0.0108990725
173	0x3e00b5ec	0.12569398
174	0x3d5faf36	0.054610454
175	0x3d0ea8e0	0.03482902
176	0xbe444f58	-0.19170892
177	0xbe1b7b58	-0.1518377
178	0xbdeeeed7	-0.11666649
179	0xbe21c6b8	-0.15798461
180	0xbe2757f0	-0.16342139
181	0x3c3ab530	0.0113957375
182	0x3b4a0280	0.0030824244
183	0xbd9bb8d7	-0.07603615
184	0xbdc60030	-0.096680045
185	0xbe076140	-0.13220692
186	0x3de46b1e	0.111532435
187	0xbdbef197	-0.09323423
188	0x3c9d5a80	0.019208193
189	0x3dbd650a	0.09247787
190	0x3ca688d0	0.02032891
191	0xbdea12b3	-0.11429348
192	0xbb0bda80	-0.0021339953
193	0x3dc29b66	0.09502296
194	0xbcb30bd8	-0.021856233
195	0xbb8ba340	-0.0042614043
196	0xbd5a3fac	-0.05328338
197	0xbe110565	-0.14162214
198	0x3d96219a	0.07330628
199	0xbe0b5182	-0.13605312
200	0xbdc274b2	-0.09494914
201	0x3dae4ea8	0.08511096
202	0xbd47c5b8	-0.048772544
203	0x3d4b4036	0.049621783
204	0xbdb8379c	-0.08994982
205	0xbb064221	-0.0020486193
206	0x3d9db64c	0.07700786
207	0xbe00fd67	-0.12596665
208	0xbc929475	-0.017893055
209	0xbd66324a	-0.056200303
210	0xbd174a98	-0.036936373
211	0x3d13a9eb	0.03605072
212	0x39e21a1a	0.00043125526
213	0x3da9844f	0.08277189
214	0x3e2edeb8	0.17077148
215	0xbe32122b	-0.17389743
216	0x3bdffd65	0.006835627
217	0xbe49af48	-0.1969577
218	0xbb89fa58	-0.0042107515
219	0x3cbcc3bc	0.023042552
220	0x3e059737	0.13045965
221	0x3dc8c238	0.09802669
222	0xbe21fc7f	-0.15818976
223	0x3c39d7fb	0.011342998
224	0x3e43cbb9	0.19120683
225	0x3b81c0cf	0.003959752
226	0xbc841163	-0.016121572
227	0xbdb57030	-0.08859289
228	0xbd909d65	-0.070612706
229	0xbd6f1616	-0.058370672
230	0x3ce460d7	0.027878208
231	0xbd00bbcb	-0.031429093
232	0xba9a4eaa	-0.0011772711
233	0xbcec4f63	-0.028846448
234	0xbe450244	-0.19239146
235	0x3df8112a	0.12112649
236	0x3e4e2432	0.20130995
237	0x3e41bc1c	0.18919414
238	0xbd04bc39	-0.032406066
239	0xbe0886db	-0.13332693
240	0x3dabbc29	0.08385498
241	0xbd5fb9f9	-0.054620717
242	0x3e1c7ece	0.15282747
243	0x3c592ab1	0.013254807
244	0xbda74435	-0.08167306
245	0xbd94b858	-0.07261723
246	0x3dd81bea	0.10552199
247	0x3d504711	0.050849024
248	0x3dabddfa	0.08391948
249	0xbe2e17e2	-0.17001298
250	0x3dd6f934	0.104967505
251	0x3dca4552	0.09876503
252	0x3ddc0ee9	0.107450314
253	0xbdaf98e0	-0.085740805
254	0x3e202d61	0.1564231
255	0xbe28044e	-0.16407892

fc1.bias f4 [32]
0	0x3cb7bd7d	0.022429222
1	0x3e4b1423	0.198319
2	0xbd82a2d5	-0.06378714
3	0xbddc2e8a	-0.10751064
4	0x3e051949	0.12997927
5	0xbe064817	-0.13113438
6	0xbdd38696	-0.103284046
7	0x3daf8a92	0.08571352
8	0xbe167fec	-0.14697236
9	0x3df7db8c	0.12102422
10	0xbdaaa1db	-0.08331653
11	0xbe1ebce7	-0.15501748
12	0x3e3df10c	0.18548983
13	0xbc9db590	-0.019251615
14	0xbdf7f109	-0.12106521
15	0x3e149807	0.14511119
16	0x3dc60b2d	0.096701
17	0xbe3a6b0a	-0.18204895
18	0xbe7cc0b9	-0.24682893
19	0xbd3bbe69	-0.045835886
20	0x3e47ce02	0.1951218
21	0x3c6817be	0.014165817
22	0xbd0588ad	-0.032601047
23	0x3e283a13	0.16428404
24	0xbdaad1a2	-0.083407655
25	0xbe2654fc	-0.16243356
26	0xbdcac882	-0.09901525
27	0xbe298c48	-0.1655742
28	0xbd52a048	-0.051422387
29	0x3e33527b	0.17511933
30	0x3bc498a0	0.0059996396
31	0xbe0581c4	-0.13037783

fc2.weight f4 [2, 32]
0	0x3c8affc8	0.01696767
1	0xbd44b9b8	-0.048028678
2	0xbe0f5649	-0.13997759
3	0x3d92a8b2	0.07161082
4	0xbc300350	-0.010742977
5	0x3da3648b	0.079781614
6	0xbd9edff5	-0.0775756
7	0xbcf67e10	-0.030089408
8	0x3d801b5b	0.06255218
9	0xbe195ca5	-0.14976747
10	0x3dc53e7f	0.09631061
11	0xbdb915f2	-0.09037389
12	0xbd5b869e	-0.053595178
13	0x3d30b04c	0.04313688
14	0x3dd6a56a	0.10480769
15	0xbe325b88	-0.17417729
16	0x3e26b825	0.16281183
17	0x3e1e5de7	0.15465508
18	0xbe42526a	-0.18976751
19	0xbd85f9ba	-0.06541772
20	0xbdc960ff	-0.09832954
21	0x3c3a2678	0.011361711
22	0x3d0590b1	0.03260869
23	0x3d02c499	0.03192577
24	0xbd655c01	-0.055995945
25	0xbd6baf74	-0.057540372
26	0x3d5cb9cf	0.05388814
27	0x3df05166	0.117342755
28	0x3e2b0b05	0.16703422
29	0x3e219321	0.15778781
30	0x3dbfa9be	0.09358548
31	0xbded7ab0	-0.115956664
32	0xbcbab172	-0.02278969
33	0xbdf84454	-0.121224076
34	0xbd224134	-0.039612964
35	0xbe21b7c0	-0.15792751
36	0xbe125206	-0.14289102
37	0x3e0dceaf	0.13848375
38	0x3be5f2d0	0.007017471
39	0xbe0596cc	-0.13045806
40	0xbc9d1a6c	-0.019177638
41	0x3e1196b6	0.14217648
42	0xbdcff999	-0.10155029
43	0xbe07d678	-0.13265407
44	0x3e39fd9e	0.18163154
45	0x3dbb3aee	0.09142099
46	0xbdb64a22	-0.089008585
47	0x3da4d46a	0.08048327
48	0xbe74fa3c	-0.23923582
49	0xbc9dcf70	-0.019263953
50	0xbd6e8132	-0.05822868
51	0x3b440ee0	0.0029916093
52	0xbe02323d	-0.12714477
53	0xbd1290e3	-0.035782706
54	0x3d77f223	0.060533654
55	0xbd33a8b1	-0.04386205
56	0xbb9c7bd4	-0.0047755037
57	0xbc9c6970	-0.019093245
58	0xbb92f569	-0.0044848216
59	0xbe037af5	-0.12839873
60	0xbd8da708	-0.06916624
61	0xbe047638	-0.12935722
62	0xbc203440	-0.009778082
63	0xbe334b9f	-0.17509316

fc2.bias f4 [2]
0	0x3e4834fa	0.19551459
1	0xbc86b571	-0.01644394
