micro_moves/best_model_V3.pth (torch, 5315 bytes, 4 tensors)

iffnn.weight f4 [32, 25]
0	0xbc8f7810	-0.017513305
1	0xbcf2b993	-0.029629504
2	0xbdcf4bb1	-0.10121859
3	0xbd88428b	-0.06653317
4	0xbda40ef7	-0.08010667
5	0x3e11e536	0.14247593
6	0x3b777115	0.003775661
7	0x3d775e0b	0.06039242
8	0x3df6c587	0.12049394
9	0x3df49fb0	0.119445205
10	0xbdc4227e	-0.09576891
11	0x3d6c15d7	0.057638016
12	0xbe0f701a	-0.14007607
13	0x3db34f24	0.08755329
14	0xbb4bcd1a	-0.0031097592
15	0x3e00ccce	0.12578127
16	0xbdce7383	-0.10080626
17	0xbdbded1c	-0.09273741
18	0x3e1a35f2	0.15059641
19	0x3e0094bb	0.12556736
20	0xbdb421f0	-0.087955356
21	0xbcc2abaa	-0.023763496
22	0x3dc80bc8	0.09767872
23	0x3d0bbf7c	0.03411816
24	0xbe10d25a	-0.14142743
25	0x3d96a9f3	0.07356634
26	0x3e14a8e9	0.14517559
27	0xbd5aaa86	-0.05338528
28	0xbd6d4506	-0.057927154
29	0xbd6f569a	-0.0584322
30	0xbe03d161	-0.1287284
31	0xbd8272e2	-0.063695684
32	0xbd6b3372	-0.05742211
33	0x3e08d51c	0.13362545
34	0x3d20473a	0.039130427
35	0x3d989d0b	0.074518286
36	0xbd00c0ae	-0.031433754
37	0xbde1f0de	-0.1103227
38	0xbe1dfd6e	-0.15428707
39	0xbe4fbf36	-0.20287785
40	0xbdb58cce	-0.08864747
41	0x3db44a23	0.08803203
42	0x3d79d8ae	0.060997657
43	0x3e22384e	0.15841791
44	0x3dfed588	0.124430716
45	0xbe023915	-0.12717088
46	0x3e3fe999	0.18741454
47	0xbe44e08d	-0.19226284
48	0x3de45f8b	0.11151036
49	0xbcdae5a5	-0.026720831
50	0xbe27f71e	-0.16402861
51	0x3e08ba95	0.13352425
52	0x3e26ad33	0.16277008
53	0xbd78ea68	-0.060770422
54	0x3da19dce	0.07891427
55	0x3d94953a	0.07255025
56	0xbdc7cf47	-0.09756332
57	0xbddc6bc0	-0.10762739
58	0x3e443b49	0.1916324
59	0xbe1cbae3	-0.15305667
60	0xbdfd6720	-0.12373185
61	0xbe0fb603	-0.14034276
62	0x3e1aedd7	0.15129791
63	0xbde68913	-0.112566136
64	0xbe24c91b	-0.1609234
65	0x3d5c7bd4	0.05382903
66	0xbd2d0a0c	-0.04224591
67	0x3e1d1775	0.1534098
68	0x3e392883	0.1808186
69	0x3e23b215	0.15985902
70	0xbe2d1717	-0.1690334
71	0xbce785e8	-0.028262094
72	0xbe3b2667	-0.18276368
73	0xbd123a94	-0.035700396
74	0x3d3a80d8	0.04553303
75	0xbdfa7fa0	-0.12231374
76	0xbdcbe777	-0.09956258
77	0xbda6cd4d	-0.08144627
78	0x3e4054f5	0.18782409
79	0xbe37ab3d	-0.17936416
80	0xbe2151c5	-0.15753849
81	0xbd9ecc37	-0.07753795
82	0x3d1ff220	0.039049268
83	0xbde98d73	-0.114039324
84	0x3c060760	0.008180469
85	0xbd10b7c8	-0.035331517
86	0xbe0936de	-0.13399836
87	0xbe3d1438	-0.18464744
88	0x3d8c31de	0.06845449
89	0xbe4ae3a8	-0.19813406
90	0x3bbff7a0	0.0058583766
91	0xbe37dd1d	-0.17955442
92	0x3e216df9	0.15764607
93	0xbd429758	-0.047507614
94	0xbe3d9145	-0.18512447
95	0xbd432734	-0.04764481
96	0xbe0e19ae	-0.13876984
97	0xbd893a16	-0.06700532
98	0xbbca54a0	-0.006174639
99	0xbd58c160	-0.05291879
100	0xbd83d274	-0.06436625
101	0x3e1a1a51	0.15049101
102	0xbe1e20eb	-0.15442245
103	0xbe29c638	-0.1657952
104	0x3d0bb088	0.0341039
105	0x3e1ff829	0.1562201
106	0xbe28a685	-0.16469772
107	0xbe26668a	-0.16250053
108	0xbde3a153	-0.111147545
109	0x3c30f260	0.010799974
110	0x3dbd438a	0.09241398
111	0x3df567c2	0.11982681
112	0xbbaef1c0	-0.0053388774
113	0xbcc0f7e8	-0.02355571
114	0x3e1be58f	0.15224288
115	0xbd6a2ff4	-0.057174638
116	0x3de2a0e2	0.11065842
117	0x3d1142a0	0.03546393
118	0xbe3bd69d	-0.18343587
119	0x3d58d9cc	0.052942082
120	0xbd0b786c	-0.03405039
121	0x3d3df414	0.04637535
122	0xbe1c1525	-0.15242441
123	0xbd9b64ca	-0.07587583
124	0xbdc920c7	-0.09820705
125	0xbe4a008d	-0.19726773
126	0xbce6246d	-0.028093541
127	0xbd41a780	-0.04727888
128	0xbcfe1084	-0.031013735
129	0x3ded3992	0.11583246
130	0x3cdcf3aa	0.026971657
131	0x3e019931	0.12656094
132	0x3db2c1f2	0.087283984
133	0x3e1ce95a	0.15323392
134	0xbe384588	-0.17995274
135	0x3e132fe6	0.1437374
136	0x3e18d268	0.14924014
137	0xbddac42d	-0.10681949
138	0xbcb8aad4	-0.022542395
139	0xbd9127d0	-0.07087672
140	0x3e3bacd0	0.18327641
141	0xbdd7737a	-0.10520072
142	0x3dde6c5b	0.10860511
143	0x3d84c534	0.06482926
144	0xbd099274	-0.033586934
145	0x3d7d17fe	0.06179046
146	0xbdac4b61	-0.08412815
147	0xbc5508c1	-0.013002575
148	0x3e233d80	0.15941429
149	0xbd2c828f	-0.042116698
150	0xbd4002f7	-0.046877827
151	0xbcec0732	-0.028812025
152	0xbe0379e2	-0.12839463
153	0x3b987d56	0.004653613
154	0xbe4d6af9	-0.20060338
155	0xbe4e0ae0	-0.20121336
156	0x3d1b0cf5	0.037854154
157	0x3e3f82c6	0.1870223
158	0xbda44415	-0.08020798
159	0xbe0b4267	-0.13599549
160	0xbe21ddcc	-0.15807265
161	0xbde34a67	-0.110981755
162	0xbcb99553	-0.022654211
163	0x3e292828	0.16519225
164	0x3dafde15	0.08587281
165	0x3d40552d	0.04695623
166	0x3c32628c	0.010887753
167	0x3e065fb8	0.13122451
168	0xbdeba170	-0.11505401
169	0x3d700e24	0.058607236
170	0x3dc6e874	0.09712306
171	0x3b3d5397	0.0028888935
172	0x3e153748	0.1457187
173	0x3d3093c6	0.043109678
174	0x3c883abc	0.01662957
175	0x3e18264e	0.14858362
176	0x3dfe839a	0.12427445
177	0xbe173e26	-0.14769801
178	0xbd4e66de	-0.05039107
179	0xbd80d7be	-0.062911496
180	0x3db97895	0.09056202
181	0x3e2b377e	0.16720387
182	0x3e5bfd8c	0.21483439
183	0x3e09c627	0.13454495
184	0xbda2cad3	-0.07948842
185	0x3e16765d	0.1469359
186	0x3da58059	0.08081121
187	0xbdc9cc3a	-0.09853406
188	0xbe182b80	-0.14860344
189	0x3e34c8f6	0.17654786
190	0xbd9db272	-0.07700051
191	0xbd73618d	-0.059419204
192	0xbdd2842f	-0.10279118
193	0x3d88c3cb	0.066779695
194	0xbe193ad3	-0.14963846
195	0xbe204cec	-0.15654343
196	0x3d907b5c	0.07054779
197	0xbdfa84dc	-0.12232372
198	0xb987e7c3	-0.00025921882
199	0xbe2d5e84	-0.16930586
200	0xbd80005c	-0.062500685
201	0x3d6bbccc	0.057553098
202	0x3a7ba500	0.0009599477
203	0xbe42fb87	-0.19041263
204	0xbceb29f0	-0.02870652
205	0x3e1ea749	0.15493502
206	0xbd40fe58	-0.04711756
207	0xbe0572c2	-0.13032058
208	0x3ddec952	0.108782426
209	0x3e450b4b	0.19242589
210	0x3a732300	0.000927493
211	0xbe2c7cc2	-0.16844466
212	0xbd82b854	-0.06382814
213	0x3e250d11	0.16118266
214	0xbdc3b06d	-0.09555135
215	0x3b2be6c0	0.0026230067
216	0xbe18adca	-0.14910045
217	0x3e0deedd	0.1386065
218	0x3c4d7da0	0.012542158
219	0x3d8e3396	0.06943433
220	0xbe208e63	-0.15679316
221	0xbd3c9e80	-0.046049595
222	0x3d1c770c	0.03819947
223	0xbddcc1e0	-0.10779166
224	0x3e302295	0.17200692
225	0x3e20c062	0.15698388
226	0xbd63e142	-0.055634744
227	0xbe034f30	-0.12823176
228	0xbe01ea8b	-0.12687127
229	0x3e515337	0.204419
230	0x3e2f5149	0.17120852
231	0xbe4daaa5	-0.20084627
232	0x3e1d87b3	0.15383796
233	0x3d38802c	0.04504411
234	0xbd16f4a4	-0.0368544
235	0x3e3e0a73	0.18558674
236	0xbba3857f	-0.004990279
237	0xbdfaad2b	-0.122400604
238	0x3e26e4e4	0.16298252
239	0x3deb39ac	0.114856094
240	0x3e101083	0.14068799
241	0x3dfb8aab	0.12282308
242	0xbd92bacb	-0.07164534
243	0x3de23422	0.110451
244	0x3e4b7b20	0.19871187
245	0xbd196571	-0.037450258
246	0xbc3902c5	-0.011292164
247	0x3dada2d4	0.084783226
248	0x3e3decaa	0.18547311
249	0xbe0d42b8	-0.13794982
250	0x3df49fa4	0.119445115
251	0x3c7d4534	0.015458394
252	0xbdc26d49	-0.09493501
253	0xbd1343f5	-0.03595348
254	0xbdf030de	-0.11728071
255	0x3e13d718	0.1443752

iffnn.bias f4 [32]
0	0xbe30edd1	-0.1727822
1	0x3e3e2ae4	0.18571049
2	0xbd8e50b0	-0.06948984
3	0x3c7eff20	0.015563756
4	0x3e08d561	0.13362648
5	0xbde4e0e0	-0.11175704
6	0x3df8bdd4	0.12145582
7	0xbcfebda7	-0.031096293
8	0x3d366f80	0.04453993
9	0xbdfedf97	-0.1244499
10	0xbbdb59a7	-0.006694037
11	0x3e467957	0.19382225
12	0x3e5ff0ac	0.21869153
13	0xbe44f9f1	-0.1923597
14	0xbdff17aa	-0.124556854
15	0x3e066ce8	0.13127482
16	0x3dbf2a50	0.09334242
17	0xbd2f7bf8	-0.042842835
18	0x3df1b76e	0.118025646
19	0xbc6e3fb8	-0.014541559
20	0xbe179d4b	-0.14806096
21	0xbe2ae461	-0.16688682
22	0xbd85fb94	-0.06542125
23	0xbdde11bc	-0.10843226
24	0xbe27e082	-0.16394237
25	0x3e45fa71	0.19333817
26	0x3d8779bd	0.066150166
27	0x3e1fd805	0.15609749
28	0x3c2c6f07	0.010524518
29	0x3b9090c0	0.004411787
30	0xbcb5c4dc	-0.022188596
31	0x3d0009a8	0.03125921

gffnn.weight f4 [2, 32]
0	0x3def9ec9	0.11700208
1	0xbe2989ab	-0.16556422
2	0xbda8eb04	-0.08247951
3	0xbd59e6c4	-0.05319859
4	0xbd431a98	-0.047632784
5	0x3da10533	0.0786232
6	0xbe27fffa	-0.16406241
7	0x3da28630	0.079357505
8	0x3de7e60e	0.11323176
9	0xbc283656	-0.010266861
10	0x3c867a5c	0.016415767
11	0x391cd400	0.00014956295
12	0xbbcb854e	-0.0062109595
13	0x3cb3b76f	0.021938054
14	0x3e1019e5	0.14072378
15	0x3c30b5c8	0.0107855275
16	0x3d834f2c	0.06411585
17	0x3e2a058d	0.1660368
18	0x3e118bfd	0.14213558
19	0x3e09ae59	0.13445415
20	0x3d9dc876	0.077042505
21	0x3c7dd260	0.015492052
22	0x3da3e1fa	0.08002086
23	0xbd02f108	-0.031968147
24	0xbd13abd6	-0.036052547
25	0x3d959188	0.073031485
26	0x3e071882	0.13192943
27	0xbe5ae3ac	-0.21375912
28	0xbe1d9af2	-0.15391138
29	0xbda01a7c	-0.078175515
30	0xbcb0659e	-0.02153283
31	0xbe29db0a	-0.16587463
32	0xbcc0d092	-0.023536954
33	0xbd7f9216	-0.062395178
34	0x3d129128	0.035782963
35	0x3a37e000	0.00070142746
36	0xbdfd9902	-0.123826995
37	0x3e017707	0.12643062
38	0xbe12c385	-0.14332397
39	0x3e3fa4b8	0.18715179
40	0xbe00fc5f	-0.12596272
41	0xbd8f642e	-0.0700153
42	0x3ded5750	0.11588919
43	0x3d64decc	0.05587654
44	0xbd3867b0	-0.04502076
45	0xbd68fc81	-0.05688143
46	0xbd4e67d4	-0.050391987
47	0xbcf946a0	-0.030429184
48	0xbc6dc761	-0.014512868
49	0xbd226b0c	-0.03965287
50	0x3e2bb549	0.16768374
51	0x3e57ba5e	0.21067187
52	0x3e31fb0d	0.17380925
53	0x3ddcbcc7	0.10778194
54	0x3e3490e3	0.17633395
55	0x3de36ccd	0.111047365
56	0x3dafda91	0.0858661
57	0x3cc4b138	0.024010286
58	0x3dff5fdb	0.12469455
59	0xbda5c0cb	-0.08093413
60	0xbe24fa9a	-0.16111222
61	0x3d6bcc38	0.057567805
62	0x3e0ccf54	0.13750964
63	0xbd0be1b8	-0.03415081

gffnn.bias f4 [2]
0	0xbdbc8a4c	-0.092060655
1	0xbe495681	-0.19661905
