micro_moves/best_model_V3.pth (torch, 5315 bytes, 4 tensors)

iffnn.weight f4 [32, 25]
000000 e0 89 47 3c d0 b8 be 3c fa 81 ee bd 36 1f e1 3d
       0.012178868 0.023281485 -0.11645885 0.10992281
000010 78 9d 1f bd 74 a6 33 bd 43 fe 3d 3e 92 5f dc 3d
       -0.038968533 -0.043859914 0.18554024 0.10760416
000020 fa 3b fe bd 47 9c b3 bd ba e9 a4 bd c3 eb 14 3e
       -0.12413783 -0.08770042 -0.08052392 0.14543061
000030 78 bd 32 3d f2 92 20 be 17 da d5 bd 71 fa 0c 3e
       0.043637723 -0.15681055 -0.10441988 0.13767411
000040 cd 4e fa bd 20 65 7f bc b3 28 9f bd 98 a3 3f be
       -0.12222061 -0.015588075 -0.07771435 -0.1871475
000050 b0 ae e7 bc e8 e5 12 bd 1b 71 24 3e f6 f0 d4 3d
       -0.02828154 -0.035863787 0.16058771 0.10397522
000060 04 e6 76 3d 41 95 0f be cc cd 29 bd 8b 5c ca 3d
       0.060277954 -0.1402178 -0.04145603 0.098809324
000070 2a 30 0d 3c 9b a0 cd 3c 75 8e ba 3c fe 3d 8a bd
       0.00861744 0.025100997 0.022773007 -0.06750105
000080 36 20 de bc 40 1b d7 3d 12 cc a4 bd 8b 67 2a 3e
       -0.027114969 0.105032444 -0.08046736 0.16641061
000090 33 a7 97 bc 30 22 38 3e 50 bd 18 3e af 84 e1 3d
       -0.018512344 0.17981791 0.14915967 0.110116355
0000a0 bc e8 f0 3c 1f 35 08 3e 8d 1f c5 3c 6d 29 86 3c
       0.029407851 0.13301514 0.024062896 0.016377175
0000b0 08 23 9a bc d4 ce 43 bd b1 19 45 3e 44 61 b9 3d
       -0.018815532 -0.04780467 0.19248082 0.09051755
0000c0 43 fd 91 bc 57 79 26 be a4 74 58 3d 18 7c 47 be
       -0.01782096 -0.16257225 0.052845612 -0.19480932
0000d0 87 73 cf bd 05 23 46 be 62 22 91 3d 40 cc a5 bc
       -0.10129457 -0.19349296 0.07086636 -0.020238996
0000e0 56 72 83 bd 90 7b b3 3c 54 ed 0f bd ca 8c bc bd
       -0.06418292 0.021909505 -0.035138443 -0.09206541
0000f0 4e 93 ad 3d ac 3b 87 bd 91 4f 15 3e 5d 91 b7 bd
       0.08475362 -0.066031784 0.14581133 -0.08963273
000100 64 8e 77 3d 62 9b e0 3d 40 0d 25 3d 3a db 3c be
       0.06043853 0.10967137 0.04029584 -0.18443003
000110 f8 2f 04 bd 5d 59 c4 bd 36 2c 24 be 20 1a 2f 3d
       -0.03227231 -0.09587357 -0.1603249 0.042749524
000120 6d 20 9b bd e2 ab 9a 3d 82 97 93 3d 6d d2 19 be
       -0.07574544 0.07552315 0.07206632 -0.15021677
000130 a1 7f 0b 3e 43 9d 2a be 00 71 a6 3a 56 7d c9 3d
       0.13622905 -0.16661553 0.0012698472 0.09838359
000140 6e 00 c2 3d c4 5b 99 bd 23 72 37 be 23 f4 fb bd
       0.09472738 -0.07488206 -0.17914633 -0.12302425
000150 98 d1 33 be c7 71 26 3e 20 0a 16 3c e4 67 79 3d
       -0.17560422 0.1625434 0.009157687 0.060890093
000160 74 11 51 bd 83 99 0d be c0 e4 b5 bb 63 86 36 be
       -0.051042035 -0.13828091 -0.0055509508 -0.17824702
000170 10 34 01 be 48 d9 08 bd a5 86 24 be 92 b7 c2 3d
       -0.12617517 -0.03341034 -0.16066988 0.095076695
000180 3a 07 d8 bd 83 47 3f 3e 29 c0 0d 3e 7d 25 47 be
       -0.10548253 0.18679623 0.13842835 -0.19447894
000190 c2 17 bf 3d 93 42 35 3e a0 94 ee 3b 6b d6 28 be
       0.09330703 0.17701177 0.007280901 -0.16488044
0001a0 50 59 26 bc 85 8d 23 be f8 62 4f bd 99 81 19 3e
       -0.01015313 -0.15971954 -0.050631493 0.14990844
0001b0 7d da 49 3e 63 da 18 be a3 49 21 be cf 55 1c 3e
       0.19712253 -0.14927058 -0.15750746 0.15267108
0001c0 50 98 ea bd 0b 14 35 3e 9e 14 10 be d2 c1 92 3d
       -0.114548326 0.17683427 -0.14070365 0.071658745
0001d0 e0 34 4c 3d 06 93 87 3d 34 e7 03 be 54 41 15 bd
       0.049855113 0.06619839 -0.12881166 -0.036439255
0001e0 86 51 1b be 20 f7 75 3c d8 c6 36 be 31 b6 0f 3e
       -0.15167817 0.0150125325 -0.1784929 0.14034344
0001f0 50 27 23 be ad 04 00 be 60 63 dc 3b 28 ea 8b 3c
       -0.15932965 -0.12501784 0.0067257136 0.017079428
000200 b8 91 2d be 37 c9 1d 3e 9e 44 08 be a1 07 4a 3e
       -0.16950119 0.15408789 -0.13307425 0.19729473
000210 86 b3 01 be d0 68 ba bc 54 65 4b bd 0d 78 cd bd
       -0.12666139 -0.022755057 -0.04965718 -0.100326635
000220 8a 3d e2 bd 20 91 68 bd 34 a6 78 bd ea 69 80 3d
       -0.11046894 -0.056779027 -0.06070538 0.062702015
000230 33 7e e1 bd e8 04 00 be ff f8 3f be e8 42 79 bd
       -0.11010399 -0.12501872 -0.18747328 -0.060854822
000240 b2 ad d1 3d cd 76 a6 bd 27 5b 23 3e cd 64 ea bd
       0.10238208 -0.08128128 0.1595274 -0.114450075
000250 d0 a6 f1 3c 62 37 d9 3d 25 9e 30 3e b8 45 03 bd
       0.029498488 0.106062666 0.17247827 -0.03204891
000260 00 20 33 38 92 30 f5 3d 50 e4 7e 3c 0a 1e 12 be
       4.2706728e-05 0.11972155 0.015557364 -0.14269271
000270 59 48 2d 3e 40 d1 0b 3d 86 82 af 3d 73 d3 06 3e
       0.1692213 0.034135103 0.08569817 0.13166599
000280 dd a7 ae bd c2 c9 02 be 74 9d 18 3d ca fc db bd
       -0.08528111 -0.12772277 0.037259534 -0.10741575
000290 c0 5c 10 bd 07 d8 bd bd 90 90 e5 bd 82 cf 1d be
       -0.035244703 -0.092697196 -0.11209214 -0.15411189
0002a0 b7 ae 32 3e 60 14 30 3c b0 90 ac bd e0 6e 28 bd
       0.17449461 0.010747045 -0.084260345 -0.041121364
0002b0 25 9e 4c be 80 7d 5f bd 80 05 0a 3c 00 1c e7 b9
       -0.19982202 -0.054563046 0.008424163 -0.00044080615
0002c0 80 60 2f 3d 10 fd 9e bd 69 1a 35 3e 00 d1 62 3c
       0.04281664 -0.077631116 0.17685856 0.013843775
0002d0 4b 1c 1a 3e 16 35 a1 3d 26 27 a7 3d 38 02 31 bd
       0.15049855 0.078714535 0.08161764 -0.043215007
0002e0 ac 74 4e bd d8 0a 24 be b9 44 41 3e fb 2f 47 be
       -0.050404236 -0.16019762 0.18873872 -0.19451897
0002f0 e7 5b c8 bd 07 be b5 bd cd 8f a1 bd 66 80 1b be
       -0.09783154 -0.088741355 -0.07888756 -0.15185699
000300 ca 9e ce bd 28 8a 3a be f2 5d c6 3d 28 93 e0 bc
       -0.1008888 -0.18216765 0.096858874 -0.02741392
000310 e7 21 38 be 6a ca ae 3d c8 e6 44 bd f0 a1 98 bc
       -0.17981683 0.08534701 -0.048071653 -0.018631905
000320 31 3f 01 be e5 4a 01 3e 10 05 23 bc c2 67 f6 3b
       -0.12621762 0.12626226 -0.009949937 0.007519693
000330 bf 02 71 3d 5c 2c 52 3c d1 9c 94 3d 14 ad 08 3d
       0.05884051 0.012827959 0.07256473 0.033368185
000340 cd e7 23 3e 2f 52 37 3e 1a 87 ca bd f5 a6 4d 3d
       0.16006394 0.17902444 -0.0988905 0.05020805
000350 5d 48 3c be 6a 2c e0 bc c0 80 d0 3d dd 44 a2 bd
       -0.1838698 -0.027364928 0.10180807 -0.07923291
000360 b6 54 4b be 4c 43 e4 3d 5e c7 5e ba 69 a8 0d be
       -0.19856533 0.11145648 -0.0008498336 -0.13833775
000370 4a 40 41 be 24 e1 2c 3d de d9 5e bd c2 56 a6 bc
       -0.1887218 0.0422069 -0.054406993 -0.020305041
000380 19 d9 14 bd 17 cf c0 bd c1 39 bd 3d 3a ea be bd
       -0.036339853 -0.09414499 0.09239531 -0.09322019
000390 29 d3 98 bd 37 64 a3 bd ae 4b 02 be bd ea b4 3d
       -0.074621506 -0.07978099 -0.12724182 0.08833835
0003a0 f0 68 3e 3e 0e 24 56 3d 31 c1 93 bd be dd 51 3d
       0.18594718 0.05228048 -0.07214583 0.05123686
0003b0 1a 44 c0 3a ca f3 4e bd 32 dd 38 be 44 40 42 3e
       0.0014668733 -0.050525464 -0.1805313 0.18969828
0003c0 6f 4f 48 be 42 b0 56 bd ac 6f 42 be 02 77 34 3d
       -0.19561552 -0.052414186 -0.18987912 0.044058807
0003d0 dd 12 cd bd b4 52 37 3e 3d dd c2 3d f6 1e 4c bd
       -0.100133635 0.17902642 0.09514854 -0.049834214
0003e0 94 cf 10 3e f2 d0 18 3d c0 87 9d 3d 80 ef 37 3e
       0.14141685 0.03730864 0.07691908 0.17962456
0003f0 50 8c 0c bd d2 58 31 3d 8b 90 47 3e 33 09 ff bd
       -0.0343135 0.043297596 0.19488733 -0.124529265

iffnn.bias f4 [32]
000000 10 d4 36 be 4c 04 49 bd 00 b0 d3 ba 5a d2 46 be
       -0.17854333 -0.049076363 -0.0016150475 -0.1941618
000010 a7 95 3d 3e 73 e8 e0 bd 3c e1 90 bd 54 cc 66 bd
       0.18514119 -0.10981836 -0.0707421 -0.056347206
000020 56 ab 0a be e7 23 4a be 2f 52 5a 3c 37 bd 68 be
       -0.13541922 -0.19740258 0.013325258 -0.2272843
000030 a0 81 15 be f2 76 92 3d 0f 10 b9 3d 62 04 af 3d
       -0.1460023 0.07151593 0.09036266 0.08545758
000040 fd 65 b1 bd 59 f4 16 3e 43 f0 e1 bd 76 4f cc 3d
       -0.08662031 0.14741649 -0.110321544 0.099760935
000050 d0 ce fa 3c a3 a7 6b bd 61 40 2e 3e b5 bd 0d 3d
       0.030616194 -0.057532918 0.17016746 0.034604747
000060 84 68 fc bc 51 c4 b5 bd 53 b3 fb bd 8c 1b 62 3d
       -0.030811556 -0.08875335 -0.12290063 0.055202052
000070 7e 42 81 bd 87 47 0c be 1a 9e 05 be d6 d8 1b be
       -0.063115105 -0.1369916 -0.13048592 -0.15219435

gffnn.weight f4 [2, 32]
000000 e3 b4 26 3e 4a d3 1a be f0 a7 02 bd 00 c0 06 be
       0.1627994 -0.15119663 -0.03189844 -0.1315918
000010 52 92 0f be 58 99 8b 3c 10 1a 08 bc d0 01 9e bc
       -0.1402066 0.017040893 -0.008306995 -0.019287974
000020 d4 3d 29 3e b9 fe fd 3d f5 4a 01 3e 60 38 86 3c
       0.16527492 0.124021 0.1262625 0.016384304
000030 d0 eb 15 3d 10 ca 24 3d d4 e9 62 bd 54 ad a0 bd
       0.03660184 0.040231764 -0.055398777 -0.0784556
000040 40 2b a4 3c c0 73 0e bd b2 d8 a8 3d 9d 1c 80 bc
       0.020040154 -0.034778357 0.08244456 -0.015638644
000050 96 df b6 3d aa cf 0d 3e 60 7a d6 bd 87 0c a0 3d
       0.089293644 0.13848749 -0.1047256 0.078148894
000060 4a 89 f6 bd c0 34 b7 bd 38 9b fd bc ee f8 88 3d
       -0.120379046 -0.08945608 -0.030957803 0.066881046
000070 d7 ef 24 bb ff 83 a9 bd f5 67 99 bd c1 1f b9 bd
       -0.002516737 -0.082771294 -0.07490531 -0.0903926
000080 62 5b ab 3d 38 95 ed 3c 1e 8d cc 3d 85 23 31 be
       0.08367039 0.029001817 0.099878535 -0.17298706
000090 7a a7 f9 3d e8 d4 20 be 00 b4 a8 39 3b b0 02 3e
       0.12190147 -0.15706217 0.00032177567 0.12762539
0000a0 ef 9f 25 be dc 72 6a 3d 47 9a 3a 3e 55 e4 5c 3e
       -0.16174291 0.057238445 0.18222915 0.21571477
0000b0 d7 87 02 3e 26 a3 a3 3d bf 84 c6 bd ab 46 2a be
       0.12747131 0.079901025 -0.09693288 -0.1662852
0000c0 8e b8 cf 3d 00 af 19 3c 9c 4b 24 be 81 19 6d bd
       0.10142623 0.009380102 -0.16044468 -0.05788565
0000d0 08 7e 26 bd 93 4a ab bd 08 87 f0 bc 89 9c 10 3e
       -0.040647537 -0.08363833 -0.029361263 0.14122213
0000e0 63 f0 fd bd 07 a0 f2 bd f0 20 30 be 9c 81 56 3d
       -0.12399366 -0.11846929 -0.17200065 0.0523697
0000f0 76 39 37 bd 92 4e 1e 3d 08 7c 4d bd e0 30 2e 3c
       -0.044732533 0.03864915 -0.050167114 0.01063177

gffnn.bias f4 [2]
000000 56 a3 60 bd a8 0a ed bd
       -0.05484327 -0.11574298
