micro_moves/FFNNCombined_WandB_Saved.pth (torch, 8927 bytes, 6 tensors)

iffnn.iffnn.weight f4 [32, 25]
000000 bb e7 07 be 6b 91 b4 bd 66 06 68 3d 0e 0b 44 be
       -0.13271992 -0.08816799 0.056646727 -0.19144842
000010 3e 55 95 bc 18 4d e4 bd 55 ed 03 be 22 a0 b8 bc
       -0.018229123 -0.11147517 -0.12883504 -0.022537295
000020 64 17 f4 bd 0e 92 19 3e 3d d1 26 3e 0d ba 2a bc
       -0.11918524 0.14997122 0.16290756 -0.0104203345
000030 84 46 f4 bb d0 37 16 3e 59 4d 7e 3d c0 4d f3 bd
       -0.007454695 0.14669728 0.062085483 -0.11880064
000040 f7 63 03 3e 12 f5 21 3e 8b d1 47 3c 10 96 c4 bd
       0.12831102 0.15816143 0.012195955 -0.09598935
000050 fb 07 e2 bd 5f d8 68 bd b4 ac f9 3b 1f 68 2b bd
       -0.110366784 -0.056846973 0.007619465 -0.041847344
000060 87 3a 3c 3e 39 5d 1b 3e d0 4f 0b 3c 88 37 64 bd
       0.18381701 0.1517228 0.0085029155 -0.05571702
000070 a0 05 21 3c 19 b2 2c 3e 80 80 d7 bc c8 7e 23 be
       0.009828001 0.16864814 -0.02630639 -0.15966332
000080 37 2c be bd 83 e6 0c 3e a0 29 c7 3b 60 0b ce bd
       -0.09285777 0.13759808 0.00607796 -0.10060763
000090 c0 45 ef bc ad c3 d2 bd 0a 4b 80 3d dd 76 0d 3e
       -0.029208064 -0.102912284 0.062643126 0.13814874
0000a0 5b c6 0f be a5 c6 49 3e 28 bf 9c 3c a0 23 34 bc
       -0.1404051 0.19704683 0.01913412 -0.010994822
0000b0 5d a0 04 3e 40 af e6 bc 3a 25 37 be da ba 24 be
       0.12951799 -0.028159738 -0.17885295 -0.16086903
0000c0 60 75 f1 bd 8d 26 aa bd 90 37 55 be f5 40 d8 bd
       -0.11789966 -0.08308134 -0.20821977 -0.105592646
0000d0 e7 0f 1f be 5b da b0 3d 3e 14 04 3d bb d7 ca 3d
       -0.1553341 0.08635398 0.032245867 0.099044286
0000e0 eb 91 8e bc 31 1a 2d 3e b6 2e bb bd f9 d9 d3 3d
       -0.017403563 0.16904522 -0.09139769 0.10344309
0000f0 f4 b1 f7 bd 09 62 6a bd a2 c7 04 3e 29 64 53 3e
       -0.12094489 -0.0572224 0.12966779 0.20643677
000100 6d e2 03 bc 87 74 0e bd 1d 67 15 3e 63 a8 f2 3b
       -0.00804959 -0.034779098 0.14590116 0.007405327
000110 c2 a5 88 bb 93 10 ca 3d 73 2c 1e be 94 5b 91 3d
       -0.0041701505 0.098664425 -0.15446644 0.07097545
000120 14 3b c3 bd 8f 84 30 3e 65 f9 3d be b3 c0 22 be
       -0.09532753 0.17238067 -0.18552168 -0.15893821
000130 1f e1 81 bd 2a dc 03 3e e4 64 f7 3d 56 ca 91 3d
       -0.063417666 0.12876955 0.1207979 0.07118671
000140 e3 06 04 3e ca cc 3d be 3c 83 bb 3d 53 34 b2 bd
       0.12893252 -0.18535152 0.0915589 -0.08701386
000150 f1 c1 6d bd 43 9c 8c bd 31 0f 45 3e 15 1e 67 bc
       -0.058046285 -0.06865742 0.19244076 -0.014106293
000160 2a b4 46 3c ec 6c c2 3d 29 43 38 3e 16 97 b1 bd
       0.012127915 0.094934314 0.1799437 -0.086713955
000170 76 76 19 3e 63 9c 65 bd c7 1d 85 3d 5a 52 95 3d
       0.14986596 -0.056057345 0.0649982 0.07291098
000180 f0 76 ba 3d 74 38 33 be c3 7a ad 3c 05 85 39 be
       0.09104717 -0.17502004 0.021176701 -0.18117149
000190 1b 90 5a 3d be bf 1a 3e de 5c a3 bd 58 3a 9e 3d
       0.053360086 0.15112206 -0.079766974 0.07725972
0001a0 72 5b 81 bd 99 df 48 bd 68 f6 f2 3d ec bd d3 3d
       -0.0631627 -0.049041364 0.118634045 0.10338959
0001b0 5c 26 e0 3d d4 0b 32 be 8e 75 47 be 7d 0a 70 bd
       0.109448165 -0.17387325 -0.19478437 -0.058603752
0001c0 2c ef 45 be 43 c9 18 be a9 34 19 bd 5b 4e 43 3d
       -0.19329518 -0.14920525 -0.037403736 0.047682147
0001d0 1d 47 64 bd 74 69 85 3d 14 69 05 be bd 06 fd bc
       -0.05573188 0.06514254 -0.13028365 -0.030887002
0001e0 fd 6a 87 bd af 91 30 3d 2c 12 80 3d 10 99 d1 3d
       -0.06612203 0.043107685 0.06253466 0.102342725
0001f0 58 0f 1b 3e c0 d8 e6 3c 18 4b d3 bc 40 75 17 bd
       0.15142572 0.028179526 -0.025792643 -0.036977053
000200 cc 61 68 3d 1e a1 26 be ad 1c 47 be 31 be 1f 3e
       0.05673389 -0.16272399 -0.19444533 0.15599896
000210 20 41 70 bc fd cd 01 be 60 85 35 3d 38 db 69 bd
       -0.0146639645 -0.12676235 0.04431665 -0.05709383
000220 00 53 46 3c 87 6b 3c be e2 18 3a be d6 01 92 bd
       0.01210475 -0.18400393 -0.18173555 -0.071292564
000230 87 dd a6 bd 4e 08 c6 3d 78 4a 2e 3d b0 b4 f1 bc
       -0.08147722 0.09669553 0.042551488 -0.029505104
000240 25 72 02 be c3 2d 3a be d8 08 ef bc ba 11 28 be
       -0.12738855 -0.18181519 -0.029179022 -0.16413012
000250 92 9b 95 3d 43 14 4b 3e f2 fa 24 3d a7 17 c5 3c
       0.07305063 0.19831948 0.040278383 0.02405913
000260 cd 97 fc bd 21 fd 25 3e 42 e8 27 3e 5d d2 30 bd
       -0.12333641 0.16209842 0.16397193 -0.043169368
000270 b1 04 22 3e da e9 95 bd 9e 50 24 be 08 f3 24 be
       0.15822102 -0.07319994 -0.16046378 -0.16108334
000280 25 7e db 3d eb 94 65 3c eb ae 45 3e 6d f6 10 be
       0.107174195 0.014012556 0.19305007 -0.14156504
000290 30 4b 08 be 40 4a b7 3d 27 d8 30 bd e1 cd d5 3b
       -0.13309932 0.08949709 -0.04317489 0.006524787
0002a0 5b 09 73 bd 63 5a 96 3d cf f3 f2 bd 9f 3d a3 3c
       -0.059335094 0.07341459 -0.11862909 0.019926844
0002b0 9f 41 bc 3d ca b8 14 be 0d 86 b8 3d 0e a7 98 bd
       0.09192204 -0.14523616 0.09009943 -0.07453738
0002c0 e7 29 35 be 6e 0d 0d 3e 4a 0c a7 bc 98 c2 f9 bb
       -0.17691766 0.13774654 -0.020391602 -0.0076220743
0002d0 cd bd 11 3e 74 d9 ea 3d b1 64 8a bc 9c f9 b1 bd
       0.1423256 0.11467257 -0.016893717 -0.08690187
0002e0 4c 82 2c 3e f7 a8 c7 bd 17 da db bc f6 d4 97 bd
       0.1684658 -0.09749024 -0.026837392 -0.07413666
0002f0 80 2b 31 bd 42 e9 70 bd 6d d3 b2 3d 15 1d 49 bc
       -0.043254375 -0.058816202 0.087317325 -0.012275
000300 59 3f 3e be d2 60 22 3e c8 41 f5 3d 84 eb 28 3e
       -0.18578853 0.15857247 0.119754374 0.16496092
000310 04 67 fe bd 46 8c 67 bd 32 e5 a6 bc b4 1f 95 3c
       -0.124219924 -0.05653026 -0.02037296 0.018203594
000320 31 df 1a 3d 68 d7 09 be 76 1e 91 3d 02 ed 69 bd
       0.03781051 -0.13461077 0.07085888 -0.057110794
000330 f7 d5 be bd 4f 2d f3 3d e3 a7 c8 3d f4 59 20 3e
       -0.09318154 0.11873876 0.09797647 0.15659314
000340 8b 6b 90 bd 7e 52 1c 3e 17 64 0a 3d 2a 97 94 bd
       -0.07051762 0.15265843 0.03378686 -0.07255395
000350 53 1b 45 be 74 9a 05 3d 53 e6 d2 bc f5 bf dd 3d
       -0.19248705 0.032618 -0.025744593 0.108276285
000360 1e 29 03 be 8f a7 d1 3d 5f 72 07 3e 2f e0 43 3e
       -0.12808654 0.102370374 0.13227223 0.19128488
000370 07 28 1d 3c 8a af 1e 3e c1 2b 8f bd 0e 44 99 3d
       0.009592063 0.1549665 -0.06990767 0.074836835
000380 49 8f 8c 3d 51 0c 36 be 50 24 09 3e 93 d0 00 3e
       0.06863267 -0.17778136 0.13392758 0.12579565
000390 e9 c2 83 bd ae 87 19 3e df 6c 09 3d 6a f9 a1 3c
       -0.064336605 0.14993164 0.033551093 0.01977225
0003a0 13 07 b1 3c 0a 52 87 bc 20 dd 21 be 7a f1 4d 3d
       0.021609819 -0.016518611 -0.15807009 0.050279118
0003b0 e6 24 a0 3d f9 41 50 be 94 ab 6c 3d d2 4f 46 3e
       0.07819538 -0.20337667 0.057780817 0.19366387
0003c0 34 72 fa bd bc 23 01 3d 2e 94 0c 3e 4a 4b 3c 3e
       -0.12228814 0.03152822 0.13728401 0.18388095
0003d0 c8 81 11 3e b7 c4 f4 bd a6 4d 71 3d c1 f3 e9 bd
       0.14209664 -0.11951583 0.058911942 -0.114234455
0003e0 59 e6 22 be 18 b7 0e 3e e2 e6 3c 3e da 6b 91 3d
       -0.15908183 0.13937032 0.1844745 0.07100649
0003f0 1a e7 cd bd d6 d8 fc 3c 96 3e 22 3e 18 cc 07 be
       -0.10053845 0.030865114 0.15844187 -0.1326145

iffnn.iffnn.bias f4 [32]
000000 ba 68 0c be b1 a2 1e 3e 32 d4 2c be fd a5 5f bd
       -0.13711825 0.1549175 -0.16877821 -0.054601658
000010 de 3a 3b be c0 40 09 3b 0e 26 1c be 51 d1 c7 bc
       -0.18284175 0.0020943135 -0.15248892 -0.024391802
000020 36 08 54 3e be 6a a0 bd c4 e9 85 3d 13 f8 a6 bd
       0.20706257 -0.078328595 0.06538728 -0.08152785
000030 42 ce 32 be 85 32 0d be b3 93 ec bd 4d e7 1c be
       -0.17461494 -0.13788803 -0.11551609 -0.15322609
000040 57 9d d9 bd 60 87 53 3c 1d 51 00 be 02 43 24 3e
       -0.10625713 0.012910694 -0.12530942 0.16041186
000050 5f 86 d2 bd 67 a0 48 be b3 69 e1 bd 90 f9 d9 bc
       -0.102795355 -0.19592439 -0.11006489 -0.026608258
000060 2c 40 0d 3e 50 08 0e be 1d eb c1 bd 30 0d c6 bd
       0.13794011 -0.13870358 -0.094686724 -0.09670484
000070 43 34 4e bd 8a c9 ad bd 60 e5 35 bd 17 a8 24 3e
       -0.05034281 -0.08485706 -0.044408202 0.16079746

iffnn.gffnn.weight f4 [16, 32]
000000 20 a4 1d 3e 48 54 ca bc d0 92 e9 bd 6b 52 86 bc
       0.1539464 -0.024698392 -0.114049554 -0.016396722
000010 9e 57 13 bd 5e fd b1 3d e5 21 3a 3e 7c c2 f6 3d
       -0.03597223 0.08690904 0.18176992 0.12048814
000020 6b 77 f9 3c 2c bc 02 3e 6c 59 3b bd be 73 b0 bd
       0.03045245 0.12767094 -0.045739576 -0.08615826
000030 06 e3 d8 3d 78 e6 50 3d e7 cc 08 3e af db e9 bd
       0.10590176 0.051001042 0.13359414 -0.114188544
000040 40 1b 20 3c 10 f3 19 3d 19 c2 12 3e 25 8d 05 be
       0.009772122 0.037585318 0.14331855 -0.13042124
000050 fa 26 78 3b 8c 38 88 3d 08 88 11 3c 7c f8 f3 bd
       0.0037865029 0.066514105 0.00888253 -0.11912629
000060 7b db e9 3d 4b 69 d1 bd dd 5b dc bd ac 46 22 be
       0.11418816 -0.10225161 -0.10759709 -0.15847272
000070 a0 17 54 be cb 8a 16 3e 34 fb 42 3d a8 06 e9 bc
       -0.20712137 0.14701383 0.047602847 -0.028445557
000080 47 26 b1 bd 84 15 2b bd ac f0 2d 3e 00 19 93 3d
       -0.08649879 -0.041768566 0.1698634 0.07182503
000090 66 73 03 be 8e 7a b0 3d b9 89 71 bd 06 0f e5 3d
       -0.1283699 0.086171255 -0.058969233 0.11184506
0000a0 bd 0c d6 bd 11 43 c5 bd 71 2f 2a 3e 63 3b a0 3d
       -0.104516484 -0.096319325 0.1661966 0.07823827
0000b0 ae 6f 56 bd 0b e9 09 3e 04 33 6a 3d d9 91 72 bd
       -0.0523526 0.13467805 0.05717756 -0.059221122
0000c0 a6 61 80 3d ce d6 06 be 3c 59 24 be 68 c9 4f be
       0.06268625 -0.13167879 -0.16049665 -0.20291674
0000d0 1e 2c 02 bd 67 a9 e2 bd 44 36 d6 3d 50 39 68 3d
       -0.031780355 -0.11067467 0.10459569 0.056695282
0000e0 26 35 10 be 7c f6 48 3d 2e 74 c0 3d 18 2e 06 3d
       -0.14082775 0.04906319 0.093971595 0.032758802
0000f0 40 0e 94 3e 08 d8 e2 3c fb 86 89 bd ea 9e a6 3d
       0.28917122 0.027690902 -0.067151986 0.08135779
000100 b6 70 00 3e 01 a6 0c 3e d7 06 b2 3d 2e 6f 33 be
       0.12542996 0.137352 0.08692711 -0.1752288
000110 54 f1 53 bd b0 dd 56 3d 32 e9 d3 3c ad 7a cb 3d
       -0.05174382 0.05245751 0.025868032 0.09935508
000120 27 7e 00 3e ac 89 c7 3c 04 29 8e 3c bc d2 4f bd
       0.12548123 0.02435764 0.017353542 -0.05073808
000130 d0 06 22 3c bb 1c 34 3e be 44 b5 3d 86 e8 10 bd
       0.00988932 0.17589085 0.08851002 -0.035378
000140 f5 92 1e be c0 c3 f5 3b 8b 8b 8c 3d c6 74 22 be
       -0.15485747 0.007500142 0.06862553 -0.15864858
000150 c8 97 26 3e 2c ad 67 3d 72 e7 f7 bd 87 bd 06 3e
       0.16268837 0.056561634 -0.121046916 0.13158236
000160 07 36 2b 3d 5c 51 0d be bf 7b e7 bd ce 61 8e 3d
       0.04179957 -0.13800567 -0.113028996 0.069522485
000170 33 63 ba 3d 00 d3 3a 3d 44 ab 65 3d f2 50 f9 3d
       0.09100952 0.04561138 0.056071535 0.12173642
000180 53 6b c8 3d 0a 4b bb 3d 84 ce 95 bd f0 b9 07 be
       0.097860955 0.09145172 -0.0731478 -0.13254523
000190 eb 98 43 bd e0 33 85 3c 83 2b 74 3d 0b e0 a0 bd
       -0.047753256 0.016260087 0.05961181 -0.07855233
0001a0 2f b3 f9 3c db 2b a8 3d eb 15 de 3d 53 a0 a7 bc
       0.03048095 0.0821149 0.10844024 -0.02046219
0001b0 c0 26 9a 3c ab 61 11 3e a0 8e 7d 3c 60 cf a2 3b
       0.018817306 0.14197414 0.015475899 0.0049685687
0001c0 fa b1 ac 3d a0 a2 00 bd af 37 02 be 40 c3 1c bc
       0.08432384 -0.03140509 -0.12716554 -0.009568036
0001d0 ca b4 75 3d 4b 41 06 3e f1 c8 83 bc 1c 81 2c be
       0.059986867 0.13110845 -0.016087027 -0.16846126
0001e0 2c 9d 1a be 5e 3e 7a bd 40 08 92 bb 3a 5b 9c 3d
       -0.15099019 -0.061094634 -0.00445655 0.076345876
0001f0 00 d3 70 bd c8 09 c1 3c 0d 1f 1d 3e c8 50 c9 3c
       -0.058794975 0.023564234 0.15343876 0.024574652
000200 f7 a1 ef 3c e0 17 a2 bb d2 50 10 3e 13 e1 a6 3d
       0.029252036 -0.004946694 0.1409333 0.08148398
000210 96 f0 0f be 80 e2 3e bc 21 8d 4c be cb ca 9c 3d
       -0.1405662 -0.0116506815 -0.19975711 0.07655867
000220 2c 93 29 be 0d e2 19 be c4 8e 0e 3e 8b 55 c0 3d
       -0.16560048 -0.15027638 0.13921648 0.09391316
000230 4a 91 f7 3d a2 fe d9 bd a3 49 33 be 6c e1 20 3d
       0.120882586 -0.106442705 -0.17508559 0.03927748
000240 fd a0 01 3e 16 5b 84 3d 26 52 db bd f3 31 0c 3e
       0.12659068 0.06462686 -0.10709028 0.13690929
000250 fe fc f4 3d 98 ad cc 3c 2f e8 8a bd c6 27 8b bd
       0.11962317 0.02498512 -0.06782567 -0.067946956
000260 fa 5d f6 bd dd e7 b3 bc 62 d7 f3 bd ee 37 bf 3d
       -0.12029643 -0.021961147 -0.119063154 0.093368396
000270 7d 26 dc 3c 88 85 0f bd be 53 d9 3d 00 be e5 3b
       0.026873821 -0.035039455 0.10611676 0.007011175
000280 b9 8c bd bd 7e 9d cf bd 3e 9c 0d be 9b 35 61 bd
       -0.09255356 -0.10137461 -0.13829133 -0.054982763
000290 67 8a b4 3d fc 86 2f be 8a 68 c9 bd 2b 22 0c be
       0.08815461 -0.17141336 -0.09834392 -0.13684909
0002a0 98 df 44 bb ec 51 0e bd 38 f3 fc 3c 5d 40 11 bd
       -0.0030040499 -0.034746096 0.030877694 -0.035461772
0002b0 e3 03 2f 3e 01 cd 2a be 4c f4 3b 3d 32 0d 04 be
       0.17091326 -0.16679765 0.045887277 -0.12895659
0002c0 dd b9 ef bd c0 ed 0f be 4d 7c e8 bd 0b dd 96 3d
       -0.117053725 -0.14055538 -0.113518335 0.07366379
0002d0 e2 fc e8 bd 00 ab 7a bc cb 73 d2 bb 43 24 2c 3e
       -0.113763586 -0.015299559 -0.006422495 0.16810708
0002e0 60 0e 96 bb c3 94 b8 3d 82 41 14 be 69 ec 15 3e
       -0.0045793504 0.09012749 -0.14478114 0.14640965
0002f0 1b 20 36 be 22 f1 da 3d 2e 9c f2 bd 84 7f 32 be
       -0.17785685 0.10690524 -0.11846195 -0.17431456
000300 83 77 0c 3e da 83 a1 3d 3c e1 1d be 76 e5 08 be
       0.13717465 0.07886477 -0.15417951 -0.13368782
000310 a8 4f 6e bd 1a ec ee 3d cf b3 07 bd b9 97 02 3e
       -0.058181435 0.116661265 -0.033130463 0.1275319
000320 e4 c8 21 3e 36 54 f4 bd ad 0f 13 3e cb e5 27 be
       0.1579929 -0.119301245 0.14361449 -0.16396253
000330 c1 ed 33 3e a0 eb cb bd 12 bf f2 3d 22 f6 6b 3c
       0.17571165 -0.09957051 0.1185285 0.014401944
000340 8e 59 c7 bd 48 7a f7 3c 48 16 3a be 38 a2 df 3d
       -0.09733878 0.030209675 -0.18172562 0.10919613
000350 08 05 6d 3d 70 85 ff bc 61 59 4d bd c8 dd 4b bd
       0.057866126 -0.031191558 -0.050134066 -0.049772054
000360 c6 f5 8d 3b 6b c8 12 be 9a 0b db 3d 5e 4e b6 3d
       0.004332277 -0.14334266 0.10695572 0.08901666
000370 43 12 ee bc e9 9d 27 3e e0 48 18 3d e0 cc c4 bb
       -0.029061442 0.16368832 0.037178874 -0.0060058683
000380 ef ca 2f 3e 9a ca 0c be 2a 94 7c bd cb ea 25 3c
       0.17167257 -0.13749161 -0.061664738 0.01012678
000390 63 73 9a bd 44 cb a3 bd c7 a6 36 3e a6 59 ba 3c
       -0.075415395 -0.07997754 0.17837058 0.022747826
0003a0 6d c8 2c 3e da b3 33 3d 2e e7 d4 3c 47 65 6f bd
       0.16873331 0.04387269 0.025989141 -0.058446195
0003b0 72 f7 a3 3d 36 96 9d 3d 00 7b 8f 3c ae d8 27 be
       0.08006181 0.07694666 0.017514706 -0.1639125
0003c0 82 57 a0 3d 1e 6c ff 3d af 12 4f bd 9f 15 04 be
       0.07829191 0.124717936 -0.050554927 -0.12898873
0003d0 d3 43 9c bc 30 ef 79 bc 2c 23 cb bc 1a 57 a8 3d
       -0.01907531 -0.015254781 -0.024797045 0.08219738
0003e0 95 53 e2 bc 60 8c 5b 3d 7a 91 f5 3d 48 f3 e2 bc
       -0.027627746 0.05360067 0.11990638 -0.027703896
0003f0 83 5e 02 bd 84 80 8d 3d 82 ca d5 bd c3 d2 f0 bd
       -0.031828415 0.06909278 -0.10439016 -0.117589496

iffnn.gffnn.bias f4 [16]
000000 66 d4 1c bd b5 47 44 be 6a 83 c2 bd 49 46 a8 bd
       -0.038288496 -0.19167979 -0.094977215 -0.08216531
000010 15 5e ff 3d 15 c2 eb bd b9 e1 ca 3c e3 f1 c9 3d
       0.124691166 -0.115116276 0.024765836 0.09860589
000020 36 46 72 3d 56 e7 03 be 06 de 23 3e 94 2f 35 be
       0.05914899 -0.12881216 0.16002664 -0.17693931
000030 25 21 58 3d 77 3d 0c 3e a3 5b 54 be e3 67 d2 bd
       0.052765984 0.13695322 -0.20738082 -0.10273721

gffnn.linear1.weight f4 [4, 64]
000000 29 6d 10 bd 12 42 5d 3b ac f4 b4 3c 63 5f 9c bd
       -0.035260353 0.0033761305 0.022089325 -0.07635381
000010 13 7d 3a be fd 3f cb ba c6 6c b3 3d 78 85 c8 bc
       -0.18211775 -0.0015506741 0.08760981 -0.024477705
000020 a8 5b de 3c 5e 17 fc 3c 55 94 4e 3d ff 59 17 be
       0.027143314 0.030772861 0.05043443 -0.14780425
000030 a0 a5 9a bd 35 c3 69 3d 99 e4 68 be 82 a7 29 3d
       -0.07551122 0.05707093 -0.22743453 0.041419514
000040 df b3 60 bd 6f da 96 bd 3c ce 27 3a 34 b8 d5 bc
       -0.05485904 -0.07365882 0.0006401276 -0.026088811
000050 c5 fa 03 bd 43 9a d1 3d 96 16 65 3c 29 17 d0 3d
       -0.032221574 0.10234501 0.013982436 0.101606674
000060 1a ea 9e bd b6 5e 94 3d d2 52 9d bc 14 3a 3e bd
       -0.07759495 0.07244627 -0.01920453 -0.046442106
000070 41 80 92 b9 c7 ab 5c bd 80 bf 78 be 30 2e 95 bd
       -0.00027942847 -0.053874757 -0.24291801 -0.072842
000080 de 88 a1 3d c8 a6 14 bd 72 f1 02 3d ec be ae bd
       0.078874335 -0.036291867 0.03196854 -0.08532509
000090 2f 03 b0 bd 19 6b db 3d 23 c4 ae bd f7 11 0c bd
       -0.08594357 0.10713787 -0.08533504 -0.03419682
0000a0 7f 25 fe bd b3 62 7d bd 8f 43 74 bc 23 16 94 bc
       -0.124094956 -0.061861705 -0.014908685 -0.018076962
0000b0 1a de fe 3b ed 05 29 bd c9 0d 05 be 23 e8 25 3d
       0.0077779414 -0.041265417 -0.1299354 0.040504586
0000c0 f2 69 2e 3d a1 c7 0f be b6 b6 09 bd fd 63 1a bd
       0.042581506 -0.14040996 -0.033621512 -0.037693013
0000d0 2b 04 0d be fd 7e ae 3c a6 14 71 3a d3 f1 de 3d
       -0.13771121 0.021300787 0.0009196497 0.10885968
0000e0 f6 9f 80 3d 74 6d dd 3d 23 13 d1 3d b9 d0 07 be
       0.0628051 0.10811892 0.10208728 -0.13263215
0000f0 7d 45 65 bd de 85 1c 3d 77 ec 1a be 3a 53 d6 3d
       -0.055974472 0.038213603 -0.15129267 0.10465093
000100 a2 67 8d bd 49 c3 00 bd 68 8e a0 bd ac 19 a1 bd
       -0.06904532 -0.03143624 -0.07839662 -0.07866225
000110 6b 5b 8d 3c aa 5a 59 3c 5f 07 38 3d 33 bc 3d 3c
       0.017255506 0.013266245 0.044928905 0.011580515
000120 e2 5d 22 3e df c4 a2 bd c3 45 82 bc 6f 69 13 3e
       0.15856126 -0.079477064 -0.015902406 0.14395688
000130 da e8 1d bd 47 72 03 3d 7b 62 03 3e 9e 51 66 3d
       -0.038552143 0.032091405 0.12830536 0.05623018
000140 5e 9a 9b bd 54 92 d8 3d 4f e0 10 bd d6 58 25 bd
       -0.075978026 0.10574785 -0.035370167 -0.040367924
000150 40 d8 5f 3d a2 f8 c3 3d 5a 4a c6 3d e8 ed c2 3d
       0.05464959 0.09568907 0.0968215 0.09518033
000160 d3 14 dd bc 86 31 c0 3d 2a 22 9d 3d 82 86 8e bb
       -0.026987469 0.09384446 0.07672532 -0.0043495307
000170 d1 dc ab 3b f7 dd c7 3d 5c 75 eb 3d fb 20 a8 3d
       0.005244829 0.09759133 0.11496994 0.082094155
000180 c0 b5 8e bb e4 05 e0 3c 52 ab b4 3d 73 02 6f bd
       -0.0043551624 0.027346559 0.08821739 -0.058351945
000190 34 4c 1f 3d 72 db 89 3d 86 de 68 bd 56 67 a3 ba
       0.038891032 0.06731309 -0.05685284 -0.001246671
0001a0 1d 8a a0 ba 8a 78 11 be e1 cd 93 3d af 6f 5b 3c
       -0.0012248192 -0.14206138 0.07217003 0.013393327
0001b0 a8 6f 70 3d 72 cc ee 3d de 6f 3f 3e f5 c2 ad 3d
       0.058700234 0.116600886 0.18695018 0.08484451
0001c0 4c 4e 62 3d 24 ce 6b 3d b8 c8 03 3e 7c 2d a1 3d
       0.05525045 0.057569638 0.12869537 0.078700036
0001d0 8c 8c 9e 3d 40 a8 4c bd 45 de 79 bd 26 c4 23 bc
       0.07741651 -0.049965143 -0.06100299 -0.009995496
0001e0 d5 33 61 3b 2d 14 34 bd e8 ba 5d bd c1 08 fd 3c
       0.003436317 -0.043964554 -0.054133326 0.030887963
0001f0 39 92 07 3e f3 aa 81 bd 1f 51 63 3e 85 e3 33 bd
       0.13239373 -0.06331434 0.22198914 -0.04391815
000200 db ee d3 bb 29 e6 d5 3c 13 c9 04 bd 65 f7 2e bd
       -0.006467683 0.026110725 -0.03241832 -0.042716403
000210 72 cc 8c bd d1 3a 49 bd 12 5d 91 3c bd f6 7d bd
       -0.06874932 -0.049128357 0.017744575 -0.062002886
000220 1d 61 4e bd 88 c1 d5 bd 2f b7 01 3e dd 2f 6d bd
       -0.050385583 -0.10437304 0.12667535 -0.057906974
000230 ba 85 7c 39 2d 8f 70 3d 03 cc 3e 3d 7f 16 06 3b
       0.0002408241 0.058730293 0.04658128 0.0020460186
000240 9a 40 9b bd f3 9d 7c 3c 91 e9 0a bd cd 79 a0 bd
       -0.07580681 0.015418517 -0.033914153 -0.07835732
000250 6b be 7a 3b 59 ed 56 bc 0f 40 c0 bd d5 a6 ca bd
       0.003826047 -0.0131181115 -0.09387218 -0.09895102
000260 d3 73 0e 3d 63 c7 26 bd 74 f0 aa 3d 26 05 e6 3c
       0.034778427 -0.040717494 0.08346644 0.028078627
000270 73 f1 e6 3d 8d 64 33 3d 6a 85 b0 3c 43 f8 b0 bd
       0.112765215 0.043797065 0.021547992 -0.08641102
000280 dd 65 e6 bd 55 de 64 3d 92 00 00 be a1 8c f3 bd
       -0.11249898 0.055876095 -0.12500218 -0.11892057
000290 ae 42 d4 bd 8a 3e cc 3b 32 b4 2b 3d d2 d8 b7 bd
       -0.10364281 0.006233041 0.041919895 -0.08976902
0002a0 b5 e2 a8 3b 3d ab 86 3c 36 2e 34 3d 9a e6 56 bc
       0.0051539787 0.016439075 0.043989383 -0.013116503
0002b0 03 62 87 bd 56 2c b2 3d b8 32 15 3c d3 eb 09 3d
       -0.06610491 0.08699863 0.009106331 0.033672165
0002c0 7f 27 8a bd 10 41 0b 3d 6e 96 c7 3c f2 a6 2c 3d
       -0.067458145 0.033997595 0.024363723 0.0421514
0002d0 f3 ab d7 3d f8 c2 6d bd 0e e9 1d bd 60 c4 00 bd
       0.105308436 -0.058047265 -0.038552336 -0.031437278
0002e0 aa 1c e4 3d ef 34 f0 3d c5 ea 4f 3d d6 6b ba 3d
       0.1113828 0.11728846 0.050761003 0.09102599
0002f0 01 7c f0 bc b6 02 3f 3d 8c 7f 8e bd 2d 88 8f bd
       -0.029356005 0.046633445 -0.069579214 -0.07008395
000300 91 d3 b5 3d c2 f0 b2 bd c3 81 32 bc a1 82 c1 3d
       0.08878244 -0.08737327 -0.010895195 0.094487436
000310 bc ab 35 3d ea b7 c6 3d 74 6e d2 bc b9 92 b9 bd
       0.04435323 0.097030476 -0.025687434 -0.09061188
000320 7b b5 9c bd 53 42 ac bd 7c ba 74 3d 58 c8 e8 3c
       -0.07651802 -0.08411088 0.059748158 0.028415844
000330 fb a1 d6 bd 6a ae 94 bd 85 d9 68 bd c9 2f 4a 3c
       -0.10480114 -0.07259829 -0.056848068 0.012340494
000340 dd 77 79 bd 4e 1c 42 3d 22 47 b1 bc a4 c3 84 bd
       -0.060905326 0.047390275 -0.021640364 -0.06482628
000350 1a d0 45 bd c8 d7 ee bc f8 ed 6a bd 39 ba 2d bc
       -0.048294164 -0.029155627 -0.05735585 -0.010603481
000360 28 13 c0 bd 65 93 a6 3c cd eb b4 3c f9 26 63 3c
       -0.09378654 0.020333955 0.022085095 0.013864272
000370 25 ef 87 bc 5a 35 d1 bd 7f 72 fd 3d cb 5c d1 3c
       -0.016593525 -0.10215254 0.12375354 0.025556942
000380 9d 13 bf bd 97 57 aa bc cf bb ac b9 7d c0 8f 3c
       -0.09329913 -0.02079372 -0.00032946325 0.01754784
000390 8d 2a f6 3d 32 ab 5a 3c 98 92 db bc 5b 3a ed 3d
       0.12019835 0.01334648 -0.0268033 0.11583396
0003a0 af 3f 70 bd d7 c3 9c bd 9b eb d1 3d 53 65 e2 bd
       -0.058654483 -0.07654541 0.10250016 -0.11054482
0003b0 d1 07 b2 bc 15 77 9e 3c c3 94 a2 3d 9c da 81 bd
       -0.021732243 0.019343892 0.0793853 -0.063405246
0003c0 97 68 eb bd e5 57 a7 bd 07 79 f2 3d 66 7b 61 bb
       -0.11494558 -0.081710614 0.118394904 -0.0034405827
0003d0 5d 0f e9 3d a7 57 6d bd 33 93 86 3c f4 35 9a bd
       0.113798834 -0.05794492 0.016427612 -0.07529822
0003e0 f9 40 ad bd 33 01 3f bc 5d 79 f9 3d a5 a8 db bd
       -0.08459658 -0.011658001 0.12181351 -0.10725526
0003f0 37 d9 f0 bd 06 62 1c bd 2b b2 02 bd f9 5d 9a bd
       -0.117601804 -0.03817942 -0.031908195 -0.07537455

gffnn.linear1.bias f4 [4]
000000 58 c6 08 bc 0c f0 e0 bc f1 53 a6 3d 21 20 16 bd
       -0.00834807 -0.027458213 0.08121479 -0.036651734
