micro_moves/FFNNCombined_WandB_Saved_ion_3.pth (torch, 9039 bytes, 6 tensors)

iffnn.iffnn.weight f4 [32, 25]
000000 a7 e9 22 be 32 7b 91 3d 6d c7 3c 3e 43 f2 17 be
       -0.15909444 0.07103576 0.1843545 -0.1483851
000010 b9 f4 f2 bd c8 c6 ab 3c 88 4c d7 bb 6f 94 55 be
       -0.118630834 0.02096881 -0.0065704025 -0.20857404
000020 00 48 3c be d6 ba 3d 3e 94 f3 64 3d 88 6b 26 be
       -0.18386841 0.18528304 0.055896357 -0.16251957
000030 c0 d2 e2 3c 98 b1 6c bc dc 86 27 3e 81 f9 ae 3d
       0.027688384 -0.0144466385 0.16360039 0.08543683
000040 f1 7f 95 3c c3 20 c7 bd 51 d2 52 3e 92 06 b6 3d
       0.018249484 -0.09723046 0.20588042 0.08887972
000050 0d 2a d3 3d 48 c5 8d 3d f0 7a ea 3d c1 29 5d 3d
       0.10310755 0.06922394 0.1144923 0.053994898
000060 63 de 56 3e 4d be 04 bd bb 55 10 be b9 b2 b3 3c
       0.20983271 -0.032408047 -0.14095204 0.021935808
000070 24 79 46 3e e3 a6 a1 bd 86 e7 86 3d ee b6 d2 bd
       0.19382149 -0.07893159 0.06587128 -0.10288797
000080 d8 b6 1f 3e 6f 34 49 3e 13 bb 5d 3c db c5 80 bd
       0.15597093 0.19648908 0.0135333715 -0.06287738
000090 c2 6a 15 be 91 74 09 3d a0 f8 44 be 58 ba 2c be
       -0.14591506 0.033558432 -0.19235468 -0.1686796
0000a0 91 36 3f bd 91 59 14 3d 1d 95 17 3e 4e f2 e1 bd
       -0.046682898 0.03621823 0.14802976 -0.11032544
0000b0 30 f2 c9 bd b7 90 25 3e 1c 7a b9 bd 28 92 2d 3e
       -0.09860647 0.16168486 -0.09056494 0.16950285
0000c0 e4 da ed bd 82 44 44 3e 68 5b da 3c 1f 1d 39 be
       -0.11614016 0.19166759 0.026654914 -0.18077515
0000d0 f8 f5 4a be 71 80 37 3e 7e 3c 96 3d 40 b0 a4 3c
       -0.19820392 0.1792009 0.07335757 0.020103574
0000e0 ba cf cc bd 3e bb c9 3d 34 de 3d bd e1 2d 10 3e
       -0.10000558 0.09850167 -0.046354488 0.14080001
0000f0 ea 77 e7 bd 6c 79 6d 3d 64 b3 74 3d 13 af 4a be
       -0.11302169 0.057977125 0.059741393 -0.19793348
000100 c8 e8 2b be c0 fd 02 bd fe bf ed 3d f0 2b ba bc
       -0.16788018 -0.031980276 0.11608885 -0.02272603
000110 f4 4c 3e bd 60 23 3e bc 2d 76 31 be 24 7b 04 be
       -0.046460107 -0.011605114 -0.17330237 -0.129376
000120 03 e1 e2 bd 69 7a 1f 3e d3 02 e7 bd e3 03 23 3e
       -0.11078074 0.1557404 -0.112798356 0.15919451
000130 73 d0 e0 bd c3 e9 90 bc 6f c8 99 bd 58 56 e4 3d
       -0.109772585 -0.017689591 -0.07508933 0.11149281
000140 8d b0 3f 3e 22 4c 48 3e 52 e5 9e 3d 4c cd 48 3e
       0.18719693 0.19560292 0.07758583 0.19609565
000150 df 50 f9 3d aa 53 9d bd 7c 4b f9 bd 10 54 4b 3b
       0.12173628 -0.07681973 -0.121726006 0.0031025447
000160 74 d6 ea bc f8 f0 08 3e fe 5f 14 bd 0c 33 db 3d
       -0.028666712 0.13373172 -0.036224358 0.10703096
000170 de 2e 3c be 16 26 40 3e 0c 3d a3 3d 68 31 af bd
       -0.18377253 0.18764529 0.07970628 -0.08554345
000180 78 91 bb bd 2b 2a 8c bd 49 72 3a 3e b3 9e d5 bd
       -0.09158605 -0.068439804 0.18207659 -0.1043066
000190 26 5e 0b be 8a 3c 4a ba 54 94 31 3e b4 c3 45 bd
       -0.13610134 -0.00077147095 0.17341739 -0.04828234
0001a0 08 77 de bc dc ac 4a bc 5f 4d 09 3e 78 45 ed 3d
       -0.027156368 -0.012370314 0.13408421 0.11585516
0001b0 a8 30 89 bd f0 c7 87 bd 2f 4a f1 bc b8 7c ed 3d
       -0.066987336 -0.06629932 -0.029454319 0.11596054
0001c0 fb 73 0d 3d 1e 98 9f bd bf b5 89 3d b6 70 1c 3e
       0.034534436 -0.07792686 0.067241184 0.15277371
0001d0 a2 b9 f9 bd 1b 4c 6a 3d 9f 1a 00 3d 37 a6 0a 3e
       -0.1219361 0.057201486 0.031275388 0.13539968
0001e0 62 d4 2d be 77 45 ba 3c 20 9f e9 bd db da bb 3d
       -0.16975549 0.022738202 -0.11407304 0.09172603
0001f0 59 92 18 3e 61 1d 42 3e 8b 60 8e bd 35 e4 d0 3d
       0.14899577 0.1895652 -0.06952008 0.10199777
000200 78 38 02 3e ef 04 04 3e 21 c6 31 bd cf dc 21 be
       0.12716854 0.12892507 -0.04340184 -0.15806888
000210 60 7a 35 be 7c 70 dd 3c dd ce 85 bd 42 f3 d5 3d
       -0.17722464 0.027031176 -0.06533597 0.10446788
000220 14 93 1b 3e 0a 66 a2 bd 74 75 1d be fa f2 95 3c
       0.15192825 -0.07929619 -0.15376836 0.018304337
000230 bf 09 aa 3d b5 76 c5 3d 70 c2 54 be ad 20 90 3d
       0.0830264 0.09641782 -0.20777297 0.070374824
000240 71 ff 98 bd 17 92 19 3e 10 78 bb 3d 12 3d e2 bd
       -0.074705966 0.14997135 0.091537595 -0.110468045
000250 23 90 cc 3d bc 9b 22 3d c8 e0 82 3c bd 6b 01 3e
       0.099884294 0.0396993 0.015976325 0.12638755
000260 fb ba 30 3d c5 8f 40 be ee 1a 04 3d 77 93 94 bd
       0.04314707 -0.18804844 0.032252245 -0.07254689
000270 06 03 87 3d 3b fe 0a be e0 33 25 3e 5d 20 17 be
       0.065923735 -0.13573544 0.1613307 -0.1475844
000280 62 b2 4e 3e 1a 23 26 be 36 61 07 3e 86 54 3f 3e
       0.20185235 -0.16224328 0.13220677 0.18684587
000290 03 75 e6 bd 79 2c 0d 3e 82 2b 9b bb 22 b6 fd bd
       -0.11252787 0.13786496 -0.004735411 -0.12388255
0002a0 6d 21 2b 3e 54 24 8e bd 86 15 ca 3d 26 25 05 3e
       0.1671197 -0.06940523 0.098673865 0.13002452
0002b0 06 bb 11 bd f2 25 af 3c ad 80 16 3e 87 c5 e8 bd
       -0.03557875 0.021380398 0.14697523 -0.113658
0002c0 e7 0e da bd 5b 75 45 be 97 a2 b5 bd d4 b2 38 3d
       -0.10647374 -0.19283049 -0.08868902 0.04509242
0002d0 bd b9 05 3e 58 80 9f bc ca bc fa bd 18 22 d9 bc
       0.13059135 -0.019470379 -0.1224304 -0.026505515
0002e0 8e 30 8a 3d 5a d6 c4 3d 64 2f 04 be e8 ef 31 be
       0.06747542 0.09611197 -0.12908703 -0.17376673
0002f0 c0 bd f0 bc 18 0e 83 bc 7d 74 3d be 72 63 9e 3d
       -0.029387355 -0.015997931 -0.18501468 0.077338114
000300 ec 41 21 bd 28 52 2c 3d e8 24 c1 bc b1 87 44 3e
       -0.03936951 0.042070538 -0.023577169 0.19192387
000310 87 12 37 3e 41 48 0a 3e a0 9d 42 bd 00 98 95 bc
       0.17878161 0.13504125 -0.047513604 -0.018260956
000320 f1 2c 03 3e ba 2f 5e 3d 00 27 32 3e 7f 4a cd 3d
       0.12810113 0.054244734 0.1739769 0.100239746
000330 23 eb b1 bc b2 c0 c2 3d 83 37 92 bc f9 d7 a8 bc
       -0.021718567 0.0950941 -0.017848736 -0.020610796
000340 27 26 14 3e 38 a8 db bd cb b4 8d bd 52 48 ae 3d
       0.14467679 -0.107254446 -0.06919249 0.08509888
000350 cf 69 03 bd 20 6c 98 3d 0a 1a c1 3d 39 ee 3c 3e
       -0.03208333 0.07442498 0.09428795 0.1845025
000360 96 52 38 3e 57 8b 20 3e a5 27 3c 3e 54 ab f8 bd
       0.18000254 0.15678154 0.18374498 -0.12142053
000370 43 52 b0 bc bf ea 8f 3d c9 55 32 3e 0f 26 52 3d
       -0.0215236 0.07027196 0.17415537 0.051305827
000380 c8 b5 3b be b9 1a 31 3e 4a 6e 00 be 9e 98 44 be
       -0.18331063 0.1729535 -0.12542072 -0.19198844
000390 c0 5c 05 3e 50 c9 06 3c dd 6d ec 3d b3 28 4f be
       0.13023663 0.008226708 0.11544392 -0.2023037
0003a0 67 f2 dc 3d 27 3c eb 3d 71 1d 1e 3d 10 eb 51 be
       0.10788422 0.114860825 0.038602296 -0.20499825
0003b0 cc 18 3f be b3 14 01 3c 96 24 e8 3d a6 53 c2 3d
       -0.18661803 0.00787847 0.11335103 0.09488611
0003c0 99 44 b1 bd 23 26 9d bd 23 e5 d2 3d 0c f6 0d 3e
       -0.08655662 -0.076732896 0.102976106 0.1386339
0003d0 42 5f 00 3e 24 bf f8 bd 02 f2 2d 3d 5f 01 65 3d
       0.12536338 -0.12145832 0.042467125 0.05590951
0003e0 dc 5a f8 bd 28 f3 ee bd 43 9b a7 bd 48 7b 0e 3d
       -0.12126705 -0.11667472 -0.08183911 0.03478554
0003f0 07 0b db bd 50 74 10 be 6d ac e7 bd ab c4 4b 3e
       -0.10695463 -0.1410687 -0.113121845 0.19899242

iffnn.iffnn.bias f4 [32]
000000 15 e0 be 3c c1 78 4f be 74 06 8c bd 25 fd 01 3e
       0.02330021 -0.20260908 -0.06837168 0.12694223
000010 7d e5 4b be 78 ad 3d b7 2a 47 83 bd 1d d8 31 3e
       -0.19911762 -1.1305667e-05 -0.06410058 0.17367597
000020 83 ca 71 bb 41 ec b3 3d b2 d3 dc 3d 3b 33 39 3e
       -0.0036894388 0.08785296 0.10782565 0.18085949
000030 57 ad 47 bd 1a 3d e1 bd ae c9 da 3d 42 01 ca 3d
       -0.048749294 -0.10997982 0.106829986 0.09863521
000040 83 2e d8 3d 71 2f 00 3e 90 bf 49 3e bb b5 a4 bd
       0.105557464 0.12518097 0.19701982 -0.08042475
000050 5e e1 ac bd 85 97 29 3e c4 39 9f bd 08 3b 46 3d
       -0.08441423 0.16561706 -0.0777469 0.04839614
000060 5e 04 9c 3d ae 26 25 be 7a 12 ca 3c 00 76 8e b9
       0.076180205 -0.16128036 0.024667013 -0.00027172267
000070 f0 63 bd 3d 58 fb a8 3d a6 d4 11 be 21 00 1c 3e
       0.09247577 0.08251065 -0.14241275 0.15234424

iffnn.gffnn.weight f4 [16, 32]
000000 cc 82 e1 3d 8e 12 db bd 6a 94 be 3d b0 e6 0a 3d
       0.11011276 -0.106968984 0.093056515 0.033911407
000010 f4 61 f4 3d 9a ca e7 3d e5 d7 02 be 04 a7 46 bd
       0.119327456 0.1131794 -0.1277767 -0.048499122
000020 d7 42 5b bc 25 5b 85 bd ee cb 79 bd a4 ab 01 3c
       -0.013382635 -0.06511525 -0.060985498 0.0079144575
000030 77 d9 13 3e 44 56 0c bd 38 ef 35 3d 15 88 20 3e
       0.14438425 -0.034261957 0.04441759 0.15676911
000040 4f 12 e0 bd 5c 91 0d be 38 be 16 3d 95 79 ab bc
       -0.10940992 -0.13824981 0.0368025 -0.020931998
000050 0d 69 a3 bd 66 07 75 bd 89 a4 a9 bd a7 1f 2b be
       -0.07979021 -0.05982151 -0.08283336 -0.16711293
000060 3a 44 2e bd 2f e7 20 3e 28 5f bc 3d ec 3f 0d bd
       -0.042545535 0.1571319 0.09197837 -0.03448479
000070 00 a3 48 be 2d 2c 18 3e a4 dc 51 bd 38 1e c2 bc
       -0.1959343 0.14860602 -0.05123581 -0.02369605
000080 4f 25 34 3d 99 b5 e0 3a a7 ea 12 3e ef af b3 bd
       0.043980893 0.0017143964 0.14347325 -0.08773791
000090 47 9d c6 bd 54 27 00 3e 26 7f 08 3c 80 c8 be ba
       -0.09697967 0.12515002 0.008331096 -0.0014555603
0000a0 14 1d 35 3d b7 f2 bd 3d 5f 62 08 3e 0e 79 6d bd
       0.044217184 0.0927481 0.13318776 -0.057976775
0000b0 20 87 8a 3d c0 ec 1f 3b c1 de 03 3e 34 d0 3c 3d
       0.06764054 0.0024402589 0.12877943 0.046096995
0000c0 1d 3e 80 3d d0 47 2e 3d 22 a0 ad 3d b0 ab 8e bd
       0.06261847 0.042548954 0.084778085 -0.069663405
0000d0 24 4e 31 bd 98 66 de bc 2a d6 6a 3d 62 23 ce 3d
       -0.04328741 -0.02714853 0.05733315 0.100653425
0000e0 9d d7 9b bd f5 75 2e be 51 78 bd 3d 2f fb 0a 3e
       -0.07609484 -0.17037185 0.09251464 0.13572381
0000f0 41 9f 05 be 76 e0 d6 3d 7b 2e 34 be 68 38 fa 3c
       -0.13049032 0.10492031 -0.17595856 0.030544475
000100 1c 6c f0 bc be 4a d0 bd 80 7d e8 bc ce 34 0d 3e
       -0.029348426 -0.10170506 -0.028380156 0.13789675
000110 f5 b3 21 be 3e e5 ab bd 01 d9 c8 3d 94 19 7a 3d
       -0.15791304 -0.08393334 0.09807015 0.06105955
000120 6a c8 0a 3e 17 5c 95 bd 08 3c c3 3c 70 33 39 be
       0.13553014 -0.07292955 0.023832336 -0.18086028
000130 9e 97 be 3d 60 d8 da bb d6 e8 9d 3d 05 e0 1d be
       0.093062624 -0.006678626 0.077104256 -0.15417488
000140 5c e0 18 3e 7a c5 f7 bd a4 e0 c8 3d e7 2e 21 3e
       0.14929336 -0.120982125 0.09808472 0.15740548
000150 6b 22 c0 3d 84 d1 40 bd 95 d1 41 3d 50 a2 07 be
       0.09381565 -0.04707481 0.047319014 -0.13245511
000160 a8 a7 46 3d 98 b7 b1 bd 8a 86 cd bc 83 79 df bd
       0.048499733 -0.08677596 -0.025088567 -0.109118484
000170 50 39 0a 3e 49 1a 1d 3d d5 0a 05 3e 50 80 39 bd
       0.13498425 0.038355146 0.12992413 -0.045288384
000180 94 7e 9c bd 61 07 82 bc 78 1c 52 3d ed 96 b2 3d
       -0.0764133 -0.01587266 0.05129668 0.08720193
000190 f3 80 18 3e 06 b7 ae 3d 48 63 8e bd 65 75 0d be
       0.1489294 0.08531003 -0.0695253 -0.13814314
0001a0 2b 01 ea bd 78 50 1a be d2 b3 22 be e5 6a e9 3c
       -0.11426004 -0.15069759 -0.15888909 0.028493354
0001b0 07 5b 2b 3e bd 67 0f 3e 1f e5 14 3e 90 dc c1 3c
       0.16733943 0.14004417 0.14540528 0.023664743
0001c0 f1 2a 01 be 14 0f 3d bd 64 4a 9f bd e5 c9 bf bd
       -0.12614037 -0.046156958 -0.07777861 -0.0936468
0001d0 a4 de 00 be fd 83 bb bd 5f 8f d3 bd fc 08 77 3d
       -0.1258493 -0.09156034 -0.1033008 0.060311303
0001e0 37 3c ff bc 0d 4f 48 3d 3d 36 7c bd 55 0f 27 3e
       -0.031156642 0.048903514 -0.061575163 0.16314442
0001f0 bf 6c 06 3e c7 70 b8 bd e6 32 ac 3d 40 55 36 3b
       0.13127421 -0.090058856 0.084081456 0.002782181
000200 ee 1d 2c be dd 32 06 3e 80 57 a4 ba ad 0b 74 bd
       -0.16808292 0.1310534 -0.0012538284 -0.059581447
000210 6b ba 1f 3d 15 cf ed 3d 06 96 a2 bd cc 40 1f bd
       0.03899614 0.116117634 -0.07938771 -0.038880154
000220 b9 cc 13 be 34 d9 05 3d 84 4b 72 bd 90 f5 06 be
       -0.14433564 0.032677844 -0.05915405 -0.13179612
000230 aa cb 1d be 7c b2 49 bd e0 c6 bf 3c 2f ed 00 3e
       -0.15409723 -0.04924248 0.02341026 0.12590478
000240 0a 78 ae bd 99 1c 17 3e 18 61 82 3d 2f e4 31 be
       -0.085189894 0.14757003 0.063661754 -0.17372201
000250 48 90 ca 3d ab 40 a2 bd 9d 3f 07 3e 88 5b be bc
       0.09890801 -0.07922491 0.1320786 -0.023237005
000260 8c c9 bf 3d 97 54 00 be 00 64 fa 3d ea ce f0 bd
       0.09364614 -0.12532268 0.12226105 -0.11758216
000270 31 9c 10 3d ed a2 23 be b8 bc 75 3d 20 63 08 be
       0.035305206 -0.1598012 0.05999443 -0.13319063
000280 a2 2d 79 3d f7 6a 05 be c1 26 02 be 09 b2 09 3e
       0.060834534 -0.13029085 -0.12710096 0.13446821
000290 f2 30 e9 3d 42 a6 ed bd 16 74 e1 3d a4 bd b4 bd
       0.11386289 -0.11603977 0.1100847 -0.088252336
0002a0 4d fd 22 3d 7c 94 f5 bd 7e 94 c0 3d e1 c4 44 bc
       0.039792348 -0.11991212 0.09403323 -0.01200983
0002b0 4e b9 8e 3c 33 0f 20 3e 70 59 67 bc 6e 74 b3 3d
       0.017422345 0.15630798 -0.014120445 0.087624416
0002c0 b3 cd 37 bd e0 3f ac bd 04 5f 02 3e a1 d6 15 3e
       -0.044873904 -0.08410621 0.12731558 0.14632656
0002d0 9e 2d b9 ba 55 03 1f 3e 4e d1 f9 bd 5d 64 12 3e
       -0.0014127975 0.15528615 -0.12198125 0.14296098
0002e0 4d 88 e0 3c b9 2f b1 3b e0 be 88 bd 70 71 1c bd
       0.027408743 0.0054073003 -0.066770315 -0.03819412
0002f0 72 4f 0e 3e 98 6b 8f 3d ea 32 d6 bd a1 cd 15 3e
       0.13897493 0.07002944 -0.1045893 0.14629222
000300 b8 f2 3a 3e 0e 75 24 bc c8 aa 44 bd a7 cc f0 bc
       0.18256652 -0.010037674 -0.048014432 -0.02939446
000310 3f 03 0a 3e e0 bc de 3d cb 44 1a bd 48 33 12 be
       0.13477801 0.10875869 -0.037663262 -0.14277375
000320 f9 1b c5 bd 87 c8 41 3d e0 59 a1 3b 48 ea b7 bd
       -0.09624476 0.04731038 0.004924044 -0.089802325
000330 fa 4c 1e be 32 b5 b0 3d 08 9b ab bc e7 d4 d1 bd
       -0.15459052 0.0862831 -0.020947948 -0.10245686
000340 6e 04 d9 bd 3a 29 d7 3d e8 2b a0 3d 28 32 0e 3d
       -0.10596548 0.1050591 0.078208745 0.0347158
000350 80 d1 cd 3c 04 c4 14 be 85 9d b3 bd de 15 90 3d
       0.025124311 -0.14527899 -0.08770279 0.07035421
000360 76 ec 5c 3d b2 9b d0 bd 90 a6 b8 3d 4e bc e1 3d
       0.053936444 -0.101859465 0.09016144 0.110222444
000370 59 d1 ad bb 14 db ae bc 23 6d 07 be 37 b1 02 be
       -0.005304497 -0.021344699 -0.13225226 -0.12762915
000380 2c 39 11 be 77 4d 22 be 9c 18 82 3d d9 5c 26 be
       -0.14181966 -0.15849863 0.0635235 -0.16246356
000390 94 2d e5 3d f6 e3 2c 3e 47 03 17 3e da 98 b9 3d
       0.11190334 0.16883835 0.14747344 0.09062357
0003a0 e9 2e aa 3d 42 69 09 be a0 6e 58 3d 0a 70 79 bd
       0.08309729 -0.13419059 0.052839875 -0.060897864
0003b0 b6 b3 0e 3e c0 12 77 3b b4 64 2e bd ca f1 b6 3d
       0.13935742 0.0037700385 -0.042576507 0.08932836
0003c0 e3 cd 5a bc 12 67 c2 bd 3d 49 3e be 33 8a 1d bc
       -0.013354751 -0.09492315 -0.18582626 -0.009615469
0003d0 26 58 e5 3d cb 46 cf bd 37 a3 24 3e b8 36 bd 3c
       0.111984536 -0.101209246 0.16077887 0.023097381
0003e0 2c 0c 71 3c c5 62 41 bd 91 32 19 3e d2 8c 15 be
       0.014712375 -0.047213335 0.14960696 -0.146045
0003f0 90 a1 45 be 50 6d 1e 3e 20 f0 54 3d 2a 48 e0 bd
       -0.19299912 0.15471387 0.051986814 -0.10951264

iffnn.gffnn.bias f4 [16]
000000 3c 65 f7 bd 87 75 f7 3d f9 47 d7 bd 41 3a 16 bd
       -0.12079856 0.120829634 -0.105117746 -0.03667665
000010 36 fb 87 3d a7 dc 12 be c6 61 1b 3e 2d 0d 04 3d
       0.066397116 -0.14341985 0.15174016 0.032239128
000020 aa 10 57 3c aa 5f d0 3c 6b 3a 77 bd bc a5 2d be
       0.013126532 0.025436241 -0.060358446 -0.16957754
000030 62 04 ca 3d 31 00 3a 3d dd 48 14 3e 84 03 3f 3e
       0.09864117 0.04541034 0.1448092 0.18653685

gffnn.linear1.weight f4 [4, 64]
000000 d2 2a 46 3d 3e 59 c6 bc 0c 07 b2 bd ff 61 9c bd
       0.04838068 -0.024212476 -0.0869275 -0.07635879
000010 e4 fe a0 bd a6 5d b0 bd c0 9d d8 3d ef 24 de 3a
       -0.078611165 -0.08611612 0.105769634 0.0016948263
000020 5a 7b d1 3c 29 13 ad bd 09 61 99 3b b8 28 2c bd
       0.025571514 -0.0845092 0.004680757 -0.04203102
000030 12 26 c5 bd a9 54 8b 3d 5e 17 7b 3b b8 1e 9e 3d
       -0.09626402 0.06803257 0.0038313488 0.07720703
000040 dd 9a 91 bd c9 f0 a4 3d 2b 22 a3 3d 44 dd cb bd
       -0.07109616 0.080537386 0.079655014 -0.099543124
000050 c7 75 e9 bd 20 1a 17 3b 94 74 d0 3d 59 2c 6a 3c
       -0.11399417 0.0023056343 0.101784855 0.0142928
000060 77 99 00 3d ed f5 46 3c 6b f4 e3 bd 12 c6 c3 bd
       0.031396355 0.012143594 -0.111306034 -0.09559263
000070 b8 75 90 3b 3d f2 15 3d 2c 40 cc bd 80 c8 71 3d
       0.0044085644 0.03660797 -0.09973177 0.059029102
000080 89 a9 57 3d 0e dd 44 3d 15 70 c3 3c 8c 78 94 bd
       0.052651916 0.048062377 0.023857156 -0.07249555
000090 05 f8 c3 3c 89 d4 f0 3d 10 ce 3a bd 31 50 d9 3c
       0.023921976 0.11759288 -0.045606673 0.026527496
0000a0 24 36 ed 3a e9 97 05 3d 58 8a 27 3d e2 bf fd 3b
       0.00180978 0.032615576 0.04090342 0.0077438215
0000b0 c4 b7 d1 bc bd ed 0c 3e 5d c1 a9 3d 4b f2 bb 3d
       -0.025600322 0.13762565 0.08288834 0.09177073
0000c0 36 ac aa 3d 18 34 08 3c 11 a5 a2 3d a0 3f 91 3d
       0.08333628 0.008313201 0.0794164 0.07092214
0000d0 19 36 58 bd 34 54 92 bd b1 8f fe 3d 2f 59 2e 3c
       -0.052785967 -0.07144967 0.12429751 0.01064138
0000e0 a0 53 79 3c 8b 5d 0a be f3 7e 25 bd 67 8a b1 3d
       0.015217692 -0.13512246 -0.04040427 0.08668976
0000f0 00 56 dc 3d 89 e9 ed 3d 2f 1d 87 bd 17 4f 0b 3d
       0.10758591 0.11616809 -0.06597363 0.034010973
000100 c5 f3 a5 bd 5d 58 29 3d 34 4c 99 bd 85 62 6a 3c
       -0.08103136 0.041344035 -0.07485238 0.014305715
000110 98 0a 0b 3d ae 19 18 bd 35 92 bb bb b4 14 8c 3d
       0.03394565 -0.037133865 -0.0057242163 0.06839886
000120 14 b3 96 bc 31 32 10 3e bd 8c 27 3d 49 89 df bd
       -0.018395938 0.14081647 0.040905703 -0.10914857
000130 7a ba 5c bd 2d 6f 53 3d 85 90 e8 3d f1 75 df 3d
       -0.053888775 0.051619697 0.1135569 0.109111674
000140 47 7b a5 bd f7 b1 10 be 84 ea 9d 3d 18 8e ef bc
       -0.08080154 -0.14130388 0.07710746 -0.02924256
000150 29 9a f7 3d f4 8a 9c bd a3 11 f6 bd 5b ff 77 3c
       0.120899506 -0.07643691 -0.12015083 0.015136565
000160 2b ff d9 bc 43 72 6e 3d b4 3c 16 bd d3 8a d0 3d
       -0.026610931 0.058214437 -0.036678985 0.101827286
000170 81 da 6e 3d 44 46 85 bd 02 7c fd 3c 84 71 66 bc
       0.05831385 -0.06507543 0.03094292 -0.01406515
000180 00 38 14 3c 97 43 f3 3c a8 37 c6 3d c2 94 bb 3d
       0.009046555 0.029695315 0.09678584 0.09159233
000190 d1 04 ab bc d8 3d 57 bc 62 6d aa 3d 12 e5 97 3b
       -0.02087632 -0.013137303 0.08321644 0.0046354616
0001a0 4b 31 e6 bd 6b 2e 26 3e 63 05 23 bd b1 05 0f 3d
       -0.11239871 0.16228645 -0.03980006 0.034917537
0001b0 2f e7 c0 3d 84 eb a0 bd dc 3c c3 3d 6a 06 a7 bd
       0.09419095 -0.07857421 0.095330924 -0.0815552
0001c0 f8 0e a0 bd 1f 59 a7 3d 94 65 1e bd af 86 48 3c
       -0.07815355 0.081712954 -0.03867109 0.012239142
0001d0 90 a3 a1 39 19 2c 2c bd be 2b ca 3c 33 b8 ee bd
       0.00030830177 -0.042034242 0.024679061 -0.11656227
0001e0 f3 cd a3 3d 29 35 89 3d 37 a7 24 bd 15 48 eb 3c
       0.07998266 0.066995926 -0.04019853 0.028720895
0001f0 7a 3e c9 3d ea 48 f9 bd 16 10 b0 bd 05 da 15 3d
       0.098263696 -0.121721104 -0.08596818 0.036584873
000200 48 38 bd bc 90 c4 3b bd 0a cb 9a bd 58 f6 99 bc
       -0.023098126 -0.045841753 -0.07558258 -0.018794224
000210 32 e6 f5 3d a0 48 b2 bd 50 37 39 bd 04 28 a8 bd
       0.12006797 -0.08705258 -0.045218766 -0.082107574
000220 b4 ae ef 3d ee 3f 87 bd a8 ff 7c bd f8 b5 14 bd
       0.11703244 -0.066039905 -0.06176725 -0.03630635
000230 22 45 ad 3d 14 77 09 3d f8 51 e2 bc e8 4d ef 3c
       0.08460452 0.033560827 -0.027626976 0.029211953
000240 b8 7f 76 3d e4 d7 93 bd 40 c9 4c bd 20 0b 53 3d
       0.060180396 -0.07218912 -0.049996614 0.05152428
000250 38 dd 83 bc 0e 8b ef bd c0 fc ce 3d ec 43 c3 3d
       -0.016096696 -0.116964445 0.10106802 0.095344394
000260 66 da ee bd 1c f5 b9 3d 86 a4 b0 bd 62 76 da 3d
       -0.1166275 0.09079954 -0.0862513 0.10667111
000270 f0 98 c5 bc e0 d9 f6 bb e0 cd 56 3d 90 59 1d bd
       -0.024120778 -0.007533297 0.05244243 -0.03841549
000280 4c fa 11 bd be 4b eb 3d da c2 bf bd 7a c0 de 3d
       -0.035639092 0.11489056 -0.09363337 0.10876556
000290 78 77 d7 bd a0 6b 5f 3c 14 a7 4e bd 54 0f ee 3d
       -0.10520834 0.0136365 -0.050452307 0.11624017
0002a0 b0 99 d0 3d 14 4c 19 bd 64 5e e1 bd 9c d2 7e 3d
       0.101855636 -0.03742607 -0.11004332 0.06221257
0002b0 88 28 1d bd 58 83 26 3d a2 2b b6 bd e0 72 f7 3c
       -0.03836873 0.040652603 -0.08895041 0.030206144
0002c0 14 68 87 bd a8 25 38 bd a4 55 86 bd 90 0f de 3d
       -0.06611648 -0.044957787 -0.065593034 0.10842812
0002d0 e0 c5 55 3c c8 9e f8 3c c2 d1 aa bd ca 3b fb 3d
       0.013047665 0.03034915 -0.083407894 0.12267263
0002e0 96 a2 c7 3d 5c 4c 02 bd 6a f9 cc bd ee 85 d6 bd
       0.09747808 -0.031811103 -0.100085095 -0.10474764
0002f0 92 93 fd bd c0 55 d7 3b ee 18 da bd 6a f8 d8 bd
       -0.123816624 0.0065715015 -0.10649286 -0.10594256
000300 22 51 ca 3c ac e0 57 3d da f4 b2 3d 9e 55 00 3e
       0.02469689 0.0527045 0.08738108 0.1253266
000310 2a 1a 02 3e 8b cd 1e 3b 80 59 54 3d 04 ca ed bd
       0.12705293 0.00242314 0.051843166 -0.11610797
000320 9d 22 ed bd 9e 98 de bd 71 b5 0d 3d 8a f8 de 3d
       -0.115788676 -0.10868953 0.034596864 0.10887249
000330 75 db cc bd 48 1c 9c 3d aa ea 4f bd ae 16 fa 3d
       -0.100027956 0.07622582 -0.050760902 0.12211357
000340 23 68 8a 3d 7f a8 05 be 30 45 1a 3c 65 d8 5e bd
       0.06758144 -0.13052557 0.00941591 -0.05440559
000350 2c 83 e1 3d 79 60 82 bd 11 80 9a ba 18 7f 9b 3d
       0.11011347 -0.06366057 -0.0011787434 0.075926006
000360 66 b4 1c bd 11 59 58 bd d9 b6 57 3c 33 fc bf bd
       -0.03825798 -0.052819315 0.013166153 -0.09374275
000370 7a 73 a9 bd c7 fb 75 3d cb af f7 3b e7 b6 5b 3d
       -0.082739785 0.060054567 0.007558798 0.053641226
000380 1d ff d8 bd 4f 30 72 bd c6 0c 24 3d 6a 39 e6 bc
       -0.10595534 -0.059128102 0.040051244 -0.028103549
000390 42 c7 6c 3d c6 3a 06 3d 64 49 fd ba e6 71 12 3d
       0.057807215 0.032770894 -0.001932424 0.035753153
0003a0 68 bc 90 bd 52 ed 86 bd 31 89 e0 bd 59 14 ff bd
       -0.07067186 -0.06588234 -0.10963667 -0.12455053
0003b0 79 32 69 bd c1 18 cd bd 75 39 57 bd 23 b8 8b bc
       -0.0569329 -0.10014487 -0.05254503 -0.017055577
0003c0 0e bd 05 be 35 a4 8f 3d 71 ef b2 bc 85 1d c0 bd
       -0.130604 0.07013742 -0.02184269 -0.093806304
0003d0 7e 68 f2 3d 63 2d e2 3c 83 db 6f 3d f2 5f 92 3d
       0.118363366 0.027609533 0.058558952 0.07147206
0003e0 68 ec 7a bd 23 a3 41 bd c9 b0 91 bd e7 3b a5 bc
       -0.06126061 -0.04727472 -0.07113797 -0.020170165
0003f0 1b 12 83 bd 3c 00 e6 3d 4b 81 02 3d 59 41 c7 bd
       -0.06399938 0.112305135 0.031861585 -0.09729261

gffnn.linear1.bias f4 [4]
000000 3e c7 d7 bd 36 c1 ca bd 18 87 b7 bc 58 63 c9 3d
       -0.10536049 -0.09900133 -0.022403285 0.098334014
