micro_moves/ion_detection_ffnn_best2.pth (torch, 5445 bytes, 4 tensors)

fc1.weight f4 [32, 25]
-0.19275601 0.1651533 -0.18765503 0.08245307 0.009899816 -0.06341313 0.12395552 0.024707045
0.1058601 0.059859544 -0.011010627 0.1702136 -0.10619754 0.13060997 -0.116354905 -0.084810175
0.07369636 0.07439462 0.15178071 -0.088142954 -0.15673032 -0.18404463 -0.21026795 0.010530321
0.13996917 -0.14881194 -0.18397222 -0.19573365 0.033131287 -0.1338528 0.07690795 -0.00062307715
0.047457606 -0.05586967 0.07604106 0.11607058 -0.17406788 -0.13932917 -0.15612116 -0.19877462
-0.14313793 0.089885905 -0.19068329 0.17387174 -0.11939988 0.14572774 0.132477 0.049346685
0.15894665 0.10835399 -0.011202747 -0.021109883 0.14332576 0.13479711 0.19446994 0.04639538
-0.014778716 -0.29017895 0.054060612 -0.10525662 0.0065723294 -0.054854263 -0.40351397 -0.2772478
0.06617452 0.16995169 0.06723603 0.08350603 0.03814777 0.1935128 -0.0045985593 -0.026730794
-0.0019965027 -0.13291237 0.1885585 -0.12265893 0.07076861 -0.07747782 0.1535197 0.1727501
0.0014378433 -0.090960994 -0.18346956 0.0033491042 -0.14333363 0.14265306 -0.17485014 0.023185587
-0.06375042 -0.0071027773 0.15077405 0.08706067 -0.13597322 -0.028974535 0.1212113 0.05139558
-0.1380527 0.14606215 -0.06472118 -0.06653202 -0.048745304 -0.03782797 -0.14650922 -0.055711478
-0.003015831 0.15234174 -0.18980785 0.17620723 0.0052149743 0.13429995 -0.014177114 -0.11908164
0.014080241 -0.16905348 0.03872907 0.073861465 -0.110066466 0.07450847 0.18887891 -0.03866084
-0.0033306628 -0.035598963 0.0047767907 -0.17623822 0.14628716 -0.16355681 -0.14692597 0.13024639
-0.05320683 0.17683388 -0.14021774 -0.09441638 0.08251129 0.0068389922 0.010246873 -0.09310236
0.16810514 0.18461217 -0.18551974 0.18226303 -0.16051583 0.121930495 -0.19248901 -0.12441373
-0.032771587 0.1723663 0.19619562 -0.043364793 -0.17160116 -0.1937964 -0.041797433 -0.039387796
0.08917793 0.007083518 -0.036789156 -0.18150924 0.106343396 -0.12834531 -0.062043194 -0.0055669243
0.09089476 0.053482722 -0.061031584 0.18360002 -0.18144679 0.16470535 -0.027726943 -0.1925453
-0.036241453 -0.18014395 0.11056476 -0.13171917 0.052165765 -0.008348431 0.16791932 0.10368307
0.07393266 -0.08946409 -0.012413904 -0.092503786 0.17682074 0.1475553 -0.05129917 -0.16013269
0.029767662 -0.004561186 -0.0074406564 0.06174828 -0.016647741 -0.108584285 0.0031175613 -0.06878331
-0.08344376 -0.07040711 -0.19148648 -0.17153616 0.021651834 -0.13128944 -0.18537143 0.19558237
-0.18329595 -0.053233385 0.15344973 0.08942355 -0.11426175 0.119742736 -0.11693521 -0.14943361
0.12378149 -0.013920218 -0.1556447 -0.08125346 -0.03043577 0.16572009 -0.17360477 0.024802446
0.1522365 -0.17813802 -0.16362949 0.1251169 -0.10214498 -0.028562859 0.08989687 0.12341918
-0.09687226 0.10136125 0.021828623 -0.17710602 -0.10771574 -0.14940111 0.1449193 -0.025296716
0.16062221 0.14443603 0.04692052 0.0075297737 0.15090609 -0.18344963 -0.19792235 -0.07202145
-0.11836504 -0.11084234 0.11633084 0.10550416 0.15293428 0.18149555 0.030829493 -0.1987589
-0.046746437 -0.14994416 -0.08564148 0.1422003 -0.08822341 -0.18869112 0.084959045 -0.11957166
00000000: d561 45be f21d 293e a428 40be 28dd a83d
00000010: d632 223c bede 81bd 64dc fd3d 6e66 ca3c
00000020: 2ecd d83d 482f 753d eb65 34bc 794c 2e3e
00000030: 197e d9bd 9fbe 053e 7b4b eebd f5b0 adbd
00000040: 1eee 963d 355c 983d 676c 1b3e 4b84 b4bd
00000050: ea7d 20be 3276 3cbe 7b50 57be 5e87 2c3c
00000060: 1454 0f3e 2862 18be 3763 3cbe 676e 48be
00000070: acb4 073d b510 09be ea81 9d3d 0056 23ba
00000080: e862 423d 98d7 64bd 6abb 9b3d 6ab6 ed3d
00000090: da3e 32be 4eac 0ebe 3ade 1fbe 938b 4bbe
000000a0: c092 12be 1a16 b83d 7b42 43be 6f0b 323e
000000b0: ed87 f4bd a739 153e 0da8 073e c01f 4a3d
000000c0: e9c2 223e b2e8 dd3d ba8b 37bc a2ee acbc
000000d0: fdc3 123e 4108 0a3e 2123 473e 1509 3e3d
000000e0: 6d22 72bc 5692 94be a96e 5d3d c890 d7bd
000000f0: b25c d73b ddae 60bd 6299 cebe 6cf3 8dbe
00000100: 8286 873d d107 2e3e 0bb3 893d 3605 ab3d
00000110: d640 1c3d 3828 463e 83af 96bb 8afa dabc
00000120: c2d7 02bb 2e1a 08be 7b15 413e 9b34 fbbd
00000130: 22ef 903d b1ac 9ebd 4534 1d3e 67e5 303e
00000140: 0476 bc3a c249 babd 72df 3bbe a57c 5b3b
00000150: 0dc6 12be a513 123e ea0b 33be b3ef bd3c
00000160: 958f 82bd 6abe e8bb 8364 1a3e dd4c b23d
00000170: 903c 0bbe 015c edbc a13d f83d 2c84 523d
00000180: b05d 0dbe 5191 153e 8a8c 84bd f141 88bd
00000190: 28a9 47bd 80f1 1abd 8306 16be b831 64bd
000001a0: 40a5 45bb 79ff 1b3e fd5c 42be ab6f 343e
000001b0: 60e2 aa3b ed85 093e 2047 68bc 13e1 f3bd
000001c0: d0b0 663c 5b1c 2dbe 60a2 1e3d ae44 973d
000001d0: 876a e1bd e697 983d 7969 413e d45a 1ebd
000001e0: 4047 5abb 38d0 11bd a086 9c3b cb77 34be
000001f0: 4dcc 153e 707b 27be c373 16be 4f5f 053e
00000200: 68ef 59bd f113 353e 3d95 0fbe 605d c1bd
00000210: aefb a83d a019 e03b 80e2 273c 73ac bebd
00000220: c123 2c3e f90a 3d3e e3f8 3dbe 29a3 3a3e
00000230: 435e 24be b2b6 f93d d71b 45be a0cc febd
00000240: 803b 06bd cb80 303e 81e7 483e 489f 31bd
00000250: 37b8 2fbe 9072 46be c933 2bbd 1955 21bd
00000260: eba2 b63d db1c e83b 3ab0 16bd 8fdd 39be
00000270: 91ca d93d f46c 03be 0121 7ebd bf6a b6bb
00000280: 0827 ba3d b310 5b3d 41fc 79bd a501 3c3e
00000290: 30cd 39be 85a8 283e 9d23 e3bc 982a 45be
000002a0: eb71 14bd a877 38be c76f e23d 64e1 06be
000002b0: c5ab 553d dcc7 08bc 0bf3 2b3e ca57 d43d
000002c0: 026a 973d f338 b7bd b063 4bbc a072 bdbd
000002d0: 7f10 353e bd18 173e 141f 52bd d3f9 23be
000002e0: 50db f33c 0076 95bb c0d0 f3bb c4eb 7c3d
000002f0: d860 88bc 7061 debd 0050 4c3b 44de 8cbd
00000300: 90e4 aabd 9a31 90bd 0815 44be 2da7 2fbe
00000310: 305f b13c bd70 06be 02d2 3dbe bf46 483e
00000320: efb1 3bbe 400b 5abd ed21 1d3e b223 b73d
00000330: 1002 eabd ae3b f53d ba7b efbd 2005 19be
00000340: 2681 fd3d a011 64bc 5361 1fbe 3768 a6bd
00000350: 7054 f9bc 87b2 293e 73c5 31be 802e cb3c
00000360: e3e3 1b3e d069 36be 7d8e 27be a51e 003e
00000370: 6331 d1bd a8fc e9bc da1b b83d 32c3 fc3d
00000380: f764 c6bd 7d96 cf3d f1d1 b23c 485b 35be
00000390: 129a dcbd 9bfc 18be ba65 143e 0f3b cfbc
000003a0: 267a 243e 0ae7 133e bb2f 403d 52bc f63b
000003b0: 2087 1a3e 38da 3bbe 28ac 4abe fb7f 93bd
000003c0: 5f69 f2bd 4f01 e3bd dd3e ee3d 9112 d83d
000003d0: ce9a 1c3e f8d9 393e 228e fc3c 7487 4bbe
000003e0: 3179 3fbd f68a 19be cd64 afbd f59c 113e
000003f0: 7aae b4bd 3f38 41be 02ff ad3d fde1 f4bd

fc1.bias f4 [32]
-0.15826616 -0.1729733 0.21448377 -0.029882586 -0.1717445 0.1486503 0.038129553 -0.12619948
-0.0030238628 0.10773703 -0.0096329 -0.25758338 -0.07266982 0.048381496 0.061368864 -0.19326188
0.18445577 -0.13466974 0.0970688 0.054918554 0.05335872 0.06724842 -0.052094147 0.1435449
0.057150446 -0.11574616 -0.08712684 -0.03596555 -0.19358774 -0.15833998 -0.07439479 0.09797344
00000000: 8610 22be ea1f 31be a2a1 5b3e 53cc f4bc
00000010: cadd 2fbe c937 183e bc2d 1c3d 703a 01be
00000020: 002c 46bb 3ba5 dc3d 50d3 1dbc f8e1 83be
00000030: ead3 94bd ad2b 463d eb5d 7b3d 71e6 45be
00000040: f9e1 3c3e dde6 09be 02cc c63d 47f2 603d
00000050: ac8e 5a3d 8ab9 893d ac60 55bd 6ffd 123e
00000060: 9616 6a3d 530c edbd 8f6f b2bd 9d50 13bd
00000070: dd3b 46be e023 22be 4c5c 98bd 4da6 c83d

fc2.weight f4 [2, 32]
-0.032066327 0.1300795 -0.007353531 0.1364325 -0.03266491 -0.085856564 -0.049141746 -0.12618673
0.037175924 0.13094154 0.036639884 -0.075257786 -0.16400427 -0.032923374 -0.08663725 -0.030814067
-0.13329722 0.12812252 -0.03042375 -0.0072906194 0.17611189 -0.097674415 0.039658904 -0.03224806
0.1305453 -0.0011363626 0.012043415 0.03137879 -0.0012958555 -0.16215506 -0.1586929 -0.08381272
-0.012267625 0.12342475 -0.20951618 0.14886749 -0.08058633 -0.15571225 0.13008821 0.06913206
-0.03676863 0.12666675 0.17631508 -0.031863496 0.14669843 -0.090003006 -0.003699184 0.027736435
0.09511779 0.13011007 -0.055976566 0.030441472 0.11714791 -0.16539346 0.11188592 -0.02026137
0.10790755 -0.17476313 -0.048905317 0.089538336 0.031559445 -0.032445192 -0.14307252 -0.07047612
00000000: fb57 03bd 8f33 053e e4f5 f0bb f6b4 0b3e
00000010: a4cb 05bd 91d5 afbd db48 49bd 1837 01be
00000020: c845 183d 8a15 063e b413 163d c120 9abd
00000030: bcf0 27be a9da 06bd df6e b1bd c86d fcbc
00000040: 117f 08be 8d32 033e 3a3b f9bc 26e6 eebb
00000050: ad56 343e 8609 c8bd 6071 223d 8b16 04bd
00000060: abad 053e 00f2 94ba be51 453c 0c87 003d
00000070: b2d9 a9ba fa0b 26be 6480 22be 01a6 abbd
00000080: 26fe 48bc 1ec6 fc3d 698b 56be b870 183e
00000090: 720a a5bd 0873 1fbe d835 053e 1c95 8d3d
000000a0: b49a 16bd eeb4 013e f18b 343e 4c83 02bd
000000b0: 1d38 163e 7f53 b8bd 026e 72bb 8537 e33c
000000c0: 1ecd c23d 933b 053e af47 65bd 6560 f93c
000000d0: 3eeb ef3d e75c 29be 7224 e53d 2cfb a5bc
000000e0: a2fe dc3d 1bf5 32be f150 48bd e05f b73d
000000f0: 7a44 013d 40e5 04bd 9a81 12be c955 90bd

fc2.bias f4 [2]
-0.0030750867 -0.15338936
00000000: 6587 49bb 1a12 1dbe
