micro_moves/ion_detection_ffnn_bestnewV1.pth (torch, 5469 bytes, 4 tensors)

fc1.weight f4 [32, 25]
00000000: db15 4fbe f8bc cabd 76bf 44be 6d33 e8bc
00000010: a1e6 2fbe ad43 50bd 07f5 36be e65b 17be
00000020: 0275 0f3e c637 4abd 898e 333e df40 7abd
00000030: 9441 4a3e 8b61 783d b0fa 4abe 763f 803d
00000040: 7ea8 d33d 16c5 ce3b 6c89 c13d 720c 173e
00000050: b7b4 85bd 546b c13c 7e1b 1f3e 7c33 ef3d
00000060: ddf1 8d3d 40be c1bc 8bb4 073e d4f7 683d
00000070: 1602 09be b28f 31be 87b1 c5bd 6cf3 1abd
00000080: 4c72 30bd f67d 26be 4a82 f6bd 56a0 2abe
00000090: 303e b7bd 2c5b 773d bd62 bcbd 40d9 f53b
000000a0: a038 c1bd 35d8 053e 1507 14be c014 aebc
000000b0: f282 e13d 9f1b 113e 1bd0 383e 0c63 6a3d
000000c0: 004b 453c f485 8cbd 8a00 9fbd 4d65 993d
000000d0: 7860 203e cb44 06be b58c 2f3d bf64 60bd
000000e0: 17ea aebd fe5a ec3d 2aec 40bc ed03 0d3e
000000f0: 3781 193e 8584 b33c bfcc 9d3d 0c69 fd3c
00000100: a434 b7bc 9f90 9c3d 51ce c93b c2de ea3b
00000110: 5b44 1f3e dfb0 26bd 8848 e63d 3506 15be
00000120: b626 f83b 1a16 e83a ce7b 673d 2ae2 02be
00000130: e7ca 073e 5f4b 1f3e a05b bebd 8d30 353e
00000140: f2e8 20be e8bf 283d 3bd8 013e 5844 21be
00000150: da4f dfbd 188f 18bd 13a7 bcbd 6015 a9bd
00000160: ec1d 2c3d 8016 ee3c 5dde 3ebe b495 87bd
00000170: 8d39 183e e0d5 4fbd ea67 3abe 709e debc
00000180: 511d 3e3e 3058 f0bc d491 6a3d ad70 cabd
00000190: 6068 993b bd67 e8bd 40ef dabd fdcb 45be
000001a0: 0041 ff3a d020 84bc bd7a f2bd 6758 c3bd
000001b0: 6ebb 8f3d 3296 ff3d 1be8 343e 5a62 f9bd
000001c0: 5a57 c03d 608d dc3b b780 e9bd b84d 483d
000001d0: 58c1 163d cc66 39bd aa7f a7bd b3e4 083e
000001e0: d892 c9bc fe22 af3d da0b 8dbd b769 1b3e
000001f0: fc58 8ebd 1802 8a3d 82da a93d 6e50 0abd
00000200: 4090 63bd 0dfe 09be 00c9 243e 2935 273e
00000210: 8933 3f3e 17b9 c8bd f872 1dbd 2da6 48be
00000220: 51ca d9bd 6595 093d 0e87 303e 962e 073e
00000230: 78eb 80bd 5866 093d fc9d f43d 233d f0bd
00000240: 6701 48be a3d3 0c3e 9602 01bd 1634 cabc
00000250: 4a88 adbb 315b 0c3e 3b46 3dbe e1dd 0b3e
00000260: 479a 383e 7350 f33d 0924 08be 0b4c 17be
00000270: 209c 563e e914 523d 9ede a63d 3893 133e
00000280: 1334 e7bd b4c2 91bd 61a6 a93d 60b7 87bc
00000290: 8e65 553d bbc2 3d3e 4f94 00be f772 4b3d
000002a0: abd9 783d aba9 90bd 9fca 433d 5a1e c6bd
000002b0: 1fa1 32bc 8cae 003e b194 5f3d e0a8 0e3d
000002c0: 584f 44be 587b 1bbe d7ee eebd b8c6 21be
000002d0: f057 27be 30b5 3a3c 8002 4a3b d7b8 9bbd
000002e0: 3000 c6bd 4061 07be 1e6b e43d 97f1 bebd
000002f0: 805a 9d3c 0a65 bd3d d088 a63c b312 eabd
00000300: 80da 0bbb 669b c23d d80b b3bc 40a3 8bbb
00000310: ac3f 5abd 6505 11be 9a21 963d 8251 0bbe
00000320: b274 c2bd a84e ae3d b8c5 47bd 3640 4b3d
00000330: 9c37 b8bd 2142 06bb 4cb6 9d3d 67fd 00be
00000340: 7594 92bc 4a32 66bd 984a 17bd eba9 133d
00000350: 1a1a e239 4f84 a93d b8de 2e3e 2b12 32be
00000360: 65fd df3b 48af 49be 58fa 89bb bcc3 bc3c
00000370: 3797 053e 38c2 c83d 7ffc 21be fbd7 393c
00000380: b9cb 433e f11d 833b 6b79 83bc a15f b5bd
00000390: b59f 90bd c842 6fbd 9286 e43c 5fc2 00bd
000003a0: c9aa 93ba 637b ecbc dbfd 44be 1829 f83d
000003b0: a21f 4e3e c4bc 413e f7a3 04bd 3c82 08be
000003c0: 02bd ab3d 33d9 5fbd 9e7e 1c3e ad6c 593c
000003d0: d036 a7bd 67c6 94bd e119 d83d dc50 503d
000003e0: abd3 ab3d 121b 2ebe 8ee6 d63d 5f23 ca3d
000003f0: df09 dc3d 219d afbd 2c3c 203e da08 28be
-0.20223181 -0.09899324 -0.19213662 -0.028344834 -0.17177822 -0.05084579 -0.17866908 -0.1478115
0.14009479 -0.049369596 0.17534842 -0.061097022 0.19751579 0.0606399 -0.19822192 0.06262104
0.10334872 0.0063101156 0.09450039 0.14750841 -0.06528609 0.023610748 0.15537831 0.11679742
0.069308974 -0.023650289 0.13252465 0.056876972 -0.13379702 -0.17339972 -0.09653001 -0.0378298
-0.043077752 -0.16258988 -0.120365694 -0.16662726 -0.08947408 0.060389683 -0.0919852 0.007502705
-0.094346285 0.13070758 -0.14455827 -0.021250129 0.11011304 0.14170693 0.18048136 0.057223365
0.012041807 -0.06861487 -0.07763775 0.07490025 0.156618 -0.1311218 0.042858798 -0.05478358
-0.08540743 0.11540793 -0.011775056 0.13771029 0.14990698 0.021913776 0.07705068 0.03093388
-0.022363968 0.07644772 0.006158628 0.007167668 0.1555342 -0.04069602 0.11244303 -0.14553149
0.007572974 0.0017706782 0.056514554 -0.12781587 0.13260995 0.15556096 -0.0929482 0.17694302
-0.15713862 0.04119864 0.12680142 -0.15748727 -0.10903902 -0.03724584 -0.092115544 -0.0825603
0.042020723 0.029063463 -0.18639512 -0.066203505 0.14865704 -0.050741076 -0.18203703 -0.027175158
0.18565871 -0.029338926 0.05726798 -0.098847724 0.004681632 -0.113479115 -0.106901646 -0.19316097
0.0019474328 -0.016128927 -0.11839817 -0.09538346 0.07018171 0.12479819 0.17666666 -0.12176962
0.09391661 0.0067307204 -0.114015035 0.048902243 0.03680548 -0.04526405 -0.08178647 0.13368492
-0.024606153 0.08551596 -0.06887026 0.15177046 -0.06950566 0.067386806 0.0829363 -0.03376811
-0.05555749 -0.13475819 0.160923 0.16328873 0.18672003 -0.09800928 -0.03843972 -0.19594641
-0.10634292 0.03358974 0.1723902 0.13201365 -0.06294912 0.03354487 0.11944196 -0.11730411
-0.19531785 0.13752608 -0.031496607 -0.02468304 -0.005295788 0.13706662 -0.18483822 0.13658859
0.18027602 0.11880579 -0.13294996 -0.14775102 0.20957994 0.051289473 0.081479296 0.14411628
-0.11289229 -0.07117215 0.082836874 -0.016566932 0.052098803 0.18531315 -0.12556575 0.049670186
0.06075446 -0.070636116 0.047800656 -0.09673758 -0.010902672 0.12566584 0.054585163 0.03482902
-0.19170892 -0.1518377 -0.11666649 -0.15798461 -0.16342139 0.0113957375 0.0030824244 -0.07603615
-0.096680045 -0.13220692 0.111532435 -0.09323423 0.019208193 0.09247787 0.02032891 -0.11429348
-0.0021339953 0.09502296 -0.021856233 -0.0042614043 -0.05328338 -0.14162214 0.07330628 -0.13605312
-0.09494914 0.08511096 -0.048772544 0.049621783 -0.08994982 -0.0020486193 0.07700786 -0.12596665
-0.017893055 -0.056200303 -0.036936373 0.03605072 0.00043125526 0.08277189 0.17077148 -0.17389743
0.006835627 -0.1969577 -0.0042107515 0.023042552 0.13045965 0.09802669 -0.15818976 0.011342998
0.19120683 0.004001372 -0.016049108 -0.088561304 -0.07061712 -0.058413297 0.0278962 -0.031435367
-0.0011266108 -0.02886743 -0.19237463 0.12117213 0.20129254 0.18919665 -0.03238293 -0.1333093
0.0838566 -0.054650497 0.15282676 0.013270539 -0.081647515 -0.07264405 0.10551811 0.050858364
0.08389982 -0.17002514 0.104931936 0.09870028 0.1074407 -0.08574892 0.15647954 -0.16409627

fc1.bias f4 [32]
00000000: 7dbd b73c 2314 4b3e 5b67 82bd 8a2e dcbd
00000010: 4919 053e 9b2a 06be 1a4b d3bd 928a af3d
00000020: ec7f 16be c712 f83d 34dd aabd e7bc 1ebe
00000030: ccff 3d3e 90b5 9dbc 602c f8bd 0798 143e
00000040: 4f16 c63d 0a6b 3abe 45a3 7cbe c059 3bbd
00000050: bab0 473e be17 683c 1711 05bd b01c 283e
00000060: 1a96 aabd 7937 26be ba03 cbbd 488c 29be
00000070: 48a0 52bd 7b52 333e a098 c43b c481 05be
0.022429222 0.198319 -0.0636737 -0.10751064 0.12997927 -0.1310219 -0.10317059 0.08571352
-0.14697236 0.121129565 -0.083429724 -0.15501748 0.1855461 -0.019251615 -0.12117839 0.14511119
0.09672224 -0.18204895 -0.24671657 -0.04573989 0.1950101 0.014165817 -0.032487 0.16417193
-0.08329411 -0.16232099 -0.0991282 -0.1655742 -0.051422387 0.17511933 0.0059996396 -0.13037783

fc2.weight f4 [2, 32]
00000000: c8ff 8a3c b8b9 44bd ad57 0fbe b2a8 923d
00000010: 5003 30bc 2d73 a33d ebd4 9ebd 107e f6bc
00000020: 5b1b 803d 4147 19be 4f33 c53d f215 b9bd
00000030: 6b6d 5abd 4cb0 303d a3ab d63d 885b 32be
00000040: de67 263e e75d 1e3e d74c 42be 8f87 85bd
00000050: 0f66 c9bd 7826 3a3c f88e 053d d88a 023d
00000060: 6358 65bd 55ad 6bbd e0c0 5c3d 6651 f03d
00000070: 050b 2b3e 2193 213e bea9 bf3d b07a edbd
00000080: 72b1 babc 5444 f8bd 503b 22bd c0b7 21be
00000090: 0652 12be aec7 0d3e 8842 e53b cc96 05be
000000a0: 6c1a 9dbc 5381 113e 69ee cfbd 78d6 07be
000000b0: 0ab7 393e ee3a bb3d 5b50 b6bd 6ad4 a43d
000000c0: f5a9 74be 70cf 9dbc 9297 6ebd b5c7 353b
000000d0: c22f 02be e390 12bd dcf3 773d f06e 33bd
000000e0: 7897 9cbb 656d 9cbc 2c2f 93bb f57a 03be
000000f0: 08a7 8dbd 3876 04be 4034 20bc 9f4b 33be
0.01696767 -0.048028678 -0.1399829 0.07161082 -0.010742977 0.079809524 -0.07755455 -0.030089408
0.06255218 -0.14968587 0.09628927 -0.09037389 -0.053327005 0.04313688 0.10481956 -0.17417729
0.1625056 0.15465508 -0.18974625 -0.065199964 -0.09833919 0.011361711 0.03260705 0.031870693
-0.055992495 -0.05753835 0.053894877 0.117342755 0.16703422 0.15778781 0.09358548 -0.115956664
-0.02278969 -0.121224076 -0.039607346 -0.15792751 -0.14289102 0.13845703 0.0069964565 -0.13045806
-0.019177638 0.1420949 -0.10152895 -0.13265407 0.1813623 0.09142099 -0.08902045 0.08048327
-0.23892958 -0.019263953 -0.058250017 0.0027737443 -0.1271353 -0.035782706 0.060535297 -0.04380697
-0.0047787987 -0.019095132 -0.0044917073 -0.12839873 -0.06916624 -0.12935722 -0.009778082 -0.17509316

fc2.bias f4 [2]
00000000: 8c17 483e e8c7 85bc
0.19540232 -0.016330674
