micro_moves/ion_detection_ffnn_best.pth (torch, 5375 bytes, 4 tensors)

fc1.weight f4 [32, 25]
00000000: a02b 503c 2a1e 9ebd 1459 21bd 2c40 23bd
00000010: 70b4 9ebc 69b3 023e 9756 133e 504f 77bc
00000020: 4023 a73b 7387 d6bd 725f 29be d044 c5bd
00000030: 58f8 48be 2282 c43d 31ad 353e d00f 87bc
00000040: fbc3 2abe 50ac b4bc 08e3 07be be0a a93d
00000050: 200e 483d ccff 65bd f502 3fbe 0f99 173e
00000060: 70d4 bbbd 1ede 12be 74f7 173d 8c6c 3c3d
00000070: cca1 643d 6076 443d 26d3 d03d 29b7 183e
00000080: e1c9 4b3e 5061 46bc 7432 89bd bd67 babd
00000090: 42e4 26be b22f 2ebe 663b af3d 1f80 1a3e
000000a0: 2c6b 5ebd acda 7d3d 67bb 9ebd 280c 30bd
000000b0: e359 23be 50b1 cabd a8af 1fbe 39a4 173e
000000c0: faaa f33d aebe 27be e679 ed3c dbb5 36bd
000000d0: 49f5 153e 98bd fdbd d381 753d 0ea5 263e
000000e0: d2b1 0abe 4521 36be b16c 223e 71f1 1bbd
000000f0: 59a3 c03d e4ab 23bd 7942 243d 04db aabd
00000100: cc30 04be bab0 f43d ac43 9a3d 8a73 233e
00000110: 4e75 0fbd 4105 dabc ad68 33be cea8 53be
00000120: 16f3 1f3e 474e 333e 0dc4 08be 3cf0 be3d
00000130: 14a3 69bc 23cc 38be d289 8abd a75c df3d
00000140: 2bbe bfbd a0a8 c7bd 383c 633c c321 303e
00000150: 9ca4 803d b7d3 8a3d 51d5 f2bd ca11 ffbd
00000160: 18d9 403d 8b6b 37bd d757 afbc d30f 0dbe
00000170: 4c36 e8bd c1ef 88bd d754 97bc 416d 003e
00000180: fe66 093e 557b e13c 5ee8 3abd ad96 453d
00000190: 69e5 a23c fca9 553e ebbc 33be a728 523e
000001a0: 8ff5 88bd 0847 3c3e d0cb 15bd dfe5 0fbe
000001b0: a745 06be ec42 37bc b233 2d3d 791d 71bd
000001c0: e774 e7ba 9af0 ea3d 6c7e b63d 7e77 d73d
000001d0: fadf 0dbe 61f0 913d 738e 313e f8df 03be
000001e0: f259 1e3e d194 e2bd 3fab 14bd 66e8 303e
000001f0: 7fef a03d 2cbc 0b3d 7f69 123e d2a9 b53d
00000200: 1830 873c be72 c43d 8c70 3cbd a63d 9b3d
00000210: 18a7 2ebe e760 eebd 78d7 2a3d 9302 3a3e
00000220: 6d8a f7bd 4c01 0e3d a333 14be e08c 0dbe
00000230: c780 093e c283 9f3d 7aeb 80bd 80e0 c6bd
00000240: 4728 a1bd 7a02 d8bd 1392 3bbe d24f d43d
00000250: a312 18be 14d9 31bd 83cd 0cbe d8e5 b4bd
00000260: 61e9 053e 46dd f93d a5f7 ecbd 1677 c43d
00000270: 13c9 23be 25c4 24be 1fd7 14be 5d6f 873d
00000280: 76d6 8dbd 9fdd cb3d 0e1b df3d 8423 e63a
00000290: 3163 113e 4fe6 28be fb8d 41bc aae7 2ebe
000002a0: ff22 843d 7ee5 d63d b92e ce3d 0d06 debd
000002b0: 80f7 fe3d 564e 8f3d 62d8 013e 4a74 993d
000002c0: 779c bbbd d730 303e 4c1f 44bd 3b52 37be
000002d0: d050 2fbe 925c 843d 6eab 833d 4cee 383d
000002e0: 1a07 d63d d0d5 cebd b0bb 1dbc dac8 afbd
000002f0: 3303 b0bd 78e7 263d c084 b7bc b6cd f23d
00000300: 8021 c9ba 3a5d d3bd 2d28 c6bd b7ec 323e
00000310: a0fe d43b e566 0cbe 921d d13d 4e57 8a3d
00000320: 4c52 80bd 04ee 573d a2fc 5ebd 9d05 39bd
00000330: e123 23be c661 a0bc 824c 643d 10d1 143d
00000340: c22d 003e a81d 083e 55fa 96bd 73fe e9bd
00000350: 1807 5cbe ca83 2dbe 341a 1abe fe7c 16bc
00000360: 9d35 403e b101 083e 032a cb3d 1e28 083d
00000370: 1d10 823d 190e 2a3d 3866 013e 8ab0 c93c
00000380: 06db 82bc 2953 103e 80f4 babd 0308 a0bd
00000390: 8294 a23d 2656 97bd ac76 44bd c909 183e
000003a0: 50d8 25be d4b4 303d 8350 eebd 1496 6b3d
000003b0: 4b09 37be 2e99 ca3d b281 d23d 0658 fc3d
000003c0: 6a77 c4bd 7a75 db3d ef5f 1a3e ca5f f7bd
000003d0: caa7 14be 6089 89bb b8c5 48bd 5491 89bd
000003e0: 1213 aa3d a34f fcbd b578 32be 77ae 9cbc
000003f0: e39b 323e 4b6d 33be 8de1 763c a1c7 31be
0.0127057135 -0.07720597 -0.039391592 -0.03985612 -0.019373149 0.12763752 0.143885 -0.015094593
0.0051006377 -0.10475054 -0.16540316 -0.096322656 -0.19625986 0.09595133 0.17741849 -0.016487032
-0.16676323 -0.022054821 -0.132702 0.08254002 0.048841596 -0.05615215 -0.18653472 0.14804481
-0.091713786 -0.14342543 0.037101224 0.046001956 0.055818364 0.047964454 0.10196523 0.1491362
0.1990123 -0.012108162 -0.06699076 -0.09101818 -0.16298011 -0.17010382 0.08556251 0.15087937
-0.054301426 0.06197612 -0.07750588 -0.042980343 -0.15952258 -0.09897101 -0.15594351 0.1480874
0.118978456 -0.16381332 0.02898879 -0.044607025 0.1464435 -0.12389678 0.059938263 0.16273901
-0.13544396 -0.17786129 0.15861775 -0.038072053 0.09406156 -0.03995885 0.040102456 -0.08342555
-0.1290924 0.119477704 0.07532439 0.15962043 -0.03502398 -0.026613833 -0.175204 -0.20669863
0.15620074 0.17510329 -0.13356037 0.09323165 -0.014260072 -0.18046622 -0.067645684 0.10906344
-0.093624435 -0.097489595 0.013869338 0.17200379 0.06281397 0.06778663 -0.11857093 -0.12454565
0.047082037 -0.044780295 -0.02140419 -0.13775568 -0.11338481 -0.066863544 -0.018473072 0.12541677
0.13418195 0.02752463 -0.04563176 0.0482394 0.019884782 0.20865625 -0.17552535 0.2052332
-0.066874616 0.18386471 -0.036571324 -0.14052533 -0.13112508 -0.011185389 0.04228563 -0.058865998
-0.0017658741 0.11471672 0.08910832 0.10520838 -0.13854972 0.07125927 0.17339496 -0.12878406
0.15463999 -0.11063541 -0.036296126 0.17276153 0.0785818 0.034115 0.14298056 0.08870281
0.016502425 0.09592198 -0.04600577 0.07580118 -0.17055929 -0.116395764 0.041709393 0.18165044
-0.120869495 0.034669206 -0.14472823 -0.13823271 0.13428031 0.07788803 -0.062949136 -0.09710789
-0.078690104 -0.10547347 -0.18317442 0.10366787 -0.1485086 -0.043419912 -0.13750271 -0.08832902
0.13077308 0.12200408 -0.11570672 0.09593026 -0.15994672 -0.16090448 -0.14535187 0.06613038
-0.06925671 0.0995438 0.10893832 0.0017558192 0.14197995 -0.16494106 -0.011813636 -0.1708056
0.064519875 0.10492991 0.100675054 -0.10840998 0.12449551 0.06997363 0.126802 0.074928835
-0.09160703 0.17206131 -0.04788141 -0.17902462 -0.17120671 0.06462969 0.06429182 0.045149133
0.10450573 -0.10099375 -0.009627268 -0.08583231 -0.0859436 0.04074809 -0.022402167 0.118556425
-0.0015345067 -0.10320516 -0.09675632 0.17473112 0.00650008 -0.13711126 0.10210718 0.06754933
-0.06265697 0.052717224 -0.05444015 -0.04517137 -0.15931655 -0.019577872 0.055737026 0.03633219
0.12517455 0.13292563 -0.07371966 -0.114254855 -0.21487081 -0.16944805 -0.15049058 -0.009185074
0.18770452 0.13281895 0.099201225 0.033241384 0.063507296 0.04151735 0.1263665 0.024620313
-0.01597358 0.14094223 -0.09128666 -0.07814028 0.07938482 -0.073894784 -0.047964737 0.14847483
-0.16195798 0.0431412 -0.1163645 0.057516173 -0.17874639 0.09892498 0.10278644 0.12321477
-0.09593089 0.10715766 0.15075658 -0.12078817 -0.14517131 -0.0041972846 -0.049016684 -0.06717172
0.083044186 -0.12319877 -0.17428859 -0.01912616 0.17442279 -0.1752216 0.015068424 -0.17361309

fc1.bias f4 [32]
00000000: 6391 2c3e 6036 63bc 570b ea3d b25f c2bd
00000010: 31c2 553c 7b74 263e 20c2 d83d a047 c93b
00000020: 5df4 443e 116f 143e a940 52be 73ba 103e
00000030: a69c 22be be36 22be 6423 f2bd e0c6 343d
00000040: 43b3 a5bc 7911 2fbd 7760 10be b564 1e3d
00000050: 08ab 62bd a100 0bbe 3758 2c3e fa6d 45be
00000060: 62a2 4ebd f092 a4bc 3828 1a3d afe0 423e
00000070: 2ce8 39bc 7752 d93d 82f7 f43d 54fc 4d3d
0.16852336 -0.0138679445 0.11427944 -0.09490909 0.013046787 0.16255371 0.105839014 0.0061425716
0.19233842 0.14495493 -0.20532478 0.14133625 -0.15880069 -0.15841195 -0.118231565 0.044134974
-0.02022708 -0.042741273 -0.14099298 0.03867026 -0.05533889 -0.13574459 0.16830526 -0.19280234
-0.05044783 -0.020089597 0.03763601 0.19031022 -0.011346858 0.10611432 0.11961271 0.050289467

fc2.weight f4 [2, 32]
00000000: aa40 a53d 782b 0abd 991f f6bd a5a0 18be
00000010: 95dd d73d bde9 303e 84df 57bd 3811 a43c
00000020: ed76 e73d c680 bd3d b090 0fbe 3602 763d
00000030: 7186 0bbd e23d 07be e4ce 2d3e 12bc 6dbd
00000040: 07bd a13c 1afe ee3d 9f2a 213d abc8 3f3c
00000050: 74c9 20be ceee a3bd 843e 32bd fdc3 2cbe
00000060: 8948 93bd 149a 2d3d 822f b9bd 005d f43c
00000070: 382c 03be afcd b53d 754d d3bd d423 653d
00000080: ec81 4f3d 4a00 cb3d 8e8a 0abe 9df7 523d
00000090: b366 31bd 5fb4 213e 3eb3 5fbd c091 8c3b
000000a0: 5340 cc3d 8141 98bd 8f6e 163d 965e 943d
000000b0: 8e6b 4e3c 09cd 0c3e 8ffc 4c3b e0b4 cebd
000000c0: 23dc d13d 30e3 013e 8e92 a63d e9ec d5bb
000000d0: 207e 093c 9b5f e73d 4c40 7a3d 66e7 d03d
000000e0: 6bf4 89bc 018c 9abd baa6 ca3d b6e6 a23d
000000f0: 5c25 c9bd 634b df3d 4440 a5bd 4715 143e
0.08068974 -0.03373286 -0.120177455 -0.14905031 0.1054031 0.17276664 -0.052703395 0.020027742
0.1130198 0.09253077 -0.14020038 0.060060702 -0.03406376 -0.132072 0.16973454 -0.058040686
0.019743456 0.1166956 0.039347287 0.011705558 -0.15701848 -0.08004533 -0.04351665 -0.16871639
-0.07191569 0.04238327 -0.090422645 0.029829502 -0.12809837 0.08877122 -0.10317508 0.05594237
0.050661013 0.099121645 -0.13529417 0.051505674 -0.043310832 0.15791462 -0.054614298 0.0042898357
0.09973206 -0.07434369 0.03672653 0.07244603 0.012598885 0.1375009 0.0031278466 -0.10093093
0.10247066 0.12684321 0.08133422 -0.006528486 0.008391887 0.11297532 0.061096475 0.10200386
-0.01684018 -0.07546235 0.09895082 0.07954161 -0.09821579 0.10903051 -0.08068898 0.14461242

fc2.bias f4 [2]
00000000: c40f 053e 2440 02be
0.12994295 -0.1271978
